small_dqn_bot/model.pth (torch, 13978 bytes, 30 tensors)

layer1.weight f4 [8, 5]
000000 4f b3 31 bd f2 dc 0d be 42 d4 03 3d 6e a1 68 bd
       -0.043383893 -0.13853815 0.032184847 -0.056794576
000010 25 76 9a bd f2 4a f3 bd 92 38 2c be 70 65 bb bd
       -0.075420655 -0.11879529 -0.16818455 -0.09150207
000020 0a f4 ef bd e6 ac 3c be f1 39 6d 42 2c 66 6d 42
       -0.11716469 -0.1842533 59.306583 59.349777
000030 36 ee df 41 6f 91 4a 41 70 d2 a0 41 06 f2 6d 42
       27.991314 12.660506 20.102753 59.48635
000040 20 6e 6f 42 82 36 e3 41 2d 70 51 41 7e 79 a6 41
       59.857544 28.401615 13.089887 20.809322
000050 a4 8c 6c 42 58 8a 6d 42 8e 55 e1 41 40 3e 4d 41
       59.137344 59.3851 28.166775 12.827698
000060 c5 45 a3 41 6c e5 17 be cc e0 15 be fb 64 37 bd
       20.409067 -0.14833611 -0.14636534 -0.044774037
000070 1d 00 0b bd fd 42 1e be eb c9 6c 42 77 10 6d 42
       -0.033935655 -0.15455242 59.197186 59.26608
000080 eb 88 df 41 38 93 48 41 3c 7f 9f 41 7f b2 6c 42
       27.941854 12.535942 19.937126 59.174313
000090 0a aa 6e 42 12 00 e0 41 48 d3 4c 41 de 24 a3 41
       59.666054 28.000034 12.801582 20.393002

layer1.bias f4 [8]
000000 b1 1a 78 3d 4a 6c fa 3d 91 ca 6a 42 b4 8a 6c 42
       0.06057233 0.12227686 58.69782 59.135452
000010 33 35 6b 42 6b aa f8 3d ef 31 6b 42 31 ca 6b 42
       58.801952 0.1214188 58.798763 58.947453

layer2.weight f4 [8, 8]
000000 2c 79 60 3d 83 e2 f9 bd a5 27 00 42 77 f1 11 42
       0.05480306 -0.12201407 32.038715 36.485806
000010 ed 4c 0a 42 06 f0 3e bd 45 6a ed 41 c2 56 09 42
       34.575123 -0.046615623 29.67689 34.334724
000020 b6 01 88 3d a6 32 3d 3d e5 b5 1f 42 66 4e 1a 42
       0.06640951 0.04619088 39.92763 38.57656
000030 05 4e 1e 42 3c 0b 79 bd 0a 6a 22 42 02 8f 1e 42
       39.57619 -0.06080173 40.603554 39.639656
000040 54 f8 92 3d 00 ac dc 3c cb 9d 20 42 9c 06 1a 42
       0.07176271 0.026937485 40.154095 38.506454
000050 ab 2f 1f 42 dd 6d 1a 3e 91 9a 21 42 84 60 1e 42
       39.79655 0.15080972 40.400944 39.594254
000060 a3 22 1d 3d 00 5a 61 bd 85 c1 20 42 51 ba 1a 42
       0.03836311 -0.05501747 40.188984 38.68195
000070 23 36 1e 42 af 67 52 3d 8e 4e 21 42 9a 8c 1e 42
       39.552868 0.05136841 40.326714 39.637306
000080 5a 9e c3 bd 8b 2e af 3d a9 b7 20 42 f0 37 1a 42
       -0.095516875 0.08553799 40.179356 38.554626
000090 93 f8 1e 42 68 16 b5 bd e7 cb 21 42 8a 72 1e 42
       39.74275 -0.08842164 40.449123 39.611855
0000a0 7b fa e1 3c 5c 28 98 bd ec e1 20 42 2a da 1a 42
       0.027585259 -0.07429573 40.220627 38.71305
0000b0 86 25 1f 42 fb ef 40 3d 3f 29 22 42 4a a9 1e 42
       39.786644 0.047103863 40.54028 39.66532
0000c0 6a 8f 91 bd e9 fa 86 3d 9b a6 20 42 46 56 1b 42
       -0.07107432 0.06590826 40.1627 38.83425
0000d0 23 d4 1e 42 7f c0 10 bd 79 b4 21 42 dc f0 1d 42
       39.707165 -0.03533983 40.426243 39.485214
0000e0 05 89 8f 3d 1f 96 03 3d ec 34 0e 3d 69 a8 80 bd
       0.07008556 0.03212559 0.03471844 -0.06282122
0000f0 3b 03 93 3d 98 1e 2c 3d 4c 9b 6e bc d1 b5 21 be
       0.071783505 0.042021364 -0.014563393 -0.15792014

layer2.bias f4 [8]
000000 79 17 45 42 21 b7 70 42 d9 b3 70 42 1b 3d 71 42
       49.272923 60.178837 60.175632 60.309673
000010 a1 27 71 42 bd 23 71 42 83 ac 70 42 3b 77 0d bd
       60.2887 60.2849 60.16847 -0.034537535

layer3.weight f4 [9, 8]
000000 ee 63 91 41 ad 9e 9a 41 a3 d8 9a 41 c8 45 9c 41
       18.173794 19.327478 19.35578 19.534073
000010 bc 84 9c 41 f0 9d 9a 41 a7 df 9b 41 05 82 ee 3d
       19.564812 19.327118 19.484205 0.11645893
000020 78 1b 91 41 e2 0d 9b 41 80 d4 98 41 3d 9b 9b 41
       18.138412 19.381779 19.10376 19.4508
000030 f2 27 98 41 42 09 99 41 e6 5e 9a 41 ec 39 25 bd
       19.019505 19.12952 19.296337 -0.04033844
000040 06 2c 8f 41 9a b4 99 41 b6 da 98 41 75 14 9a 41
       17.896496 19.213184 19.106792 19.259989
000050 52 5e 9a 41 6c ca 9a 41 b7 24 9b 41 91 08 66 bd
       19.296055 19.348839 19.392927 -0.056160513
000060 f3 55 80 41 12 8e 9e 41 1b ed 9c 41 98 13 9d 41
       16.041967 19.81937 19.615774 19.634567
000070 5f 9f 9c 41 57 3e 9c 41 c6 31 9d 41 81 a4 27 3e
       19.577818 19.53044 19.649303 0.16371347
000080 b4 a1 81 41 ea 55 9e 41 87 fe 9b 41 4c a2 9d 41
       16.203957 19.79195 19.49928 19.704247
000090 6a bd 9c 41 f1 ef 9c 41 18 db 9d 41 68 0d 2c bd
       19.592487 19.617159 19.73198 -0.042004973
0000a0 2e e6 74 41 02 b0 9d 41 cb 6b 9d 41 61 51 9d 41
       15.306196 19.710941 19.677633 19.664736
0000b0 23 91 9b 41 f9 1e 9b 41 a7 3f 9d 41 25 d6 cb 3d
       19.445868 19.390123 19.65608 0.09952954
0000c0 f0 2f 52 41 78 43 a0 41 11 55 a1 41 2a 31 a1 41
       13.1367035 20.032944 20.166536 20.149006
0000d0 21 fb a1 41 cf 9e 9f 41 33 b5 a0 41 ac c5 9b bd
       20.247622 19.952543 20.088476 -0.07606062
0000e0 93 87 b5 41 54 75 fd 41 80 47 fd 41 75 a4 fd 41
       22.691198 31.68229 31.659912 31.705301
0000f0 21 4b fd 41 4f ca fc 41 da 01 fc 41 4b 4c 07 be
       31.661684 31.598783 31.500904 -0.13212697
000100 5d 1e 57 41 ba b0 a1 41 a4 3a a0 41 39 e5 9e 41
       13.444913 20.211292 20.028633 19.861925
000110 9e 3d a0 41 e9 12 a0 41 05 a6 9e 41 44 42 00 3e
       20.030087 20.009233 19.831064 0.12525278

layer3.bias f4 [9]
000000 5a 5d ce 41 ad ef dd 41 22 30 c7 41 0d dd ca 41
       25.795582 27.74203 24.898502 25.357935
000010 f4 80 df 41 be b5 d3 41 fb 55 bf 41 ad 04 24 42
       27.937965 26.463741 23.916983 41.004566
000020 84 45 a8 41
       21.033943

layer1.weight f4 [8, 5]
000000 7f 68 32 bd 94 6d 0e be a7 5a 04 3d ac 8e 69 bd
       -0.043556686 -0.13908988 0.032313015 -0.057020828
000010 b5 13 9b bd 0a 43 f4 bd 2a e8 2c be 81 24 bc bd
       -0.07572118 -0.11926849 -0.16885439 -0.0918665
000020 b7 e8 f0 bd 54 6d 3d be cb 94 6c 42 32 c1 6c 42
       -0.11763137 -0.18498737 59.145306 59.188667
000030 ce 15 e2 41 e6 96 4c 41 d9 22 a1 41 a1 4d 6d 42
       28.260647 12.78684 20.142015 59.32581
000040 3d cb 6e 42 19 61 e5 41 8f 7c 53 41 f2 cf a6 41
       59.698475 28.672411 13.21791 20.851536
000050 c2 e6 6b 42 91 e5 6c 42 7e 7e e3 41 84 46 4f 41
       58.97535 59.224186 28.436764 12.954716
000060 de 98 a3 41 42 80 18 be a4 79 16 be 08 20 38 bd
       20.449642 -0.14892676 -0.1469484 -0.044952422
000070 ea 8d 0b bd 66 e4 1e be 5e 24 6c 42 32 6b 6c 42
       -0.034070887 -0.15516815 59.035515 59.104683
000080 27 b0 e1 41 bc 96 4a 41 87 ce 9f 41 d5 0c 6c 42
       28.211012 12.6618 19.975843 59.01253
000090 60 06 6e 42 9c 27 e2 41 02 db 4e 41 ac 77 a3 41
       59.506226 28.26934 12.928469 20.433434

layer1.bias f4 [8]
000000 b8 17 79 3d ad 6b fb 3d f9 22 6a 42 d4 e4 6b 42
       0.060813636 0.12276397 58.534153 58.973465
000010 05 8e 6a 42 03 a8 f9 3d bd 8a 6a 42 89 23 6b 42
       58.63869 0.12190249 58.635487 58.784702

layer2.weight f4 [8, 8]
000000 19 5e 61 3d 50 e1 fa bd 9b 03 00 42 3e e2 11 42
       0.05502138 -0.12250006 32.00352 36.47094
000010 24 34 0a 42 c5 b2 3f bd c3 0d ed 41 a8 3c 09 42
       34.55092 -0.046801347 29.63172 34.309235
000020 7d 8c 88 3d 92 f3 3d 3d e2 b1 1f 42 f3 46 1a 42
       0.06667421 0.046374865 39.923714 38.569286
000030 98 49 1e 42 2f 09 7a bd 2b 68 22 42 32 8a 1e 42
       39.57187 -0.061043914 40.601727 39.634956
000040 2b 8e 93 3d 0e 8d dd 3c 8c 9a 20 42 c7 fe 19 42
       0.07204851 0.0270448 40.150925 38.498806
000050 15 2c 1f 42 64 0b 1b 3e e9 97 21 42 c0 5b 1e 42
       39.79305 0.15141064 40.39835 39.5896
000060 dd c2 1d 3d cc 3f 62 bd 55 be 20 42 3d b3 1a 42
       0.038515914 -0.055236623 40.18587 38.675037
000070 a7 31 1e 42 39 3e 53 3d f0 4b 21 42 c7 87 1e 42
       39.54849 0.051573012 40.324158 39.632595
000080 d8 65 c4 bd 2b e1 af 3d 79 b4 20 42 15 30 1a 42
       -0.09589738 0.08587869 40.176243 38.546955
000090 ed f4 1e 42 17 cf b5 bd 46 c9 21 42 c0 6d 1e 42
       39.739185 -0.0887739 40.446556 39.607178
0000a0 f2 e0 e2 3c 76 c3 98 bd c0 de 20 42 16 d3 1a 42
       0.027695153 -0.07459156 40.21753 38.70614
0000b0 d3 21 1f 42 b6 b4 41 3d 74 27 22 42 74 a4 1e 42
       39.78303 0.04729148 40.53853 39.6606
0000c0 ce 23 92 bd 84 84 87 3d 6f a3 20 42 fe 4f 1b 42
       -0.071357355 0.06617072 40.159603 38.828117
0000d0 bf cf 1e 42 10 54 11 bd d3 b1 21 42 48 eb 1d 42
       39.702877 -0.03548056 40.423656 39.479767
0000e0 69 1b 90 3d 53 1c 04 3d f6 c5 0e 3d 95 2b 81 bd
       0.07036478 0.032253575 0.03485676 -0.06307141
0000f0 1b 99 93 3d 18 ce 2c 3d 99 8e 6f bc b5 5a 22 be
       0.07206937 0.042188734 -0.0146214 -0.15854914

layer2.bias f4 [8]
000000 9c 44 44 42 f8 15 70 42 a9 12 70 42 74 9c 70 42
       49.067 60.021454 60.018223 60.152786
000010 cf 86 70 42 e4 82 70 42 3d 0b 70 42 82 07 0e bd
       60.13165 60.127823 60.010975 -0.03467513

layer3.weight f4 [9, 8]
000000 2a f8 91 41 4f 3c 9b 41 86 76 9b 41 20 e5 9c 41
       18.246174 19.404448 19.432873 19.611877
000010 67 24 9d 41 91 3b 9b 41 b3 7e 9c 41 36 75 ef 3d
       19.642775 19.404085 19.561865 0.11692278
000020 7e af 91 41 10 ac 9b 41 54 70 99 41 e6 39 9c 41
       18.21069 19.459015 19.179848 19.52827
000030 ae c2 98 41 3d a5 99 41 6c fc 9a 41 66 e2 25 bd
       19.095058 19.205683 19.373253 -0.040499114
000040 ff bd 8f 41 66 51 9a 41 8a 76 99 41 91 b1 9a 41
       17.967772 19.289745 19.18288 19.336702
000050 d5 fb 9a 41 4b 68 9b 41 04 c3 9b 41 20 f3 66 bd
       19.372965 19.425924 19.470222 -0.056384206
000060 e2 d8 80 41 b9 2f 9f 41 22 8d 9d 41 c4 b3 9d 41
       16.1059 19.898302 19.693913 19.712776
000070 22 3f 9d 41 a1 dd 9c 41 19 d2 9d 41 6e 4f 28 3e
       19.655827 19.608217 19.727587 0.1643655
000080 da 25 82 41 61 f7 9e 41 a1 9d 9c 41 0c 43 9e 41
       16.268482 19.87079 19.576967 19.782738
000090 49 5d 9d 41 f6 8f 9d 41 0c 7c 9e 41 d9 bc 2c bd
       19.67055 19.695293 19.81057 -0.042172287
0000a0 f4 df 75 41 c9 50 9e 41 5f 0c 9e 41 e2 f1 9d 41
       15.367176 19.789446 19.75604 19.743107
0000b0 c2 2f 9c 41 2f bd 9b 41 0c e0 9d 41 13 a6 cc 3d
       19.52332 19.467375 19.734398 0.09992614
0000c0 43 06 53 41 ea e6 a0 41 9a f9 a1 41 9c d5 a1 41
       13.189029 20.112751 20.246876 20.229301
0000d0 5b a0 a2 41 a8 41 a0 41 11 59 a1 41 98 64 9c bd
       20.328299 20.032059 20.16849 -0.07636374
0000e0 8f f2 b4 41 b2 29 fd 41 a1 fb fc 41 13 59 fd 41
       22.618437 31.645359 31.622866 31.668493
0000f0 4a ff fc 41 16 7e fc 41 d5 b4 fb 41 50 d6 07 be
       31.624653 31.561565 31.463297 -0.13265347
000100 be f9 57 41 97 55 a2 41 0b de a0 41 54 87 9f 41
       13.498472 20.291792 20.10842 19.941078
000110 0a e1 a0 41 20 b6 a0 41 cc 47 9f 41 12 c5 00 3e
       20.109882 20.088928 19.910057 0.12575176

layer3.bias f4 [9]
000000 c6 2f cf 41 ff d1 de 41 4c fb c7 41 ec ab cb 41
       25.898327 27.852537 24.997704 25.458946
000010 e1 64 e0 41 9c 8d d4 41 15 19 c0 41 ce 1e 23 42
       28.049257 26.569145 24.012247 40.780083
000020 1b f1 a8 41
       21.117727

exp_avg f4 [8, 5]
000000 00 00 00 00 00 00 00 00 00 00 00 00 00 00 00 00
       0.0 0.0 0.0 0.0
000010 00 00 00 00 00 00 00 00 00 00 00 00 00 00 00 00
       0.0 0.0 0.0 0.0
000020 00 00 00 00 00 00 00 00 fc ff c7 c2 fc ff c7 c2
       0.0 0.0 -99.99997 -99.99997
000030 99 8b 5c 42 65 e8 c5 41 c5 6d 46 41 fc ff c7 c2
       55.136326 24.738474 12.401799 -99.99997
000040 fc ff c7 c2 02 70 5c 42 5f e8 c5 41 c5 6d 46 41
       -99.99997 55.109383 24.738462 12.401799
000050 fc ff c7 c2 fc ff c7 c2 88 87 5c 42 65 e8 c5 41
       -99.99997 -99.99997 55.132355 24.738474
000060 c5 6d 46 41 00 00 00 00 00 00 00 00 00 00 00 00
       12.401799 0.0 0.0 0.0
000070 00 00 00 00 00 00 00 00 fc ff c7 c2 fc ff c7 c2
       0.0 0.0 -99.99997 -99.99997
000080 a9 8c 5c 42 67 e8 c5 41 c5 6d 46 41 fc ff c7 c2
       55.137363 24.738478 12.401799 -99.99997
000090 fc ff c7 c2 30 84 5c 42 65 e8 c5 41 c5 6d 46 41
       -99.99997 55.12909 24.738474 12.401799

exp_avg_sq f4 [8, 5]
000000 00 00 00 00 00 00 00 00 00 00 00 00 00 00 00 00
       0.0 0.0 0.0 0.0
000010 00 00 00 00 00 00 00 00 00 00 00 00 00 00 00 00
       0.0 0.0 0.0 0.0
000020 00 00 00 00 00 00 00 00 90 3e 1c 46 90 3e 1c 46
       0.0 0.0 9999.641 9999.641
000030 c2 45 fe 45 1a 29 1c 46 90 3e 1c 46 90 3e 1c 46
       8136.7197 9994.275 9999.641 9999.641
000040 90 3e 1c 46 71 f3 fd 45 6e 28 1c 46 90 3e 1c 46
       9999.641 8126.43 9994.107 9999.641
000050 90 3e 1c 46 90 3e 1c 46 a0 39 fe 45 00 29 1c 46
       9999.641 9999.641 8135.203 9994.25
000060 90 3e 1c 46 00 00 00 00 00 00 00 00 00 00 00 00
       9999.641 0.0 0.0 0.0
000070 00 00 00 00 00 00 00 00 90 3e 1c 46 90 3e 1c 46
       0.0 0.0 9999.641 9999.641
000080 d1 48 fe 45 20 29 1c 46 90 3e 1c 46 90 3e 1c 46
       8137.102 9994.281 9999.641 9999.641
000090 90 3e 1c 46 60 2f fe 45 eb 28 1c 46 90 3e 1c 46
       9999.641 8133.922 9994.2295 9999.641

max_exp_avg_sq f4 [8, 5]
000000 00 00 00 00 00 00 00 00 00 00 00 00 00 00 00 00
       0.0 0.0 0.0 0.0
000010 00 00 00 00 00 00 00 00 00 00 00 00 00 00 00 00
       0.0 0.0 0.0 0.0
000020 00 00 00 00 00 00 00 00 90 3e 1c 46 90 3e 1c 46
       0.0 0.0 9999.641 9999.641
000030 90 3e 1c 46 e8 3d 1c 46 90 3e 1c 46 90 3e 1c 46
       9999.641 9999.477 9999.641 9999.641
000040 90 3e 1c 46 90 3e 1c 46 da 3d 1c 46 90 3e 1c 46
       9999.641 9999.641 9999.463 9999.641
000050 90 3e 1c 46 90 3e 1c 46 90 3e 1c 46 06 3e 1c 46
       9999.641 9999.641 9999.641 9999.506
000060 90 3e 1c 46 00 00 00 00 00 00 00 00 00 00 00 00
       9999.641 0.0 0.0 0.0
000070 00 00 00 00 00 00 00 00 90 3e 1c 46 90 3e 1c 46
       0.0 0.0 9999.641 9999.641
000080 90 3e 1c 46 e9 3d 1c 46 90 3e 1c 46 90 3e 1c 46
       9999.641 9999.478 9999.641 9999.641
000090 90 3e 1c 46 90 3e 1c 46 e4 3d 1c 46 90 3e 1c 46
       9999.641 9999.641 9999.473 9999.641

exp_avg f4 [8]
000000 00 00 00 00 00 00 00 00 fc ff c7 c2 fc ff c7 c2
       0.0 0.0 -99.99997 -99.99997
000010 fc ff c7 c2 00 00 00 00 fc ff c7 c2 fc ff c7 c2
       -99.99997 0.0 -99.99997 -99.99997

exp_avg_sq f4 [8]
000000 00 00 00 00 00 00 00 00 90 3e 1c 46 90 3e 1c 46
       0.0 0.0 9999.641 9999.641
000010 90 3e 1c 46 00 00 00 00 90 3e 1c 46 90 3e 1c 46
       9999.641 0.0 9999.641 9999.641

max_exp_avg_sq f4 [8]
000000 00 00 00 00 00 00 00 00 90 3e 1c 46 90 3e 1c 46
       0.0 0.0 9999.641 9999.641
000010 90 3e 1c 46 00 00 00 00 90 3e 1c 46 90 3e 1c 46
       9999.641 0.0 9999.641 9999.641

exp_avg f4 [8, 8]
000000 00 00 00 00 00 00 00 00 e8 65 2c c1 8f e1 2b c1
       0.0 0.0 -10.774879 -10.742568
000010 7a 63 2c c1 00 00 00 00 a2 67 2c c1 4a 64 2c c1
       -10.774286 0.0 -10.775301 -10.774485
000020 00 00 00 00 00 00 00 00 17 68 2c c1 26 61 2c c1
       0.0 0.0 -10.775413 -10.773718
000030 b0 64 2c c1 00 00 00 00 77 68 2c c1 d3 65 2c c1
       -10.774582 0.0 -10.775504 -10.774859
000040 00 00 00 00 00 00 00 00 16 68 2c c1 26 61 2c c1
       0.0 0.0 -10.775412 -10.773718
000050 b0 64 2c c1 00 00 00 00 77 68 2c c1 d3 65 2c c1
       -10.774582 0.0 -10.775504 -10.774859
000060 00 00 00 00 00 00 00 00 17 68 2c c1 27 61 2c c1
       0.0 0.0 -10.775413 -10.773719
000070 b0 64 2c c1 00 00 00 00 77 68 2c c1 d4 65 2c c1
       -10.774582 0.0 -10.775504 -10.77486
000080 00 00 00 00 00 00 00 00 16 68 2c c1 26 61 2c c1
       0.0 0.0 -10.775412 -10.773718
000090 b0 64 2c c1 00 00 00 00 77 68 2c c1 d3 65 2c c1
       -10.774582 0.0 -10.775504 -10.774859
0000a0 00 00 00 00 00 00 00 00 11 68 2c c1 26 61 2c c1
       0.0 0.0 -10.775407 -10.773718
0000b0 ad 64 2c c1 00 00 00 00 77 68 2c c1 cf 65 2c c1
       -10.774579 0.0 -10.775504 -10.774856
0000c0 00 00 00 00 00 00 00 00 0b 68 2c c1 26 61 2c c1
       0.0 0.0 -10.775401 -10.773718
0000d0 aa 64 2c c1 00 00 00 00 77 68 2c c1 ca 65 2c c1
       -10.774576 0.0 -10.775504 -10.774851
0000e0 00 00 00 00 00 00 00 00 04 00 00 00 04 00 00 00
       0.0 0.0 6e-45 6e-45
0000f0 04 00 00 00 00 00 00 00 04 00 00 00 04 00 00 00
       6e-45 0.0 6e-45 6e-45

exp_avg_sq f4 [8, 8]
000000 00 00 00 00 00 00 00 00 14 4d 1b 46 f2 ee 1a 46
       0.0 0.0 9939.27 9915.736
000010 a7 34 1b 46 00 00 00 00 ef 6c 1b 46 e5 3a 1b 46
       9933.163 0.0 9947.233 9934.724
000020 00 00 00 00 00 00 00 00 4c df 1b 46 e8 37 1b 46
       0.0 0.0 9975.824 9933.977
000030 4d 71 1b 46 00 00 00 00 0d cb 1b 46 2f 93 1b 46
       9948.325 0.0 9970.763 9956.796
000040 00 00 00 00 00 00 00 00 0c df 1b 46 da 37 1b 46
       0.0 0.0 9975.762 9933.963
000050 2e 71 1b 46 00 00 00 00 ed ca 1b 46 ff 92 1b 46
       9948.295 0.0 9970.731 9956.749
000060 00 00 00 00 00 00 00 00 92 df 1b 46 f5 37 1b 46
       0.0 0.0 9975.893 9933.989
000070 72 71 1b 46 00 00 00 00 2f cb 1b 46 5d 93 1b 46
       9948.361 0.0 9970.796 9956.841
000080 00 00 00 00 00 00 00 00 0f df 1b 46 da 37 1b 46
       0.0 0.0 9975.765 9933.963
000090 30 71 1b 46 00 00 00 00 ed ca 1b 46 01 93 1b 46
       9948.297 0.0 9970.731 9956.751
0000a0 00 00 00 00 00 00 00 00 5a de 1b 46 ae 37 1b 46
       0.0 0.0 9975.588 9933.92
0000b0 d1 70 1b 46 00 00 00 00 8c ca 1b 46 79 92 1b 46
       9948.204 0.0 9970.637 9956.618
0000c0 00 00 00 00 00 00 00 00 43 dd 1b 46 69 37 1b 46
       0.0 0.0 9975.315 9933.853
0000d0 3f 70 1b 46 00 00 00 00 ef c9 1b 46 ae 91 1b 46
       9948.062 0.0 9970.483 9956.42
0000e0 00 00 00 00 00 00 00 00 27 c4 07 0e 31 1c 70 16
       0.0 0.0 1.6734479e-30 1.9395941e-25
0000f0 c2 c5 36 18 00 00 00 00 44 ef cb 14 b3 73 60 16
       2.362279e-24 0.0 2.0592135e-26 1.8131084e-25

max_exp_avg_sq f4 [8, 8]
000000 00 00 00 00 00 00 00 00 3b bf 1b 46 96 b6 1b 46
       0.0 0.0 9967.808 9965.646
000010 46 9e 1b 46 00 00 00 00 68 c9 1b 46 f1 9d 1b 46
       9959.568 0.0 9970.352 9959.485
000020 00 00 00 00 00 00 00 00 69 e4 1b 46 62 ed 1b 46
       0.0 0.0 9977.103 9979.346
000030 3a e0 1b 46 00 00 00 00 0c ea 1b 46 35 e1 1b 46
       9976.057 0.0 9978.512 9976.302
000040 00 00 00 00 00 00 00 00 cd e1 1b 46 72 00 1c 46
       0.0 0.0 9976.45 9984.111
000050 ee f7 1b 46 00 00 00 00 d8 e9 1b 46 a1 f7 1b 46
       9981.982 0.0 9978.461 9981.907
000060 00 00 00 00 00 00 00 00 1a e2 1b 46 f9 eb 1b 46
       0.0 0.0 9976.525 9978.993
000070 9a d6 1b 46 00 00 00 00 3c ea 1b 46 98 dc 1b 46
       9973.65 0.0 9978.559 9975.148
000080 00 00 00 00 00 00 00 00 62 ec 1b 46 27 ed 1b 46
       0.0 0.0 9979.096 9979.288
000090 05 e7 1b 46 00 00 00 00 cb ec 1b 46 bc e4 1b 46
       9977.755 0.0 9979.198 9977.184
0000a0 00 00 00 00 00 00 00 00 9c ee 1b 46 98 f7 1b 46
       0.0 0.0 9979.652 9981.898
0000b0 0e d5 1b 46 00 00 00 00 c9 05 1c 46 01 d5 1b 46
       9973.264 0.0 9985.446 9973.251
0000c0 00 00 00 00 00 00 00 00 06 ed 1b 46 42 fc 1b 46
       0.0 0.0 9979.256 9983.064
0000d0 e5 da 1b 46 00 00 00 00 75 e8 1b 46 52 de 1b 46
       9974.724 0.0 9978.114 9975.58
0000e0 00 00 00 00 00 00 00 00 cb df 73 2c 6d 08 d8 34
       0.0 0.0 3.4656607e-12 4.0239266e-07
0000f0 c8 d2 9e 36 00 00 00 00 6d 36 31 33 31 0b c3 34
       4.733305e-06 0.0 4.1260524e-08 3.6329723e-07

exp_avg f4 [8]
000000 18 4b ab c1 4f 2c ef c1 08 01 ef c1 c7 58 ef c1
       -21.411667 -29.896635 -29.875504 -29.918348
000010 78 04 ef c1 e6 8a ee c1 be cd ed c1 04 00 00 00
       -29.877182 -29.817822 -29.72546 6e-45

exp_avg_sq f4 [8]
000000 94 7b e0 43 7a d9 5f 44 45 86 5f 44 2e 2f 60 44
       448.96545 895.3981 894.09796 896.7372
000010 c3 8c 5f 44 5b a3 5e 44 b8 38 5d 44 98 f3 aa 17
       894.1994 890.5524 884.8862 1.1047484e-24

max_exp_avg_sq f4 [8]
000000 b7 7b e0 43 41 71 60 44 4f 1c 60 44 9e c8 60 44
       448.96652 897.7696 896.4423 899.13464
000010 e9 22 60 44 fa 34 5f 44 07 c3 5d 44 37 50 17 36
       896.5455 892.82776 887.0473 2.2547445e-06

exp_avg f4 [9, 8]
000000 04 00 00 80 04 00 00 80 04 00 00 80 04 00 00 80
       -6e-45 -6e-45 -6e-45 -6e-45
000010 04 00 00 80 04 00 00 80 04 00 00 80 04 00 00 80
       -6e-45 -6e-45 -6e-45 -6e-45
000020 04 00 00 80 04 00 00 80 04 00 00 80 04 00 00 80
       -6e-45 -6e-45 -6e-45 -6e-45
000030 04 00 00 80 04 00 00 80 04 00 00 80 04 00 00 80
       -6e-45 -6e-45 -6e-45 -6e-45
000040 04 00 00 80 04 00 00 80 04 00 00 80 04 00 00 80
       -6e-45 -6e-45 -6e-45 -6e-45
000050 04 00 00 80 04 00 00 80 04 00 00 80 00 00 00 00
       -6e-45 -6e-45 -6e-45 0.0
000060 04 00 00 80 04 00 00 80 04 00 00 80 04 00 00 80
       -6e-45 -6e-45 -6e-45 -6e-45
000070 04 00 00 80 04 00 00 80 04 00 00 80 04 00 00 80
       -6e-45 -6e-45 -6e-45 -6e-45
000080 04 00 00 80 04 00 00 80 04 00 00 80 04 00 00 80
       -6e-45 -6e-45 -6e-45 -6e-45
000090 04 00 00 80 04 00 00 80 04 00 00 80 04 00 00 80
       -6e-45 -6e-45 -6e-45 -6e-45
0000a0 04 00 00 80 04 00 00 80 04 00 00 80 04 00 00 80
       -6e-45 -6e-45 -6e-45 -6e-45
0000b0 04 00 00 80 04 00 00 80 04 00 00 80 04 00 00 80
       -6e-45 -6e-45 -6e-45 -6e-45
0000c0 04 00 00 80 04 00 00 80 04 00 00 80 04 00 00 80
       -6e-45 -6e-45 -6e-45 -6e-45
0000d0 04 00 00 80 04 00 00 80 04 00 00 80 04 00 00 80
       -6e-45 -6e-45 -6e-45 -6e-45
0000e0 77 68 2c c1 77 68 2c c1 77 68 2c c1 77 68 2c c1
       -10.775504 -10.775504 -10.775504 -10.775504
0000f0 77 68 2c c1 77 68 2c c1 77 68 2c c1 00 00 00 00
       -10.775504 -10.775504 -10.775504 0.0
000100 04 00 00 00 04 00 00 00 04 00 00 00 04 00 00 00
       6e-45 6e-45 6e-45 6e-45
000110 04 00 00 00 04 00 00 00 04 00 00 00 04 00 00 80
       6e-45 6e-45 6e-45 -6e-45

exp_avg_sq f4 [9, 8]
000000 45 57 3f 3c ac ad 3f 3c c0 ad 3f 3c ba ad 3f 3c
       0.0116785215 0.011699121 0.01169914 0.0116991345
000010 c9 ad 3f 3c 96 ae 3f 3c ef ad 3f 3c 09 91 9c 15
       0.011699148 0.011699339 0.011699184 6.3236723e-26
000020 c4 40 44 3c 3c 5e 44 3c 6d 5e 44 3c 40 5e 44 3c
       0.011978332 0.011985358 0.0119854035 0.011985362
000030 74 5e 44 3c ad 5e 44 3c 8c 5e 44 3c b8 e1 68 14
       0.01198541 0.011985463 0.011985432 1.1757522e-26
000040 7d f7 42 3c cd 0c 43 3c de 0c 43 3c de 0c 43 3c
       0.011899826 0.011904907 0.011904923 0.011904923
000050 f6 0c 43 3c 21 0d 43 3c 19 0d 43 3c 00 00 00 00
       0.011904946 0.011904986 0.011904978 0.0
000060 49 f9 43 3c 2c 24 44 3c 38 24 44 3c dc 23 44 3c
       0.01196129 0.011971515 0.011971526 0.01197144
000070 65 24 44 3c 6a 24 44 3c b9 23 44 3c ba 3b 89 14
       0.011971568 0.011971572 0.011971408 1.3857023e-26
000080 fe 30 44 3c 23 33 44 3c 37 33 44 3c 37 33 44 3c
       0.011974571 0.011975083 0.011975101 0.011975101
000090 37 33 44 3c 43 33 44 3c 43 33 44 3c e2 5d c7 17
       0.011975101 0.011975112 0.011975112 1.2883773e-24
0000a0 d5 0d 44 3c 0d 20 44 3c 13 20 44 3c 1c 20 44 3c
       0.011966188 0.011970532 0.011970538 0.011970546
0000b0 1c 20 44 3c 89 20 44 3c 5b 20 44 3c 3d ce ce 14
       0.011970546 0.011970648 0.011970605 2.0882031e-26
0000c0 5f 4c 44 3c 45 64 44 3c 6f 64 44 3c 6f 64 44 3c
       0.011981099 0.011986797 0.011986836 0.011986836
0000d0 6f 64 44 3c 98 64 44 3c 74 64 44 3c 69 6a 34 17
       0.011986836 0.011986874 0.0119868405 5.8295445e-25
0000e0 d0 23 1c 46 2f 27 1c 46 27 27 1c 46 21 27 1c 46
       9992.953 9993.796 9993.788 9993.782
0000f0 2d 27 1c 46 27 27 1c 46 0d 27 1c 46 00 00 00 00
       9993.794 9993.788 9993.763 0.0
000100 91 7e 44 3c df 7f 44 3c df 7f 44 3c df 7f 44 3c
       0.011993066 0.0119933775 0.0119933775 0.0119933775
000110 df 7f 44 3c df 7f 44 3c df 7f 44 3c c2 d6 01 15
       0.0119933775 0.0119933775 0.0119933775 2.6220757e-26

max_exp_avg_sq f4 [9, 8]
000000 27 39 1c 46 ef 3a 1c 46 ef 3a 1c 46 ef 3a 1c 46
       9998.288 9998.733 9998.733 9998.733
000010 ef 3a 1c 46 ef 3a 1c 46 ef 3a 1c 46 93 44 0d 34
       9998.733 9998.733 9998.733 1.3156595e-07
000020 a0 1f 1c 46 29 2b 1c 46 33 2b 1c 46 2e 2b 1c 46
       9991.906 9994.79 9994.8 9994.795
000030 38 2b 1c 46 52 2b 1c 46 3d 2b 1c 46 9a fd d6 32
       9994.805 9994.83 9994.81 2.5028204e-08
000040 a4 d6 1b 46 a9 00 1c 46 c4 00 1c 46 c8 00 1c 46
       9973.66 9984.165 9984.191 9984.195
000050 d3 00 1c 46 17 01 1c 46 f1 00 1c 46 00 00 00 00
       9984.206 9984.272 9984.235 0.0
000060 c1 23 1c 46 ae 30 1c 46 b5 30 1c 46 ab 30 1c 46
       9992.938 9996.17 9996.177 9996.167
000070 bb 30 1c 46 ca 30 1c 46 b3 30 1c 46 3c 8d fa 32
       9996.183 9996.197 9996.175 2.9168056e-08
000080 c4 17 1c 46 37 1b 1c 46 40 1b 1c 46 40 1b 1c 46
       9989.941 9990.804 9990.8125 9990.8125
000090 41 1b 1c 46 54 1b 1c 46 4a 1b 1c 46 89 fc 34 36
       9990.813 9990.832 9990.822 2.6969085e-06
0000a0 f7 12 1c 46 20 1f 1c 46 44 1f 1c 46 60 1f 1c 46
       9988.741 9991.781 9991.816 9991.844
0000b0 45 1f 1c 46 96 1f 1c 46 9b 1f 1c 46 6f 42 3e 33
       9991.817 9991.896 9991.901 4.4298243e-08
0000c0 d3 28 1c 46 eb 31 1c 46 f3 31 1c 46 f0 31 1c 46
       9994.206 9996.4795 9996.487 9996.484
0000d0 f6 31 1c 46 07 32 1c 46 fb 31 1c 46 d4 c6 9e 35
       9996.49 9996.507 9996.495 1.1829784e-06
0000e0 23 3e 1c 46 90 3e 1c 46 90 3e 1c 46 90 3e 1c 46
       9999.534 9999.641 9999.641 9999.641
0000f0 90 3e 1c 46 90 3e 1c 46 90 3e 1c 46 00 00 00 00
       9999.641 9999.641 9999.641 0.0
000100 4d 3c 1c 46 90 3e 1c 46 90 3e 1c 46 90 3e 1c 46
       9999.075 9999.641 9999.641 9999.641
000110 90 3e 1c 46 90 3e 1c 46 90 3e 1c 46 67 cd 6d 33
       9999.641 9999.641 9999.641 5.5367675e-08

exp_avg f4 [9]
000000 04 00 00 80 04 00 00 80 04 00 00 80 04 00 00 80
       -6e-45 -6e-45 -6e-45 -6e-45
000010 04 00 00 80 04 00 00 80 04 00 00 80 61 8a 71 bf
       -6e-45 -6e-45 -6e-45 -0.94351774
000020 04 00 00 80
       -6e-45

exp_avg_sq f4 [9]
000000 3a a9 00 31 5b b8 e7 31 35 d8 c1 30 15 34 21 33
       1.8722646e-09 6.7439436e-09 1.4104048e-09 3.7533102e-08
000010 ff 0f c4 32 87 e6 90 32 b8 88 ad 32 c5 30 68 3f
       2.2824677e-08 1.6868638e-08 2.0202023e-08 0.90699416
000020 62 ac 25 32
       9.643459e-09

max_exp_avg_sq f4 [9]
000000 80 4c 94 3b 0e 00 3e 3c 24 8c 69 3b 2d 7d 0c 3d
       0.004525721 0.011596693 0.003563651 0.034299064
000010 92 39 51 3d 98 5c dc 3c 00 cd 38 3d ee 96 70 3f
       0.051080294 0.02689962 0.04511738 0.939803
000020 63 3d 2e 3d
       0.04253901
