small_dqn_bot/88 model/model.pth (torch, 13978 bytes, 30 tensors)

layer1.weight f4 [8, 5]
-0.04260894 -0.13606349 0.031609923 -0.05578008 -0.07407346 -0.11667321 -0.16518024 -0.08986742
-0.1150717 -0.18096209 60.030045 60.072502 27.575268 12.445909 19.850805 60.206608
60.57118 27.979115 12.867621 20.544853 59.863815 60.10727 27.747736 12.610129
20.15173 -0.14568655 -0.14375088 -0.043974202 -0.03332954 -0.15179177 59.922703 59.9903
27.526506 12.323573 19.6883 59.900234 60.38311 27.58412 12.584468 20.135891
00000000: b686 2ebd 3a54 0bbe 6879 013d a779 64bd
00000010: d4b3 97bd 5df2 eebd 0225 29be 690c b8bd
00000020: b6aa ebbd 204e 39be c41e 7042 3e4a 7042
00000030: 269a dc41 7122 4741 73ce 9e41 91d3 7042
00000040: e348 7242 3ad5 df41 c7e1 4d41 dc5b a441
00000050: 8c74 6f42 d86d 7042 5dfb dd41 17c3 4941
00000060: be36 a141 db2e 15be 6e33 13be 4b1e 34bd
00000070: 8e84 08bd 4d6f 1bbe d9b0 6f42 11f6 6f42
00000080: 4936 dc41 5b2d 4541 a381 9d41 d799 6f42
00000090: 4e88 7142 47ac dc41 fb59 4941 4e16 a141

layer1.bias f4 [8]
0.05949035 0.12009264 59.43219 59.86196 59.534527 0.119249836 59.5314 59.677322
00000000: 27ac 733d 21f3 f53d 90ba 6d42 a672 6f42
00000010: 5b23 6e42 4239 f43d 2720 6e42 94b5 6e42

layer2.weight f4 [8, 8]
0.053824108 -0.11983451 32.32879 36.678314 34.810413 -0.045782972 30.01538 34.576805
0.06522337 0.045365803 40.07761 38.7307 39.721935 -0.05971562 40.74745 39.786354
0.07048061 0.026456285 40.29952 38.661133 39.9378 0.14811596 40.54847 39.741875
0.037677765 -0.054034624 40.333496 38.833664 39.699615 0.0504508 40.476303 39.784084
-0.09381067 0.08401 40.32406 38.70897 39.885868 -0.08684209 40.596046 39.759106
0.027092509 -0.07296864 40.364365 38.864143 39.92872 0.04626243 40.685406 39.81171
-0.06980459 0.064730965 40.307922 38.983353 39.850475 -0.03470847 40.573345 39.63483
0.06883377 0.031551693 0.03409827 -0.06169903 0.070501 0.041270733 -0.0143032335 -0.15509893
00000000: ab76 5c3d cc6b f5bd ae50 0142 98b6 1242
00000010: dd3d 0b42 ed86 3bbd 801f f041 a64e 0a42
00000020: d593 853d 7ed1 393d 794f 2042 3dec 1a42
00000030: 43e3 1e42 5e98 74bd 64fd 2242 3a25 1f42
00000040: 2358 903d daba d83c b532 2142 00a5 1a42
00000050: 4fc0 1f42 b6ab 173e a231 2242 aef7 1e42
00000060: 0054 1a3d 6953 5dbd 8055 2142 ac55 1b42
00000070: 68cc 1e42 80a5 4e3d bce7 2142 e722 1f42
00000080: cf1f c0bd 6f0d ac3d d64b 2142 fcd5 1a42
00000090: 218b 1f42 44da b1bd 5a62 2242 5309 1f42
000000a0: 1cf1 dd3c 9570 95bd 1c75 2142 e274 1b42
000000b0: 02b7 1f42 ac7d 3d3d dbbd 2242 313f 1f42
000000c0: b5f5 8ebd ab91 843d 503b 2142 f4ee 1b42
000000d0: e366 1f42 782a 0ebd 1b4b 2242 118a 1e42
000000e0: b8f8 8c3d 593c 013d a1aa 0b3d 1fb8 7cbd
000000f0: d462 903d 800b 293d 1c58 6abc 41d2 1ebe

layer2.bias f4 [8]
50.216007 60.90577 60.902676 61.034206 61.013638 61.010044 60.896034 -0.03392058
00000000: 31dd 4842 829f 7342 579c 7342 0723 7442
00000010: f70d 7442 490a 7442 8a95 7342 4ef0 0abd

layer3.weight f4 [9, 8]
17.84912 18.982206 19.010002 19.185091 19.215353 18.981853 19.136194 0.11437849
17.814455 19.03561 18.762548 19.103321 18.679771 18.787794 18.95168 -0.03961788
17.576761 18.86999 18.76552 18.915924 18.951405 19.003162 19.046543 -0.05515724
15.755461 19.465302 19.265356 19.283785 19.228138 19.181528 19.298298 0.16078903
15.914508 19.438412 19.150978 19.35226 19.242523 19.266716 19.379457 -0.041254625
15.032786 19.358826 19.326162 19.313505 19.098463 19.043793 19.304976 0.097751744
12.902042 19.67508 19.806314 19.789114 19.885963 19.59617 19.729628 -0.0747021
23.148298 31.979914 31.957981 32.002514 31.959698 31.897915 31.801733 -0.12976678
13.204747 19.850225 19.670832 19.507168 19.672266 19.651783 19.476776 0.12301557
00000000: ffca 8e41 8fdb 9741 7c14 9841 117b 9941
00000010: 0bb9 9941 d6da 9741 ed16 9941 453f ea3d
00000020: 0184 8e41 ee48 9841 b319 9641 9ad3 9841
00000030: 2c70 9541 674d 9641 0a9d 9741 5c46 22bd
00000040: 359d 8c41 bdf5 9641 c91f 9641 d053 9741
00000050: 7a9c 9741 7a06 9841 525f 9841 8fec 61bd
00000060: 5e16 7c41 f0b8 9b41 731f 9a41 3145 9a41
00000070: 3ad3 9941 c573 9941 ea62 9a41 e1a5 243e
00000080: d3a1 7e41 de81 9b41 3435 9941 6ed1 9a41
00000090: b0f0 9941 3c22 9a41 2109 9b41 9cfa 28bd
000000a0: 4b86 7041 e0de 9a41 fb9b 9a41 0f82 9a41
000000b0: a7c9 9841 b059 9841 9770 9a41 1132 c83d
000000c0: c46e 4e41 9066 9d41 5573 9e41 1b50 9e41
000000d0: 7416 9f41 f5c4 9c41 47d6 9d41 6afd 98bd
000000e0: b72f b941 ddd6 ff41 f2a9 ff41 9302 0042
000000f0: 76ad ff41 ee2e ff41 f369 fe41 95e1 04be
00000100: a546 5341 43cd 9e41 dd5d 9d41 ae0e 9c41
00000110: cd60 9d41 da36 9d41 70d0 9b41 96ef fb3d

layer3.bias f4 [9]
25.334793 27.246483 24.453762 24.904932 27.438923 25.991016 23.48973 42.025795
20.658215
00000000: a8ad ca41 ccf8 d941 4ea1 c341 4d3d c741
00000010: ea82 db41 9aed cf41 f8ea bb41 6a1a 2842
00000020: 0644 a541

layer1.weight f4 [8, 5]
-0.04277855 -0.13660507 0.031735733 -0.0560021 -0.07436811 -0.117137745 -0.16583773 -0.09022528
-0.115529835 -0.18168242 59.87177 59.91435 27.731697 12.547257 19.892809 60.04907
60.415077 28.13701 12.970655 20.589592 59.704857 59.949257 27.904808 12.712132
20.194948 -0.14626643 -0.14432307 -0.044149302 -0.033462215 -0.15239589 59.763958 59.83189
27.682714 12.424432 19.729626 59.74136 60.226265 27.740555 12.686368 20.179037
00000000: 9038 2fbd 33e2 0bbe 54fd 013d 7562 65bd
00000010: 4f4e 98bd eae5 efbd 5ed1 29be 08c8 b8bd
00000020: e89a ecbd f50a 3abe b17c 6f42 4ba8 6f42
00000030: 84da dd41 91c1 4841 7924 9f41 3f32 7042
00000040: 0aa9 7142 9918 e141 ce87 4f41 7cb7 a441
00000050: c6d1 6e42 0acc 6f42 0c3d df41 e564 4b41
00000060: 418f a141 dec6 15be 6dc9 13be e6d5 34bd
00000070: ad0f 09bd ab0d 1cbe 4b0e 6f42 db53 6f42
00000080: 3376 dd41 79ca 4641 46d6 9d41 27f7 6e42
00000090: b2e7 7042 a8ec dd41 5dfb 4a41 ab6e a141

layer1.bias f4 [8]
0.05972718 0.12057071 59.27157 59.703007 59.37423 0.119724646 59.371082 59.517628
00000000: 7da4 743d c7ed f63d 1616 6d42 e1cf 6e42
00000010: 367f 6d42 3232 f53d fd7b 6d42 0d12 6e42

layer2.weight f4 [8, 8]
0.0540384 -0.12031154 32.286343 36.656063 34.77924 -0.045965217 29.962715 34.54416
0.065483026 0.045546383 40.06561 38.716423 39.7104 -0.05995333 40.73739 39.774628
0.07076131 0.026561633 40.288845 38.64689 39.92722 0.1487051 40.53767 39.73007
0.037827797 -0.054249793 40.322956 38.820107 39.68757 0.050651647 40.465084 39.772358
-0.09418412 0.08434445 40.31353 38.694702 39.874596 -0.08718789 40.585255 39.74734
0.027200371 -0.073259026 40.353886 38.850636 39.91801 0.046446625 40.67525 39.799976
-0.07008256 0.064988546 40.297314 38.970535 39.83918 -0.034846697 40.562515 39.62236
0.06910771 0.03167735 0.03423402 -0.061944664 0.07078181 0.041435022 -0.014360185 -0.1557167
00000000: 5f57 5d3d e665 f6bd 3725 0142 cf9f 1242
00000010: f11d 0b42 0646 3cbd a4b3 ef41 382d 0a42
00000020: f71b 863d d88e 3a3d 2f43 2042 9edd 1a42
00000030: 73d7 1e42 9f91 75bd 16f3 2242 3819 1f42
00000040: 4eeb 903d c897 d93c c727 2142 6a96 1a42
00000050: 79b5 1f42 2646 183e 9326 2242 97eb 1e42
00000060: 52f1 1a3d 0835 5ebd b54a 2142 ca47 1b42
00000070: 12c0 1e42 1a78 4f3d 3fdc 2142 e516 1f42
00000080: 9be3 c0bd c8bc ac3d 0e41 2142 60c7 1a42
00000090: 967f 1f42 918f b2bd 4d57 2242 47fd 1e42
000000a0: 50d3 de3c d408 96bd 616a 2142 0d67 1b42
000000b0: 0bac 1f42 d13e 3e3d 75b3 2242 2d33 1f42
000000c0: 7287 8fbd b718 853d 7330 2142 d4e1 1b42
000000d0: 525b 1f42 69bb 0ebd 0440 2242 4c7d 1e42
000000e0: 5888 8d3d 1cc0 013d f938 0c3d b0b9 7dbd
000000f0: 0ef6 903d c5b7 293d fb46 6bbc 3374 1fbe

layer2.bias f4 [8]
50.00861 60.745564 60.742435 60.874466 60.853832 60.850224 60.735695 -0.03405563
00000000: d108 4842 75fb 7242 41f8 7242 747f 7342
00000010: 536a 7342 a166 7342 5af1 7242 eb7d 0bbd

layer3.weight f4 [9, 8]
17.920198 19.0577 19.085808 19.261566 19.291874 19.057528 19.212488 0.11483392
17.885357 19.111462 18.83722 19.179361 18.754116 18.862574 19.027077 -0.039775576
17.646767 18.945059 18.8402 18.99128 19.026798 19.078936 19.12222 -0.05537688
15.818178 19.542822 19.342047 19.360592 19.304733 19.257906 19.375147 0.16142902
15.977859 19.515781 19.227287 19.429289 19.319164 19.343466 19.456642 -0.041418854
15.092637 19.435904 19.403107 19.390406 19.174482 19.119473 19.381845 0.0981409
12.953403 19.753428 19.885153 19.867891 19.965126 19.674194 19.808165 -0.07499985
23.069633 31.936357 31.91429 31.959032 31.916033 31.854006 31.757444 -0.13028352
13.257315 19.92927 19.749174 19.584833 19.750628 19.730026 19.554344 0.123505324
00000000: 915c 8f41 2b76 9841 bcaf 9841 b017 9a41
00000010: c255 9a41 d175 9841 2db3 9941 0c2e eb3d
00000020: 3615 8f41 46e4 9841 a0b2 9641 556f 9941
00000030: 6e08 9641 8de6 9641 7437 9841 b7eb 22bd
00000040: 942c 8d41 7b8f 9741 bbb8 9641 24ee 9741
00000050: e236 9841 a9a1 9841 4efa 9841 ded2 62bd
00000060: 4217 7d41 b357 9c41 83bc 9a41 7ee2 9a41
00000070: 1870 9a41 3110 9a41 4d00 9b41 a64d 253e
00000080: 4fa5 7f41 5220 9c41 7cd1 9941 2f6f 9b41
00000090: a68d 9a41 6bbf 9a41 34a7 9b41 d1a6 29bd
000000a0: 717b 7141 bb7c 9b41 9039 9b41 8d1f 9b41
000000b0: 5765 9941 aef4 9841 050e 9b41 19fe c83d
000000c0: 2441 4f41 0507 9e41 cb14 9f41 71f1 9e41
000000d0: 94b8 9f41 c064 9d41 1f77 9e41 8599 99bd
000000e0: 9c8e b841 a97d ff41 7750 ff41 19ac ff41
000000f0: 0954 ff41 01d5 fe41 3f0f fe41 0b69 05be
00000100: f61d 5441 256f 9f41 4ffe 9d41 bdad 9c41
00000110: 4901 9e41 18d7 9d41 4c6f 9c41 5cf0 fc3d

layer3.bias f4 [9]
25.435638 27.354939 24.551111 25.004112 27.548145 26.094482 23.583256 41.801037
20.740446
00000000: 307c cb41 ead6 da41 ad68 c441 6c08 c841
00000010: 9a62 dc41 80c1 d041 82aa bc41 4334 2742
00000020: 6fec a541

exp_avg f4 [8, 5]
0.0 0.0 0.0 0.0 0.0 0.0 0.0 0.0
0.0 0.0 -99.99997 -99.99997 46.40909 34.925182 -10.027528 -99.99997
-99.99997 46.412125 34.925182 -10.027528 -99.99997 -99.99997 46.409554 34.925182
-10.027528 0.0 0.0 0.0 0.0 0.0 -99.99997 -99.99997
46.40896 34.925182 -10.027528 -99.99997 -99.99997 46.40991 34.925182 -10.027528
00000000: 0000 0000 0000 0000 0000 0000 0000 0000
00000010: 0000 0000 0000 0000 0000 0000 0000 0000
00000020: 0000 0000 0000 0000 fcff c7c2 fcff c7c2
00000030: e8a2 3942 63b3 0b42 c170 20c1 fcff c7c2
00000040: fcff c7c2 04a6 3942 63b3 0b42 c170 20c1
00000050: fcff c7c2 fcff c7c2 62a3 3942 63b3 0b42
00000060: c170 20c1 0000 0000 0000 0000 0000 0000
00000070: 0000 0000 0000 0000 fcff c7c2 fcff c7c2
00000080: c6a2 3942 63b3 0b42 c170 20c1 fcff c7c2
00000090: fcff c7c2 bfa3 3942 63b3 0b42 c170 20c1

exp_avg_sq f4 [8, 5]
0.0 0.0 0.0 0.0 0.0 0.0 0.0 0.0
0.0 0.0 9999.641 9999.641 7845.501 9997.756 9999.641 9999.641
9999.641 7833.614 9997.699 9999.641 9999.641 9999.641 7843.7065 9997.747
9999.641 0.0 0.0 0.0 0.0 0.0 9999.641 9999.641
7845.9795 9997.758 9999.641 9999.641 9999.641 7842.267 9997.74 9999.641
00000000: 0000 0000 0000 0000 0000 0000 0000 0000
00000010: 0000 0000 0000 0000 0000 0000 0000 0000
00000020: 0000 0000 0000 0000 903e 1c46 903e 1c46
00000030: 022c f545 0637 1c46 903e 1c46 903e 1c46
00000040: 903e 1c46 e9cc f445 cc36 1c46 903e 1c46
00000050: 903e 1c46 903e 1c46 a71d f545 fd36 1c46
00000060: 903e 1c46 0000 0000 0000 0000 0000 0000
00000070: 0000 0000 0000 0000 903e 1c46 903e 1c46
00000080: d62f f545 0837 1c46 903e 1c46 903e 1c46
00000090: 903e 1c46 2312 f545 f636 1c46 903e 1c46

max_exp_avg_sq f4 [8, 5]
0.0 0.0 0.0 0.0 0.0 0.0 0.0 0.0
0.0 0.0 9999.641 9999.641 9999.641 9999.477 9999.641 9999.641
9999.641 9999.641 9999.463 9999.641 9999.641 9999.641 9999.641 9999.506
9999.641 0.0 0.0 0.0 0.0 0.0 9999.641 9999.641
9999.641 9999.478 9999.641 9999.641 9999.641 9999.641 9999.473 9999.641
00000000: 0000 0000 0000 0000 0000 0000 0000 0000
00000010: 0000 0000 0000 0000 0000 0000 0000 0000
00000020: 0000 0000 0000 0000 903e 1c46 903e 1c46
00000030: 903e 1c46 e83d 1c46 903e 1c46 903e 1c46
00000040: 903e 1c46 903e 1c46 da3d 1c46 903e 1c46
00000050: 903e 1c46 903e 1c46 903e 1c46 063e 1c46
00000060: 903e 1c46 0000 0000 0000 0000 0000 0000
00000070: 0000 0000 0000 0000 903e 1c46 903e 1c46
00000080: 903e 1c46 e93d 1c46 903e 1c46 903e 1c46
00000090: 903e 1c46 903e 1c46 e43d 1c46 903e 1c46

exp_avg f4 [8]
0.0 0.0 -99.99997 -99.99997 -99.99997 0.0 -99.99997 -99.99997
00000000: 0000 0000 0000 0000 fcff c7c2 fcff c7c2
00000010: fcff c7c2 0000 0000 fcff c7c2 fcff c7c2

exp_avg_sq f4 [8]
0.0 0.0 9999.641 9999.641 9999.641 0.0 9999.641 9999.641
00000000: 0000 0000 0000 0000 903e 1c46 903e 1c46
00000010: 903e 1c46 0000 0000 903e 1c46 903e 1c46

max_exp_avg_sq f4 [8]
0.0 0.0 9999.641 9999.641 9999.641 0.0 9999.641 9999.641
00000000: 0000 0000 0000 0000 903e 1c46 903e 1c46
00000010: 903e 1c46 0000 0000 903e 1c46 903e 1c46

exp_avg f4 [8, 8]
0.0 0.0 -46.51238 -44.647575 -44.647594 0.0 -48.08258 -44.997673
0.0 0.0 -44.720314 -44.647575 -44.647602 0.0 -46.88974 -44.647606
0.0 0.0 -44.72483 -44.647575 -44.647602 0.0 -46.89274 -44.647606
0.0 0.0 -44.715813 -44.647575 -44.647602 0.0 -46.886684 -44.647606
0.0 0.0 -44.724525 -44.647575 -44.647602 0.0 -46.89256 -44.647606
0.0 0.0 -44.73707 -44.647575 -44.647602 0.0 -46.900894 -44.647606
0.0 0.0 -44.756527 -44.647575 -44.647602 0.0 -46.913803 -44.647606
0.0 0.0 6e-45 6e-45 6e-45 0.0 6e-45 6e-45
00000000: 0000 0000 0000 0000 ad0c 3ac2 1e97 32c2
00000010: 2397 32c2 0000 0000 9054 40c2 9efd 33c2
00000020: 0000 0000 0000 0000 9ae1 32c2 1e97 32c2
00000030: 2597 32c2 0000 0000 188f 3bc2 2697 32c2
00000040: 0000 0000 0000 0000 3ae6 32c2 1e97 32c2
00000050: 2597 32c2 0000 0000 2a92 3bc2 2697 32c2
00000060: 0000 0000 0000 0000 fedc 32c2 1e97 32c2
00000070: 2597 32c2 0000 0000 f78b 3bc2 2697 32c2
00000080: 0000 0000 0000 0000 eae5 32c2 1e97 32c2
00000090: 2597 32c2 0000 0000 fb91 3bc2 2697 32c2
000000a0: 0000 0000 0000 0000 c2f2 32c2 1e97 32c2
000000b0: 2597 32c2 0000 0000 849a 3bc2 2697 32c2
000000c0: 0000 0000 0000 0000 af06 33c2 1e97 32c2
000000d0: 2597 32c2 0000 0000 bca7 3bc2 2697 32c2
000000e0: 0000 0000 0000 0000 0400 0000 0400 0000
000000f0: 0400 0000 0000 0000 0400 0000 0400 0000

exp_avg_sq f4 [8, 8]
0.0 0.0 9911.239 9902.833 9913.376 0.0 9917.511 9914.718
0.0 0.0 9950.288 9925.745 9926.342 0.0 9949.63 9931.182
0.0 0.0 9950.224 9925.702 9926.32 0.0 9949.563 9931.145
0.0 0.0 9950.353 9925.79 9926.367 0.0 9949.697 9931.222
0.0 0.0 9950.228 9925.705 9926.32 0.0 9949.567 9931.147
0.0 0.0 9950.046 9925.583 9926.256 0.0 9949.388 9931.038
0.0 0.0 9949.76 9925.39 9926.16 0.0 9949.099 9930.881
0.0 0.0 6.800744e-31 7.882339e-26 9.600092e-25 0.0 8.368471e-27 7.368321e-26
00000000: 0000 0000 0000 0000 f5dc 1a46 55bb 1a46
00000010: 81e5 1a46 0000 0000 0bf6 1a46 dfea 1a46
00000020: 0000 0000 0000 0000 2779 1b46 fb16 1b46
00000030: 5e19 1b46 0000 0000 8576 1b46 ba2c 1b46
00000040: 0000 0000 0000 0000 e578 1b46 cf16 1b46
00000050: 4819 1b46 0000 0000 4176 1b46 942c 1b46
00000060: 0000 0000 0000 0000 6979 1b46 2917 1b46
00000070: 7819 1b46 0000 0000 ca76 1b46 e32c 1b46
00000080: 0000 0000 0000 0000 e978 1b46 d216 1b46
00000090: 4819 1b46 0000 0000 4576 1b46 972c 1b46
000000a0: 0000 0000 0000 0000 2f78 1b46 5516 1b46
000000b0: 0619 1b46 0000 0000 8d75 1b46 272c 1b46
000000c0: 0000 0000 0000 0000 0a77 1b46 8f15 1b46
000000d0: a418 1b46 0000 0000 6574 1b46 862b 1b46
000000e0: 0000 0000 0000 0000 5fb2 5c0d 4228 c315
000000f0: e28d 9417 0000 0000 30c1 2514 486e b615

max_exp_avg_sq f4 [8, 8]
0.0 0.0 9967.808 9965.646 9959.568 0.0 9970.352 9959.485
0.0 0.0 9977.491 9979.346 9976.057 0.0 9978.512 9976.302
0.0 0.0 9977.434 9984.111 9981.982 0.0 9978.461 9981.907
0.0 0.0 9977.554 9978.993 9973.65 0.0 9978.559 9975.148
0.0 0.0 9979.096 9979.288 9977.755 0.0 9979.198 9977.184
0.0 0.0 9979.652 9981.898 9973.264 0.0 9985.446 9973.251
0.0 0.0 9979.256 9983.064 9974.724 0.0 9978.114 9975.58
0.0 0.0 3.4656607e-12 4.0239266e-07 4.733305e-06 0.0 4.1260524e-08 3.6329723e-07
00000000: 0000 0000 0000 0000 3bbf 1b46 96b6 1b46
00000010: 469e 1b46 0000 0000 68c9 1b46 f19d 1b46
00000020: 0000 0000 0000 0000 f7e5 1b46 62ed 1b46
00000030: 3ae0 1b46 0000 0000 0cea 1b46 35e1 1b46
00000040: 0000 0000 0000 0000 bce5 1b46 7200 1c46
00000050: eef7 1b46 0000 0000 d8e9 1b46 a1f7 1b46
00000060: 0000 0000 0000 0000 37e6 1b46 f9eb 1b46
00000070: 9ad6 1b46 0000 0000 3cea 1b46 98dc 1b46
00000080: 0000 0000 0000 0000 62ec 1b46 27ed 1b46
00000090: 05e7 1b46 0000 0000 cbec 1b46 bce4 1b46
000000a0: 0000 0000 0000 0000 9cee 1b46 98f7 1b46
000000b0: 0ed5 1b46 0000 0000 c905 1c46 01d5 1b46
000000c0: 0000 0000 0000 0000 06ed 1b46 42fc 1b46
000000d0: e5da 1b46 0000 0000 75e8 1b46 52de 1b46
000000e0: 0000 0000 0000 0000 cbdf 732c 6d08 d834
000000f0: c8d2 9e36 0000 0000 6d36 3133 310b c334

exp_avg f4 [8]
-22.136972 -30.585365 -30.56438 -30.606976 -30.566027 -30.506916 -30.414906 6e-45
00000000: 8518 b1c1 d4ae f4c1 da83 f4c1 16db f4c1
00000010: 3987 f4c1 2a0e f4c1 ba51 f3c1 0400 0000

exp_avg_sq f4 [8]
467.9535 913.2884 911.9976 914.61835 912.09766 908.4748 902.84644 4.4896017e-25
00000000: 0cfa e943 7552 6444 d9ff 6344 93a7 6444
00000010: 4006 6444 631e 6344 2cb6 6144 4af2 0a17

max_exp_avg_sq f4 [8]
467.9535 913.3028 912.01196 914.6328 912.11206 908.489 902.8604 2.2547445e-06
00000000: 0cfa e943 6153 6444 c400 6444 80a8 6444
00000010: 2c07 6444 4c1f 6344 11b7 6144 3750 1736

exp_avg f4 [9, 8]
-6e-45 -6e-45 -6e-45 -6e-45 -6e-45 -6e-45 -6e-45 -6e-45
-6e-45 -6e-45 -6e-45 -6e-45 -6e-45 -6e-45 -6e-45 -6e-45
-6e-45 -6e-45 -6e-45 -6e-45 -6e-45 -6e-45 -6e-45 0.0
-6e-45 -6e-45 -6e-45 -6e-45 -6e-45 -6e-45 -6e-45 -6e-45
-6e-45 -6e-45 -6e-45 -6e-45 -6e-45 -6e-45 -6e-45 -6e-45
-6e-45 -6e-45 -6e-45 -6e-45 -6e-45 -6e-45 -6e-45 -6e-45
-6e-45 -6e-45 -6e-45 -6e-45 -6e-45 -6e-45 -6e-45 -6e-45
-44.647633 -44.647633 -44.647633 -44.647633 -44.647633 -44.647633 -44.647633 0.0
6e-45 6e-45 6e-45 6e-45 6e-45 6e-45 6e-45 -6e-45
00000000: 0400 0080 0400 0080 0400 0080 0400 0080
00000010: 0400 0080 0400 0080 0400 0080 0400 0080
00000020: 0400 0080 0400 0080 0400 0080 0400 0080
00000030: 0400 0080 0400 0080 0400 0080 0400 0080
00000040: 0400 0080 0400 0080 0400 0080 0400 0080
00000050: 0400 0080 0400 0080 0400 0080 0000 0000
00000060: 0400 0080 0400 0080 0400 0080 0400 0080
00000070: 0400 0080 0400 0080 0400 0080 0400 0080
00000080: 0400 0080 0400 0080 0400 0080 0400 0080
00000090: 0400 0080 0400 0080 0400 0080 0400 0080
000000a0: 0400 0080 0400 0080 0400 0080 0400 0080
000000b0: 0400 0080 0400 0080 0400 0080 0400 0080
000000c0: 0400 0080 0400 0080 0400 0080 0400 0080
000000d0: 0400 0080 0400 0080 0400 0080 0400 0080
000000e0: 2d97 32c2 2d97 32c2 2d97 32c2 2d97 32c2
000000f0: 2d97 32c2 2d97 32c2 2d97 32c2 0000 0000
00000100: 0400 0000 0400 0000 0400 0000 0400 0000
00000110: 0400 0000 0400 0000 0400 0000 0400 0080

exp_avg_sq f4 [9, 8]
0.004746048 0.0047544152 0.0047544213 0.00475442 0.0047544246 0.0047545033 0.00475444 2.5698859e-26
0.004867887 0.0048707495 0.0048707663 0.0048707505 0.0048707686 0.0048707887 0.004870777 4.7781544e-27
0.004835979 0.004838052 0.004838061 0.004838061 0.004838067 0.0048380806 0.004838078 0.0
0.00486096 0.004865113 0.004865118 0.0048650857 0.0048651323 0.004865133 0.0048650745 5.6313745e-27
0.004866363 0.0048665702 0.004866578 0.004866578 0.004866578 0.0048665814 0.0048665814 5.2358567e-25
0.0048629595 0.0048647146 0.0048647183 0.004864722 0.004864722 0.0048647653 0.004864748 8.486273e-27
0.004869011 0.0048713274 0.004871342 0.004871342 0.004871342 0.004871359 0.004871344 2.369076e-25
9987.7295 9988.8545 9988.874 9988.879 9988.878 9988.925 9988.917 0.0
0.0048738727 0.004873999 0.004873999 0.004873999 0.004873999 0.004873999 0.004873999 1.0655882e-26
00000000: bc84 9b3b edca 9b3b faca 9b3b f7ca 9b3b
00000010: 01cb 9b3b aacb 9b3b 22cb 9b3b 5982 fe14
00000020: cc82 9f3b cf9a 9f3b f39a 9f3b d19a 9f3b
00000030: f89a 9f3b 239b 9f3b 0a9b 9f3b 3e48 bd13
00000040: 2277 9e3b 8688 9e3b 9988 9e3b 9988 9e3b
00000050: a688 9e3b c388 9e3b bd88 9e3b 0000 0000
00000060: b048 9f3b 876b 9f3b 916b 9f3b 4c6b 9f3b
00000070: b06b 9f3b b26b 9f3b 346b 9f3b ec14 df13
00000080: 0376 9f3b c077 9f3b d177 9f3b d177 9f3b
00000090: d177 9f3b d877 9f3b d877 9f3b bb0a 2217
000000a0: 7659 9f3b 2f68 9f3b 3768 9f3b 3f68 9f3b
000000b0: 3f68 9f3b 9c68 9f3b 7768 9f3b 8416 2814
000000c0: 3a8c 9f3b a89f 9f3b c79f 9f3b c79f 9f3b
000000d0: c79f 9f3b ec9f 9f3b cc9f 9f3b 82a3 9216
000000e0: eb0e 1c46 6b13 1c46 7f13 1c46 8413 1c46
000000f0: 8313 1c46 b313 1c46 ab13 1c46 0000 0000
00000100: 02b5 9f3b 11b6 9f3b 11b6 9f3b 11b6 9f3b
00000110: 11b6 9f3b 11b6 9f3b 11b6 9f3b be0f 5314

max_exp_avg_sq f4 [9, 8]
9998.288 9998.733 9998.733 9998.733 9998.733 9998.733 9998.733 1.3156595e-07
9991.906 9994.79 9994.8 9994.795 9994.805 9994.83 9994.81 2.5028204e-08
9973.66 9984.165 9984.191 9984.195 9984.206 9984.272 9984.235 0.0
9992.938 9996.17 9996.177 9996.167 9996.183 9996.197 9996.175 2.9168056e-08
9989.941 9990.804 9990.8125 9990.8125 9990.813 9990.832 9990.822 2.6969085e-06
9988.741 9991.781 9991.816 9991.844 9991.817 9991.896 9991.901 4.4298243e-08
9994.206 9996.4795 9996.487 9996.484 9996.49 9996.507 9996.495 1.1829784e-06
9999.534 9999.641 9999.641 9999.641 9999.641 9999.641 9999.641 0.0
9999.075 9999.641 9999.641 9999.641 9999.641 9999.641 9999.641 5.5367675e-08
00000000: 2739 1c46 ef3a 1c46 ef3a 1c46 ef3a 1c46
00000010: ef3a 1c46 ef3a 1c46 ef3a 1c46 9344 0d34
00000020: a01f 1c46 292b 1c46 332b 1c46 2e2b 1c46
00000030: 382b 1c46 522b 1c46 3d2b 1c46 9afd d632
00000040: a4d6 1b46 a900 1c46 c400 1c46 c800 1c46
00000050: d300 1c46 1701 1c46 f100 1c46 0000 0000
00000060: c123 1c46 ae30 1c46 b530 1c46 ab30 1c46
00000070: bb30 1c46 ca30 1c46 b330 1c46 3c8d fa32
00000080: c417 1c46 371b 1c46 401b 1c46 401b 1c46
00000090: 411b 1c46 541b 1c46 4a1b 1c46 89fc 3436
000000a0: f712 1c46 201f 1c46 441f 1c46 601f 1c46
000000b0: 451f 1c46 961f 1c46 9b1f 1c46 6f42 3e33
000000c0: d328 1c46 eb31 1c46 f331 1c46 f031 1c46
000000d0: f631 1c46 0732 1c46 fb31 1c46 d4c6 9e35
000000e0: 233e 1c46 903e 1c46 903e 1c46 903e 1c46
000000f0: 903e 1c46 903e 1c46 903e 1c46 0000 0000
00000100: 4d3c 1c46 903e 1c46 903e 1c46 903e 1c46
00000110: 903e 1c46 903e 1c46 903e 1c46 67cd 6d33

exp_avg f4 [9]
-6e-45 -6e-45 -6e-45 -6e-45 -6e-45 -6e-45 -6e-45 -0.956415
-6e-45
00000000: 0400 0080 0400 0080 0400 0080 0400 0080
00000010: 0400 0080 0400 0080 0400 0080 9dd7 74bf
00000020: 0400 0080

exp_avg_sq f4 [9]
7.60872e-10 2.7406808e-09 5.731765e-10 1.5253127e-08 9.275745e-09 6.855264e-09 8.20992e-09 0.90912676
3.9190224e-09
00000000: 9b25 5130 9156 3c31 b68d 1d30 fb05 8332
00000010: 285b 1f32 8a8b eb31 9c0b 0d32 88bc 683f
00000020: 16a8 8631

max_exp_avg_sq f4 [9]
0.004525721 0.011596693 0.003563651 0.034299064 0.051080294 0.02689962 0.04511738 0.939803
0.04253901
00000000: 804c 943b 0e00 3e3c 248c 693b 2d7d 0c3d
00000010: 9239 513d 985c dc3c 00cd 383d ee96 703f
00000020: 633d 2e3d
