dqn_bot/model.pth (torch, 665178 bytes, 30 tensors)

layer1.weight f4 [128, 109]
00000000: 2c3d 2f42 fcc0 2f42 c769 2c42 8e0f 2742
00000010: 33de 2a42 8cdd cd41 a064 cc41 9d9f ce41
00000020: 7cf8 ce41 b45b cf41 b5d3 d141 6d0f cd41
00000030: 497e d141 e721 ca41 93e4 cd41 eb93 cf41
00000040: 824c cd41 1cc4 d141 e1bd ce41 f887 c941
00000050: f918 cc41 6da3 c441 61b4 cf41 3d3b cb41
00000060: d310 d441 1e9d d541 bcc7 ca41 ebbc cd41
00000070: db20 cb41 e834 d041 2a46 c941 8235 cf41
00000080: ce07 cb41 17d1 c041 cd2b cc41 dd8f cd41
00000090: afb6 d041 47f6 d141 740d c841 1e27 cf41
000000a0: 67d2 d041 f67b cd41 880b d041 76a5 d241
000000b0: e888 cc41 294a cc41 7807 d041 e7a3 c941
000000c0: d740 cd41 63e6 d241 3119 cd41 74f1 cd41
000000d0: 3044 d041 4583 d141 19f1 d141 a2de cc41
000000e0: f68b d341 a35e 1a42 3310 1a42 a4a6 1a42
000000f0: 18c0 1b42 e92f 1a42 f6af 1742 08a9 1842
00000100: b1e5 1742 28c9 1942 561b 1842 2663 1942
00000110: 7a85 1742 65fc 1542 0f79 1942 705c 1b42
00000120: a15c 1b42 17d5 1942 c866 1a42 edec 1942
00000130: c867 1942 9bc4 1942 ff36 1742 9f1c 1942
00000140: 1e3f 1742 1c5d 1742 0763 1642 bbd2 1942
00000150: e58b 1842 7b74 1a42 d329 1942 ad91 1742
00000160: 7371 1a42 8093 1842 635f 1842 5c13 1942
00000170: ff2a 1842 6c29 1842 7a10 1842 6787 1642
00000180: 0969 1c42 af14 1a42 54e1 1a42 ff07 1a42
00000190: 40aa 1942 6c24 1942 b24a 1a42 2eb6 1942
000001a0: 5923 1742 8727 1a42 d052 1742 6fe9 1642
000001b0: 1265 1642 05db 3542 6d5e 3542 ec0a 2f42
000001c0: 1bae 2742 f8ee 2a42 df10 cc41 d099 cf41
000001d0: aa26 d041 ee28 ce41 d0c8 cf41 1340 d441
000001e0: 869f cf41 36d0 d441 5ac4 c841 6e92 cf41
000001f0: dd9f d041 cb18 d141 6356 d341 864a d041
00000200: 6d93 cb41 2dc5 ce41 94a0 c641 211c d041
00000210: a8da cd41 bd0c d641 b8c3 d941 1b44 cd41
00000220: 249f cf41 a475 c941 03bf d141 d343 cb41
00000230: 6e03 d241 8c34 cc41 8e34 c441 f000 ce41
00000240: d193 ce41 d216 d241 92af d041 d283 cc41
00000250: be51 d241 559d d141 60bb cf41 c133 d241
00000260: befb d641 403e d041 6c74 cd41 6b14 d241
00000270: 0422 cd41 cea3 ce41 9051 d341 e028 d141
00000280: 4ac9 cf41 d300 d241 9adb d641 4182 d541
00000290: 2cbb cd41 c384 d441 9963 1942 7b2d 1942
000002a0: 3726 1c42 b9a9 1b42 3d7c 1942 9110 1842
000002b0: 72c4 1842 75b8 1842 7742 1a42 e8ce 1942
000002c0: 3dca 1a42 8b51 1842 5201 1842 aecb 1942
000002d0: 2cfc 1a42 4ad7 1942 07e4 1842 4495 1a42
000002e0: c2f9 1942 27bf 1842 9b03 1a42 7703 1842
000002f0: a6fa 1942 b408 1942 ef00 1942 fcde 1842
00000300: bed8 1942 3a9a 1842 91e1 1942 d8f6 1742
00000310: 798f 1742 7b42 1942 469b 1942 deab 1842
00000320: 2ac4 1942 680e 1a42 bcc3 1842 d13c 1842
00000330: 91fe 1642 8141 1b42 fe48 1a42 7be8 1a42
00000340: 71a8 1a42 7ce1 1942 b543 1942 085c 1942
00000350: 9c09 1a42 f7a8 1742 4b80 1942 f09b 1842
00000360: ad28 1942 084b 1842 5c45 3042 f3d0 3042
00000370: 082d 2e42 0d81 2742 b934 2b42 387d cf41
00000380: 17e0 cd41 4ab7 d041 0008 cf41 66e9 d041
00000390: d248 d341 47dd cd41 8315 d341 83c0 cb41
000003a0: cddd ce41 818c d041 911f ce41 6396 d241
000003b0: b76e cf41 949d ca41 bfbb cd41 dc12 c641
000003c0: 7041 d141 054a cc41 5f0a d541 9e85 d741
000003d0: 01ec cc41 3083 cf41 858a cc41 e43a d141
000003e0: a934 ca41 c68a d041 c3d9 cb41 5515 c341
000003f0: e917 cd41 9c1f ce41 8f39 d141 7c5c d241
43.80974 43.93846 43.1033 41.76519 42.71699 25.733177 25.549133 25.827936
25.87133 25.919777 26.228373 25.632532 26.186663 25.266554 25.736609 25.947226
25.662357 26.220757 25.842714 25.191391 25.512194 24.579798 25.963076 25.403925
26.508215 26.701717 25.347527 25.717245 25.391043 26.025833 25.15926 25.901127
25.37881 24.102095 25.521387 25.695246 26.089201 26.245253 25.006569 25.8941
26.102736 25.685528 26.00563 26.330791 25.566849 25.536211 26.003647 25.20503
25.65666 26.362494 25.6373 25.742897 26.033295 26.189096 26.242723 25.608707
26.44334 38.59242 38.51582 38.662735 38.93759 38.546787 37.921837 38.16507
37.974308 38.44644 38.026695 38.346825 37.88035 37.49648 38.36822 38.84027
38.840458 38.458096 38.600372 38.481373 38.35135 38.441998 37.803707 38.27795
37.811638 37.840927 37.596706 38.45579 38.136616 38.61375 38.290844 37.89226
38.61079 38.144043 38.09315 38.268906 38.04199 38.04045 38.01609 37.63223
39.102573 38.5202 38.720047 38.50781 38.41626 38.28557 38.572945 38.42791
37.78452 38.5386 37.83087 37.727962 37.5987 45.463886 45.342213 43.760666
41.920025 42.733368 25.508238 25.950104 26.018879 25.769985 25.973053 26.531286
25.952892 26.601665 25.095875 25.946499 26.078058 26.137106 26.417181 26.036388
25.446985 25.846277 24.828407 26.013735 25.731766 26.75622 27.220566 25.658255
25.952705 25.182442 26.218267 25.408117 26.251675 25.525658 24.525661 25.750458
25.822176 26.261143 26.085728 25.564365 26.289913 26.201822 25.966492 26.27527
26.872921 26.030396 25.681847 26.25997 25.64161 25.829983 26.414825 26.144958
25.973286 26.250402 26.857227 26.6886 25.716393 26.564825 38.347263 38.294415
39.03732 38.915745 38.371326 38.01618 38.19184 38.180134 38.564907 38.452057
38.6975 38.07963 38.00129 38.448906 38.74626 38.460243 38.222683 38.645767
38.493904 38.186672 38.50352 38.003384 38.494774 38.2585 38.25091 38.21776
38.461662 38.15061 38.47028 37.99106 37.89011 38.314922 38.401634 38.16784
38.441566 38.51407 38.191147 38.05939 37.7486 38.81397 38.57128 38.72703
38.664494 38.4702 38.31612 38.339874 38.509384 37.915005 38.375286 38.152283
38.289722 38.073273 44.067734 44.204052 43.543976 41.876026 42.801487 25.936142
25.734419 26.089497 25.878906 26.113964 26.410557 25.733046 26.385504 25.469
25.858301 26.068605 25.765413 26.323431 25.92906 25.326942 25.716673 24.759209
26.156952 25.536142 26.630064 26.940243 25.615236 25.939056 25.567636 26.153755
25.275713 26.06776 25.481329 24.385416 25.636675 25.765434 26.153105 26.295158

layer1.bias f4 [128]
00000000: 9e10 3342 8ffb 3042 3913 3442 8f3c 3442
00000010: 1c41 3442 de1e a6bc 6b17 3242 c73c 3442
00000020: 763d 3042 3c8e 3342 b752 3242 2cca 3342
00000030: e4c7 3142 2247 3442 9f83 3042 63e9 3142
00000040: ad65 2f42 8c02 3042 a47a 3142 4612 2d42
00000050: 0d66 2f42 5acf 3142 f32b 3042 ed74 3342
00000060: 5537 3142 5481 2e42 3070 2f42 680b 3442
00000070: a6b4 3342 bcfc 2f42 83fd 3342 159e 3142
00000080: 70ca 3042 8a3d 3442 4b4e 1740 e5a4 3142
00000090: e1f7 3142 125d 2f42 8084 3042 8799 3442
000000a0: 308e 3342 1c79 3242 dc73 3142 ed37 3242
000000b0: bdb7 f841 703d 3442 ab5d 3442 f518 3442
000000c0: 04f4 2b42 6cac 2f42 b874 3042 202f 3442
000000d0: f689 3042 aa4b 2f42 d493 3142 1a0f 3442
000000e0: da47 3442 eea6 2f42 ee03 3042 0815 3442
000000f0: 60ec 3342 f4db 3142 d610 3442 fe21 3142
00000100: 76c7 3342 5189 3342 3c25 3442 b26d 2f42
00000110: 7071 3342 64f5 3342 3d48 3342 0c12 3242
00000120: eaac 2f42 2cdc 3242 c600 2c42 e132 8ebc
00000130: a847 3142 5602 3042 5c4b 3442 79ea 3342
00000140: b172 3442 81d1 2f42 e3f6 3142 153e 3442
00000150: 09bd 3142 3144 3342 be1d 3442 6a03 3442
00000160: 401e 3442 8c96 2f42 8a96 3142 ff1a 3142
00000170: 3115 3442 ea15 3442 f3fa 3042 2ee0 3042
00000180: 1555 3042 e3d5 3042 f72c 3442 b6ef 3342
00000190: 1c14 3042 f020 3442 999c 3342 9554 3442
000001a0: 7243 3342 b006 3442 aa10 3442 c1a8 3342
000001b0: 1f82 3342 fb9a 3342 369f 2d42 30cd 3242
000001c0: 8f7b 0b3b b925 3442 9ca4 2f42 9dce 79bb
000001d0: f5a0 2f42 9924 3442 e2f9 3342 8fc2 3342
000001e0: 05f1 2f42 ef0e 3442 4ad9 3042 ae94 2d42
000001f0: a2b2 3242 bdf6 3342 3a1d 3442 8636 3442
44.766228 44.245663 45.018772 45.05914 45.063583 -0.02027839 44.52287 45.059353
44.06002 44.8889 44.580776 44.947433 44.445206 45.069466 44.128536 44.477917
43.849293 44.002487 44.369766 43.267845 43.84966 44.45249 44.04292 44.864185
44.304035 43.626297 43.85956 45.01114 44.926414 43.99681 44.99757 44.404377
44.197693 45.060097 2.3641536 44.41103 44.49207 43.84089 44.129395 45.14993
44.888855 44.61827 44.363144 44.554615 31.089716 45.059998 45.091473 45.024372
42.988297 43.91838 44.113983 45.04602 44.134727 43.82389 44.394363 45.014748
45.070168 43.913017 44.003838 45.02054 44.980835 44.464798 45.01644 44.283195
44.944786 44.884098 45.03636 43.857124 44.86078 44.98964 44.820545 44.517624
43.91886 44.71501 43.000755 -0.017358245 44.319977 44.00228 45.073593 44.978977
45.112003 43.954594 44.4911 45.060627 44.434605 44.816593 45.029045 45.003334
45.02954 43.89702 44.39701 44.276363 45.020695 45.0214 44.245068 44.218925
44.083088 44.208874 45.04391 44.984093 44.019638 45.032166 44.902927 45.0826
44.815865 45.00653 45.016273 44.9148 44.87707 44.90135 43.40548 44.70038
0.0021283363 45.03684 43.91075 -0.0038117536 43.907185 45.03574 44.994026 44.94
43.98537 45.014584 44.212196 43.395195 44.674446 44.990955 45.02854 45.053246

layer2.weight f4 [128, 128]
00000000: f300 493e 3750 e5be 2b16 803d 3105 073d
00000010: d116 873d 9ea5 d03c ae22 95bf a092 b6bc
00000020: 86ee 66bd 48d9 8e3d da91 fc3e f34e 983d
00000030: 8cd2 78bf bd7c 083e 276b 17bf 6910 223d
00000040: ef91 133f c529 c5bd 724a 8e3e f17c 44be
00000050: 85a5 1a3f 8e36 aabf 5a50 59bd b6a0 3a3e
00000060: 6131 103f 9c80 1f3f 61b8 d2be 8419 5c3d
00000070: 32ba 003e 3158 0fbe a66f 133d 4f64 903e
00000080: 9b64 5cbf 7d81 efbd 4a01 9c3c 0b10 9d3e
00000090: 534f 45bf b54a 0bbf 8fd2 863e b4dc 3ebd
000000a0: 4c32 8b3e 5bf1 8c3e b262 44bf 338a 63bf
000000b0: 9a16 163f 3522 9c3d 60fc cc3d 330f eb3d
000000c0: 79c2 2f3f d5f7 3bbe bd2a 42bf a715 7a3d
000000d0: ca0e 94be 725a 133f ec9c 0d3f 3f3c 6bbd
000000e0: da12 cb3d 0c82 323f 8071 4dbd d812 bc3d
000000f0: af27 d6bb cff6 45bf be7f ad3d 5dc8 0c3f
00000100: 2e44 b9bd cd76 7d3c 1c07 923d ff13 15bf
00000110: 53b8 643e f384 343d 7e3a 473e 6e33 8d3e
00000120: d88c 0e3f 75d5 8f3e fbf7 f2be 4da5 313d
00000130: c1e1 983e 10a5 ecbd dc20 6a3c 7fe4 603d
00000140: 0cae bfbd 173c 5fbe 3141 a63e d06c 903d
00000150: 9c29 b53e 79cc 0f3d 86e1 11bc 547a 9e3d
00000160: c260 2a3e 53c0 c1be 2456 38bf ec8b 193f
00000170: 95b1 ff3d aa7a 8f3b a3c0 c83d c21a 063f
00000180: b4cd 13bf 01c0 843d aaf2 9d3c 571a 803d
00000190: fa43 b1be fabf c13d 2780 c23d 0466 b83d
000001a0: e46f 3a3e 5942 aa3d a879 ad3d d5cf 213e
000001b0: 6cb3 b33d d1f4 943c 9013 213f fab0 0f3d
000001c0: 2969 99bc 33b6 d63d 9b7c dabe f473 013d
000001d0: f4f0 f6be 79f8 c23d 0ae3 ebbb f60d 093d
000001e0: 52c5 59be 0004 793d 705f 0c3f bbdb e1be
000001f0: 42e7 ce3c 8ee9 543d 982c 0f3e 58ca 08bd
00000200: efcd 2b3e bd2d eabe e385 4b3d 616b 893d
00000210: a524 fc3d ccff 1cbd 38d9 90bf 272a 8ebc
00000220: 2ded b2bd 9c85 733d ea2c f03e 4877 ce3b
00000230: 7892 80bf a943 1b3e abf8 1cbf 1e6f 4f3d
00000240: dfb6 193f 8c20 87bd fbfd 8d3e 2109 14be
00000250: e685 203f 3314 abbf e7c8 a3bd 9a3f 4d3e
00000260: 5d12 173f 960a 2b3f 07ca ebbe caf7 753d
00000270: b27c 3a3e ef7a e6bd 9c89 c23c 9194 8f3e
00000280: 7a91 5ebf 3942 68bd a1ec e3bc 1397 893e
00000290: e30c 33bf 06c6 05bf 1451 9c3e e263 a5bd
000002a0: 0d98 813e 460b 883e c8a3 43bf 6c0d 69bf
000002b0: 95e9 243f cda9 323b 45b0 a03d 3704 e23d
000002c0: de20 373f fd09 68be c9c9 2fbf c6f9 fa3c
000002d0: 8f6b 95be d40f 113f 8a39 0c3f 6594 0abd
000002e0: 07a8 be3d 4d26 293f 961b c6bc 7195 b33d
000002f0: 884b 6fbd c296 41bf d4f5 6a3d c31c 123f
00000300: 1f7f 83bd a967 8c3d f1f9 203d 2533 1dbf
00000310: bf00 2d3e 26cb 7c3d 27df 373e fa17 983e
00000320: bbe6 003f 40a7 903e 8eff fcbe 7cfa 8bbc
00000330: 040c 7c3e ae84 e7bd 734a 3b3d 6347 473d
00000340: 87ef 88bd 06e4 71be d9f3 a13e 7e7e 9b3d
00000350: f6e5 ba3e d15c af3c 5e65 81bd ae35 bc3d
00000360: 24f5 da3d 88f4 bfbe f56a 35bf fb8f 073f
00000370: 7173 163e dac3 e7bc e7d4 9d3d 2a74 f63e
00000380: ba3f 1dbf 21ac a03d eda4 b43d 78a6 7b3d
00000390: 9e78 a8be 125d 0a3d e943 643d dc43 243d
000003a0: 6f27 333e 364f 213e 3ba6 f43d ccd5 f83d
000003b0: 0a6e 433d 79ff 833d eb85 163f 898c 483d
000003c0: 7a5a d03a 609d d43d 554e bbbe 1e16 2f3c
000003d0: c491 debe a02d 1d3e e227 3c3d bdc0 613d
000003e0: a6b4 55be a697 363c d897 153f 1feb d0be
000003f0: 92d4 4b3d ede9 5e3d a982 1b3e 0e24 90bd
0.19629268 -0.44787762 0.06254228 0.032963935 0.06596149 0.025469597 -1.1651208 -0.022286713
-0.056379817 0.06975037 0.49330026 0.07436933 -0.9719627 0.13328834 -0.59147877 0.03956643
0.5764455 -0.096271075 0.27791172 -0.19188286 0.6040881 -1.3297899 -0.053055145 0.18225369
0.56325346 0.6230562 -0.41156295 0.05373527 0.12571028 -0.13998486 0.035995148 0.2820153
-0.8609101 -0.1169462 0.019043583 0.30676302 -0.77074164 -0.5441087 0.26332518 -0.046597198
0.2718681 0.2752789 -0.767131 -0.8888275 0.5862824 0.07623712 0.10009074 0.114775084
0.68656117 -0.18356259 -0.75846463 0.061055806 -0.28917533 0.57559884 0.5531757 -0.057430502
0.09915705 0.69729686 -0.05015707 0.09183282 -0.0065354924 -0.77329725 0.084716305 0.5499323
-0.09046207 0.015470219 0.07130262 -0.58233637 0.22335939 0.044072103 0.19455907 0.275783
0.5568366 0.28092542 -0.4745482 0.043370534 0.29859737 -0.11554921 0.014290061 0.05490541
-0.09359369 -0.21800266 0.32471612 0.07052004 0.35383308 0.03510711 -0.008903867 0.07738176
0.16638473 -0.37842044 -0.7200644 0.5997913 0.12485043 0.0043786364 0.098023675 0.5238458
-0.57735753 0.06481934 0.01928075 0.06255024 -0.34622175 0.09460445 0.09497099 0.09003833
0.18206745 0.08313436 0.0847047 0.15801938 0.087744564 0.018183144 0.62920475 0.035080887
-0.018726902 0.104839705 -0.4267319 0.031604722 -0.48230708 0.09520049 -0.007198696 0.03346058
-0.21266678 0.06079483 0.54833126 -0.44112954 0.025256757 0.051980548 0.13981855 -0.033396095
0.16777776 -0.4573802 0.04968823 0.06709934 0.12311677 -0.038329884 -1.131629 -0.017354084
-0.08736644 0.05945359 0.46909267 0.0063008405 -1.0044699 0.15162529 -0.6131694 0.05064308
0.60044664 -0.06598005 0.27732834 -0.14456607 0.6270431 -1.3365539 -0.079973035 0.20043793
0.59012395 0.6681303 -0.46052572 0.060050763 0.1821163 -0.112539165 0.023747258 0.28043035
-0.8694073 -0.05670378 -0.027822794 0.26873073 -0.6994154 -0.52255285 0.30530608 -0.08075692
0.25311318 0.265711 -0.76421785 -0.91036105 0.6441892 0.0027261854 0.07846121 0.1103596
0.71534526 -0.2266006 -0.68667275 0.03063668 -0.29183623 0.56664777 0.547753 -0.033832926
0.093093924 0.6607407 -0.024183076 0.08768738 -0.05842164 -0.75620663 0.057363346 0.57075137
-0.06420731 0.06855709 0.039300863 -0.61406165 0.16894816 0.061717175 0.1795622 0.29705793
0.50352067 0.28252602 -0.49413723 -0.017087214 0.24613959 -0.113046035 0.045725297 0.048652064
-0.06686311 -0.2362214 0.31631353 0.07592486 0.3650357 0.021406563 -0.063181624 0.09189926
0.10691288 -0.3749125 -0.7086633 0.5295407 0.14692475 -0.028291631 0.077066235 0.481355
-0.61425364 0.07845331 0.088205196 0.061438054 -0.32904524 0.033780165 0.055728827 0.04010378
0.17495511 0.15752873 0.119457684 0.121501535 0.047712363 0.06445212 0.5879809 0.04896215
0.0015896105 0.103815794 -0.365832 0.0106864255 -0.43470585 0.15349436 0.045936473 0.05511545
-0.20869693 0.011144554 0.5843482 -0.40804383 0.04976327 0.054422308 0.15186562 -0.07038127

layer2.bias f4 [128]
00000000: 4bca ef3e 9d11 f03e 10cf 033f 8b91 2842
00000010: b343 41bd f831 fc3e 0f65 083b 65d8 2842
00000020: 4aed 2942 2a6c fd3e 8426 2842 fb5c fd3e
00000030: 5342 093f 3a1e 093f fdeb 023f 0421 053f
00000040: 84b8 fa3e df57 2842 f2e9 2842 c060 ec3e
00000050: d28c fa3e c3d1 2742 74ca fa3e 3e70 fb3e
00000060: 4d12 013f f3c0 2842 4e56 2842 6c81 fc3e
00000070: b2a6 2842 ec0b 063f 7204 073f e994 2842
00000080: 4f4b 2842 28cb ff3e 8da0 e63e 8c65 083f
00000090: 120d f13e b8dd 043f 5f57 2842 a277 063f
000000a0: 76b2 2842 7e52 013f 1add 0a3f 0966 073f
000000b0: 11bb f53e 0ec9 2742 615d 2742 3979 eb3e
000000c0: 3045 0d3f 8ff2 023f 404a 2842 d3cf 2842
000000d0: 4cec 0c3f beb1 c33c 5896 023f 00ed 063f
000000e0: 4dd2 2842 bb21 083f aee2 8c3b 94e7 ee3e
000000f0: b3b7 2742 fe6f 2842 b4f4 0a3f 9354 f23e
00000100: f207 ff3e 25ad 2842 f99c f83e e6b2 073f
00000110: d3a8 f63e 4a4e fe3e 95b2 083f 3213 0c3f
00000120: ebd4 2742 3fab 2842 3c6e 0a3f 216b 073f
00000130: 6ffe 2842 3e6f fd3e 6c3c 063f 8fe1 003f
00000140: ec58 2842 6fbe 073f 6519 2942 15c7 2842
00000150: 84a9 063f b190 023f 5030 0a3f fe71 fa3e
00000160: b792 153c 8658 003f 996c 013f adf5 f73b
00000170: 1c44 033f d9b2 2742 52c1 0a3d 6d3b 083f
00000180: b295 2842 73ce 2842 ece1 063f f146 e73e
00000190: ef7f 083f a941 003f 764a 043f c2d8 2842
000001a0: 7ba5 f13e 4d77 033f ee57 2842 b09c 2942
000001b0: a875 f23e c063 053f 11de 2842 cab7 2842
000001c0: f46f 053d 06ad 0b3f b044 2a42 2378 0a3f
000001d0: 6ed9 063f 978d 2842 29a4 2842 a687 2842
000001e0: cb87 083f 9045 26bd 3b03 083f a1dc 2842
000001f0: 14e5 2842 6087 f83e 67fe 083f 51dd 2842
0.46834025 0.46888438 0.5148783 42.14213 -0.047183704 0.49256873 0.0020812189 42.211323
42.481728 0.49496585 42.037613 0.49485 0.5361683 0.5356175 0.5114134 0.520035
0.489689 42.08581 42.228462 0.46167564 0.48935562 41.954845 0.48982584 0.49109071
0.5041855 42.188427 42.084282 0.4931749 42.16279 0.5236194 0.5274116 42.14542
42.073544 0.49959683 0.45044366 0.5327995 0.47080284 0.51900816 42.085323 0.52526295
42.17428 0.505165 0.54243624 0.5289007 0.47994283 41.946342 41.84119 0.45990923
0.55183697 0.51151365 42.07251 42.202953 0.5504806 0.023888465 0.51010656 0.52705383
42.20537 0.5317647 0.0042994833 0.46661055 41.929394 42.109367 0.5427964 0.4733015
0.4981075 42.169086 0.4855726 0.5300735 0.48175678 0.49669105 0.53397495 0.5471679
41.957928 42.167233 0.54074454 0.5289784 42.24847 0.49498934 0.52435946 0.50344175
42.086838 0.53024954 42.2748 42.194416 0.5260241 0.5100203 0.5397997 0.48915094
0.009129218 0.50135076 0.5055633 0.0075671286 0.512758 41.924656 0.03387577 0.53215677
42.146187 42.20161 0.5268848 0.45171311 0.5332021 0.5010019 0.5167612 42.211678
0.47196564 0.51353914 42.08587 42.403015 0.4735539 0.5210533 42.21686 42.17948
0.03257747 0.5456089 42.567078 0.54089564 0.5267552 42.13827 42.160313 42.13247
0.53332204 -0.040593684 0.5312993 42.215458 42.22371 0.48540783 0.5351319 42.21613

layer3.weight f4 [17, 128]
00000000: b578 03bf 0f8b 06bf 6926 05bf 5000 d141
00000010: 6fd3 a03c 1dde 07bf 1c47 8c3c 3d6f d141
00000020: 88a8 cd41 8572 f8be 9e83 d141 9c24 06bf
00000030: 8b6e 10bf 2f78 f7be caea 0dbf 8d19 ebbe
00000040: 7de3 fabe 1600 d141 cd58 d141 68d0 07bf
00000050: 303f 09bf 3540 d141 3b2f 03bf 1f6e f5be
00000060: 7ab9 03bf ab1c d141 1a65 d141 5ca6 0bbf
00000070: 538c d141 de4f 02bf 97a2 00bf 2509 d141
00000080: 5b7d d141 33db f3be 7105 22bf 08a1 0bbf
00000090: 632a 05bf 83ab eebe 8381 d141 bf66 01bf
000000a0: 4476 d141 3d89 f2be 3cfb 13bf c1d4 06bf
000000b0: f509 f5be 2c48 d141 24a9 d141 94fe 00bf
000000c0: d16a fbbe 38d6 05bf 6835 d141 c377 d141
000000d0: a94c fdbe 2839 263d 9dd8 f0be 5414 f9be
000000e0: 7f33 d141 5633 05bf 42e2 1f3d ac14 0abf
000000f0: ec9b d141 3b57 d141 a0df fdbe 3c9a 04bf
00000100: ed85 09bf 82a1 d141 f667 fbbe fb13 0ebf
00000110: 859e f6be 0850 10bf 7fc2 07bf 91bb ffbe
00000120: 69ad d041 e475 d141 9a6b 03bf 52f4 05bf
00000130: e246 d141 3e09 0cbf 5610 15bf aacc f5be
00000140: f486 d141 a2bd 0bbf 17f7 d041 c878 d141
00000150: 55cb 12bf 913f 0dbf 10d2 e4be 7d3c 0dbf
00000160: c57d fe3c 3bfe f8be fa44 0abf b5f3 303d
00000170: 7fea eebe 43b4 d041 43ef 703c 7669 fbbe
00000180: 0df6 d041 e16a d141 bb55 10bf 91a8 1dbf
00000190: 1921 0abf 9fab 02bf f444 fcbe 9f4e d141
000001a0: 764d 1dbf c35b 05bf 9781 d141 a64e d041
000001b0: fdb7 07bf 1b12 10bf 54e3 d041 9804 d141
000001c0: f8eb 5abc 442f ffbe 4b60 ce41 2b41 06bf
000001d0: 8903 fbbe 4b17 d141 0129 d141 779d d141
000001e0: 3c52 08bf 0420 e83c 8e25 02bf 9f3d d141
000001f0: 1d38 d141 2e9d 05bf cb29 05bf c653 d141
00000200: c1ad e1be 5d2e e7be 45fd f4be da8c d141
00000210: 1443 1cbd b88a 01bf 05e1 693c 5e72 d141
00000220: 3a64 ce41 c404 e9be 2066 d341 46e1 02bf
00000230: ae8f 01bf 4443 febe 2ce3 febe 9e4c e9be
00000240: 2497 fdbe a8b3 d241 3148 d141 33f0 febe
00000250: c9ed e4be fecc d141 7127 febe 93d8 f0be
00000260: 08d0 09bf 659c d141 6b54 d241 c5f8 f3be
00000270: e87a d141 9e37 06bf 3fb0 04bf f4a1 d141
00000280: 9428 d241 bf5d 05bf c7bd 21bf c67a 04bf
00000290: 2773 febe 0b04 03bf abc5 d141 b0ad 05bf
000002a0: b57b d141 3c5f d5be acfa 0cbf c78e 02bf
000002b0: 3716 f1be e532 d141 36a1 d141 3b41 05bf
000002c0: af5f f9be 031e febe 6a8f d141 d699 d141
000002d0: 69ff 01bf 69bf 8abb 55b0 ebbe 2871 ffbe
000002e0: 0130 d141 4263 06bf d09c 04bd 509d 01bf
000002f0: f096 d141 d6cb d141 7cd6 ecbe 7a11 f7be
00000300: 762d febe a856 d141 8506 f7be 1c51 09bf
00000310: fc31 fabe fd97 0abf dee2 02bf 823f 09bf
00000320: 1bf3 d041 a00f d141 02d2 01bf 7b52 e8be
00000330: 138d d141 0a36 15bf fcc5 f6be 1a1a e4be
00000340: 0aac d141 7029 04bf 7397 d041 209f d141
00000350: 6a60 05bf 1e4b ffbe 42f9 e3be cfff 00bf
00000360: 58c1 203d 1935 e4be ecdf f5be ea67 fabc
00000370: 018a f2be 81b0 d141 48b9 dd39 62cb 0abf
00000380: aa35 d141 6c2f d141 03e3 f6be 7f31 0abf
00000390: b475 dbbe 65ae f4be d501 06bf bd5f d141
000003a0: 7602 0cbf 77e8 09bf 7cdd d141 6c05 d041
000003b0: bcf9 d8be 34ef 02bf 7499 d141 c14f d141
000003c0: 7616 64bb 3acc 09bf 5ba0 cf41 e694 07bf
000003d0: a6d6 f9be 9fab d141 b679 d141 4339 d141
000003e0: 5043 e8be 9bc8 08bd cee3 09bf a581 d141
000003f0: ab7b d141 0c48 f6be 8185 04bf 30a3 d141
-0.5135606 -0.52555937 -0.52011734 26.125153 0.01963207 -0.5307329 0.017123751 26.179316
25.70729 -0.4852487 26.189266 -0.5239961 -0.56418675 -0.4833388 -0.55436385 -0.4591793
-0.49001685 26.125042 26.16836 -0.5305238 -0.5361204 26.156351 -0.5124394 -0.47935578
-0.5145489 26.138998 26.174366 -0.5455072 26.193518 -0.5090312 -0.5024809 26.129465
26.186209 -0.47628173 -0.6328955 -0.5454259 -0.520178 -0.46615228 26.188238 -0.50547403
26.182747 -0.4737033 -0.5780523 -0.52668387 -0.4785916 26.16024 26.207588 -0.50388455
-0.49104932 -0.52279997 26.151077 26.183477 -0.4947255 0.040581852 -0.47040263 -0.48648322
26.150145 -0.5203146 0.039034136 -0.5393779 26.201134 26.167593 -0.49584675 -0.5179784
-0.5371998 26.203861 -0.49102753 -0.5549924 -0.48167816 -0.5637212 -0.5303115 -0.4994779
26.084673 26.182564 -0.5133606 -0.5232593 26.15961 -0.547016 -0.5822805 -0.4800771
26.190895 -0.5458623 26.12065 26.183975 -0.5734151 -0.5517512 -0.44691515 -0.5517042
0.031065831 -0.48631462 -0.540115 0.043201167 -0.4666328 26.088018 0.014705482 -0.49103898
26.120142 26.177187 -0.56380814 -0.61585337 -0.53956753 -0.51043123 -0.49271357 26.16339
-0.6144632 -0.5209314 26.188276 26.038403 -0.5301512 -0.56277627 26.111 26.127243
-0.013361923 -0.49840748 25.797018 -0.5244319 -0.49026135 26.136374 26.145021 26.201887
-0.5325048 0.028335579 -0.50838554 26.155088 26.1524 -0.5219296 -0.52016896 26.165905
-0.44077876 -0.4515256 -0.4784948 26.193775 -0.03814991 -0.50602293 0.01427484 26.180843
25.798939 -0.45511448 26.424866 -0.5112499 -0.5060986 -0.49660695 -0.49782693 -0.45566267
-0.49529374 26.337723 26.16025 -0.49792632 -0.44712666 26.225094 -0.49639466 -0.47040233
-0.53833055 26.201365 26.29122 -0.47650734 26.185013 -0.52428615 -0.5183143 26.204079
26.269814 -0.5209617 -0.631802 -0.5174984 -0.4969723 -0.51178044 26.221518 -0.5221815
26.185404 -0.4167422 -0.55069995 -0.5099911 -0.4708726 26.14985 26.203716 -0.5205266
-0.48705813 -0.49632272 26.195026 26.200115 -0.5078035 -0.0042342436 -0.46032968 -0.4989102
26.14844 -0.52495205 -0.03237611 -0.50630665 26.1987 26.22453 -0.4625739 -0.4825552
-0.4964406 26.167313 -0.48247162 -0.5363939 -0.4886626 -0.54138166 -0.5112742 -0.5361253
26.118704 26.13263 -0.5071107 -0.45375428 26.193884 -0.5828558 -0.48197925 -0.44551164
26.209003 -0.5162573 26.07395 26.202698 -0.5210024 -0.49861997 -0.44526106 -0.5039033
0.039246887 -0.4457176 -0.480224 -0.030567128 -0.47370914 26.211184 0.0004229045 -0.5421659
26.151203 26.148155 -0.4822007 -0.53981775 -0.42863238 -0.47789302 -0.52346545 26.171747
-0.54691255 -0.5387034 26.233147 26.002647 -0.42378032 -0.51146245 26.199928 26.163942
-0.0034803427 -0.5382725 25.953299 -0.52961576 -0.48796576 26.2088 26.18443 26.15296
-0.45363855 -0.033394437 -0.5386323 26.188303 26.185385 -0.48101842 -0.5176621 26.204681

layer3.bias f4 [17]
00000000: ac88 a441 5bdc db41 87e5 8141 0b5e c241
00000010: b7f5 d441 b496 c341 5358 0b41 59a4 5841
00000020: 729b 5e41 beab 7b41 e0c8 9c41 4dc2 a841
00000030: 7ef7 9f41 894c aa41 bf33 a241 703b a641
00000040: 3aa8 d141
20.566734 27.482595 16.237074 24.29592 26.619978 24.448586 8.709064 13.540124
13.9129505 15.729429 19.598083 21.094873 19.995846 21.28737 20.275267 20.779022
26.207142

layer1.weight f4 [128, 109]
00000000: 5632 2f42 26b6 2f42 2c5e 2c42 1604 2742
00000010: 96d2 2a42 68c8 cd41 6455 cc41 0a88 ce41
00000020: 10e7 ce41 0d49 cf41 0ec0 d141 b603 cd41
00000030: c66b d141 2315 ca41 27d8 cd41 1781 cf41
00000040: 273b cd41 80aa d141 dfab ce41 897d c941
00000050: d008 cc41 5394 c441 67a9 cf41 2725 cb41
00000060: d705 d441 4e93 d541 b5b7 ca41 cfa9 cd41
00000070: ee0c cb41 3a2e d041 ff46 c941 582b cf41
00000080: a2f9 ca41 b1c2 c041 d817 cc41 3c80 cd41
00000090: 48a5 d041 62ec d141 30fa c741 be15 cf41
000000a0: 02c6 d041 2470 cd41 85ff cf41 4a9a d241
000000b0: ef73 cc41 b134 cc41 cbf8 cf41 f193 c941
000000c0: 0f2f cd41 55d7 d241 4c0b cd41 98e2 cd41
000000d0: 2a32 d041 7b80 d141 63ec d141 b9d5 cc41
000000e0: 0282 d341 7553 1a42 7105 1a42 7a9b 1a42
000000f0: 81b6 1b42 c326 1a42 2ea5 1742 6a9d 1842
00000100: b8dc 1742 7dbe 1942 7b11 1842 5358 1942
00000110: 6579 1742 95f1 1542 d36e 1942 8a52 1b42
00000120: 9f53 1b42 67cd 1942 325d 1a42 0de2 1942
00000130: e65c 1942 07ba 1942 ad2b 1742 4314 1942
00000140: 1b34 1742 d052 1742 2558 1642 cec7 1942
00000150: 0c80 1842 5a69 1a42 b81e 1942 2186 1742
00000160: e965 1a42 3d88 1842 0254 1842 7008 1942
00000170: 6922 1842 881e 1842 6706 1842 247f 1642
00000180: 1a5e 1c42 360b 1a42 65d7 1a42 0600 1a42
00000190: 479f 1942 f019 1942 9e40 1a42 13ac 1942
000001a0: 0d1a 1742 791d 1a42 1f49 1742 a2de 1642
000001b0: cf5a 1642 2fd0 3542 9753 3542 1600 2f42
000001c0: a3a2 2742 5de3 2a42 b8fb cb41 998a cf41
000001d0: 1a0f d041 8717 ce41 28b6 cf41 6f2c d441
000001e0: ca93 cf41 b3bd d441 95b7 c841 fe85 cf41
000001f0: 0a8d d041 7307 d141 c33c d341 8538 d041
00000200: c189 cb41 04b5 ce41 7191 c641 2f11 d041
00000210: 59c5 cd41 c201 d641 ecb9 d941 d334 cd41
00000220: 068c cf41 b261 c941 50b8 d141 a144 cb41
00000230: 44f9 d141 2227 cc41 2626 c441 faec cd41
00000240: 2d84 ce41 6b05 d241 b2a5 d041 5571 cc41
00000250: 5940 d241 ee90 d141 8aaf cf41 c027 d241
00000260: 8ef0 d641 4729 d041 f15e cd41 bb05 d241
00000270: d412 cd41 0492 ce41 8842 d341 f61a d141
00000280: 6bba cf41 cfee d141 d2d8 d641 957d d541
00000290: 3fb2 cd41 d77a d441 6758 1942 bb22 1942
000002a0: 0b1b 1c42 20a0 1b42 1673 1942 c905 1842
000002b0: d5b8 1842 7baf 1842 cc37 1a42 0dc5 1942
000002c0: 6abf 1a42 7545 1842 7ff6 1742 74c1 1942
000002d0: 46f2 1a42 46ce 1942 54dc 1842 af8b 1a42
000002e0: e6ee 1942 43b4 1842 07f9 1942 27f8 1742
000002f0: 4af2 1942 b0fd 1842 a2f6 1842 18d4 1842
00000300: d1cd 1942 658e 1842 73d6 1942 beeb 1742
00000310: ee83 1742 f336 1942 0190 1942 7ba0 1842
00000320: 3db9 1942 d405 1a42 d9b8 1842 be32 1842
00000330: 4ef6 1642 9036 1b42 853f 1a42 8cde 1a42
00000340: 72a0 1a42 85d6 1942 3a39 1942 f551 1942
00000350: 83ff 1942 ab9f 1742 3c76 1942 4392 1842
00000360: e01d 1942 c440 1842 863a 3042 1dc6 3042
00000370: 3222 2e42 9475 2742 1c29 2b42 1068 cf41
00000380: ded0 cd41 b99f d041 96f6 ce41 bcd6 d041
00000390: 2d35 d341 94d1 cd41 fe02 d341 82b4 cb41
000003a0: 61d1 ce41 ae79 d041 340e ce41 c67c d241
000003b0: b05c cf41 2393 ca41 96ab cd41 c203 c641
000003c0: 7936 d141 b834 cc41 61ff d441 ce7b d741
000003d0: c2dc cc41 1170 cf41 5d77 cc41 2e34 d141
000003e0: 7435 ca41 9c80 d041 5ccc cb41 eb06 c341
000003f0: f603 cd41 fc0f ce41 2628 d141 9c52 d241
43.799156 43.92788 43.091965 41.75399 42.70565 25.722855 25.541695 25.816425
25.862823 25.91067 26.218777 25.626812 26.177624 25.26032 25.730543 25.938032
25.653883 26.208252 25.833921 25.186296 25.504303 24.572424 25.957716 25.39314
26.502851 26.696926 25.3397 25.707914 25.381313 26.022572 25.159666 25.896164
25.371891 24.095064 25.511642 25.687614 26.080704 26.240421 24.997162 25.885616
26.096684 25.679756 25.999765 26.325336 25.556608 25.525728 25.99648 25.197237
25.647978 26.355143 25.630516 25.735641 26.024494 26.187735 26.240423 25.604357
26.43848 38.5815 38.505314 38.651833 38.928226 38.537853 37.91131 38.153725
37.965546 38.436024 38.01707 38.336254 37.86855 37.48592 38.358227 38.830605
38.83166 38.45059 38.59101 38.470753 38.34072 38.431667 37.792652 38.269787
37.800884 37.83087 37.58608 38.44512 38.125046 38.602882 38.28 37.880985
38.59952 38.133045 38.08204 38.25824 38.033604 38.029816 38.006252 37.62416
39.091896 38.51095 38.710346 38.500023 38.405544 38.27533 38.563103 38.41804
37.77544 38.52878 37.821407 37.717415 37.58868 45.453304 45.33163 43.750084
41.908825 42.722034 25.49791 25.942675 26.007374 25.761488 25.963943 26.521696
25.947163 26.592627 25.08964 25.940426 26.068867 26.128637 26.404669 26.027597
25.442263 25.838387 24.821016 26.00839 25.721361 26.750858 27.215782 25.650793
25.94337 25.172703 26.214996 25.40851 26.246712 25.519108 24.518627 25.740711
25.814539 26.252645 26.080906 25.555338 26.28142 26.195766 25.960712 26.26941
26.867458 26.020155 25.671358 26.252798 25.634193 25.821297 26.407486 26.138165
25.966024 26.241606 26.85587 26.68632 25.712034 26.55998 38.33633 38.283916
39.02641 38.906372 38.36239 38.00565 38.1805 38.171368 38.55449 38.442432
38.686928 38.06783 37.99072 38.43892 38.736595 38.45144 38.215164 38.63641
38.4833 38.176037 38.49319 37.992336 38.48661 38.24774 38.240852 38.207123
38.450993 38.139057 38.459423 37.980217 37.878838 38.30366 38.39063 38.15672
38.430897 38.50569 38.180515 38.049553 37.740532 38.803284 38.56203 38.71733
38.656685 38.45949 38.305885 38.330036 38.499523 37.905926 38.365463 38.142834
38.279175 38.063248 44.05715 44.19347 43.533394 41.864822 42.790146 25.925812
25.726986 26.07799 25.870403 26.10485 26.400965 25.727333 26.376461 25.463139
25.852236 26.059414 25.756935 26.310925 25.920258 25.321844 25.708782 24.751835
26.151598 25.525742 26.624697 26.935452 25.607792 25.92972 25.558283 26.150478
25.2761 26.062798 25.474785 24.378378 25.626934 25.757805 26.144604 26.290337

layer1.bias f4 [128]
00000000: c805 3342 b9f0 3042 6308 3442 b931 3442
00000010: 4636 3442 7627 a6bc 950c 3242 f131 3442
00000020: a032 3042 6683 3342 e147 3242 56bf 3342
00000030: 0ebd 3142 4c3c 3442 c978 3042 8dde 3142
00000040: d65a 2f42 b6f7 2f42 ce6f 3142 ab06 2d42
00000050: 365b 2f42 84c4 3142 1c21 3042 176a 3342
00000060: 7f2c 3142 7e76 2e42 5a65 2f42 9200 3442
00000070: d0a9 3342 e6f1 2f42 adf2 3342 3f93 3142
00000080: 9abf 3042 b432 3442 6510 1640 0f9a 3142
00000090: 0bed 3142 3c52 2f42 aa79 3042 b18e 3442
000000a0: 5a83 3342 466e 3242 0669 3142 172d 3242
000000b0: 849c f841 9a32 3442 d552 3442 1f0e 3442
000000c0: 66e8 2b42 96a1 2f42 e269 3042 4a24 3442
000000d0: 207f 3042 d440 2f42 fe88 3142 4404 3442
000000e0: 043d 3442 189c 2f42 18f9 2f42 320a 3442
000000f0: 8ae1 3342 1ed1 3142 0006 3442 2817 3142
00000100: a0bc 3342 7b7e 3342 661a 3442 dc62 2f42
00000110: 9a66 3342 8eea 3342 673d 3342 3607 3242
00000120: 14a2 2f42 56d1 3242 2cf5 2b42 e939 8ebc
00000130: d23c 3142 80f7 2f42 8640 3442 a3df 3342
00000140: db67 3442 aac6 2f42 0dec 3142 3f33 3442
00000150: 33b2 3142 5b39 3342 e812 3442 94f8 3342
00000160: 6a13 3442 b68b 2f42 b48b 3142 2910 3142
00000170: 5b0a 3442 140b 3442 1df0 3042 58d5 3042
00000180: 3e4a 3042 0dcb 3042 2122 3442 e0e4 3342
00000190: 4609 3042 1a16 3442 c391 3342 bf49 3442
000001a0: 9c38 3342 dafb 3342 d405 3442 eb9d 3342
000001b0: 4977 3342 2590 3342 5e94 2d42 5ac2 3242
000001c0: 9782 0b3b e31a 3442 c699 2f42 e2db 79bb
000001d0: 1e96 2f42 c319 3442 0cef 3342 b9b7 3342
000001e0: 2ee6 2f42 1904 3442 74ce 3042 d689 2d42
000001f0: cca7 3242 e7eb 3342 6412 3442 b02b 3442
44.755646 44.23508 45.00819 45.048557 45.053 -0.020282488 44.512287 45.04877
44.04944 44.87832 44.570194 44.93685 44.434624 45.058884 44.117954 44.467335
43.838707 43.991905 44.359184 43.25651 43.839073 44.44191 44.032333 44.853603
44.293453 43.615715 43.848976 45.000557 44.915833 43.98623 44.986988 44.393795
44.18711 45.049515 2.3447506 44.400448 44.481487 43.830307 44.118813 45.139347
44.878273 44.60769 44.352562 44.544033 31.076424 45.049416 45.08089 45.01379
42.97695 43.9078 44.1034 45.03544 44.124146 43.81331 44.38378 45.004166
45.059586 43.902435 43.993256 45.009956 44.970253 44.454216 45.00586 44.272614
44.934204 44.873516 45.02578 43.846542 44.850197 44.979057 44.809963 44.507042
43.90828 44.70443 42.989426 -0.017361598 44.309395 43.9917 45.06301 44.968395
45.10142 43.944008 44.48052 45.050045 44.424023 44.80601 45.018463 44.992752
45.01896 43.886436 44.38643 44.26578 45.010113 45.01082 44.234486 44.208344
44.072502 44.19829 45.03333 44.97351 44.009056 45.021584 44.892345 45.072018
44.805283 44.99595 45.00569 44.904217 44.86649 44.890766 43.39489 44.689796
0.0021287554 45.026257 43.90017 -0.0038125445 43.8966 45.025158 44.983444 44.929417
43.974785 45.004 44.201614 43.384605 44.663864 44.980373 45.01796 45.042664

layer2.weight f4 [128, 128]
00000000: 1b0b 493e eb5b e5be 011d 803d 390c 073d
00000010: d91d 873d 8cb0 d03c 7c2a 95bf fc9b b6bc
00000020: 3cfa 66bd 50e0 8e3d 1f9f fc3e c056 983d
00000030: d2df 78bf c583 083e f072 17bf 0119 223d
00000040: be99 133f ed33 c5bd 7a51 8e3e 1987 44be
00000050: 4ead 1a3f 263f aabf 485b 59bd 14aa 3a3e
00000060: 2c39 103f 3289 1f3f 4ec3 d2be 3925 5c3d
00000070: 3ac1 003e fb5f 0fbe 7277 133d 1c6c 903e
00000080: 4d70 5cbf f48d efbd 1409 9c3c d217 9d3e
00000090: 7b59 45bf bd51 0bbf 97d9 863e dae6 3ebd
000000a0: 5439 8b3e 63f8 8c3e da6c 44bf e695 63bf
000000b0: 641e 163f 022a 9c3d 4e07 cd3d ab1b eb3d
000000c0: d8cb 2f3f 3701 3cbe e534 42bf ed22 7a3d
000000d0: 9616 94be 3c62 133f f4a3 0d3f bb48 6bbd
000000e0: 021d cb3d 688b 323f 6e7c 4dbd 3a1c bc3d
000000f0: 9c32 d6bb f700 46bf 1b89 ad3d 65cf 0c3f
00000100: 8c4d b9bd 1284 7d3c e60e 923d cc1b 15bf
00000110: 07c4 643e 508e 343d a644 473e 763a 8d3e
00000120: e093 0e3f 42dd 8f3e 7404 f3be acae 313d
00000130: 8ce9 983e 8bb1 ecbd 542d 6a3c 33f0 603d
00000140: 32b8 bfbd c847 5fbe c949 a63e 9674 903d
00000150: f832 b53e 46d4 0f3d 52e9 11bc ea82 9e3d
00000160: 5a69 2a3e 7bca c1be 805f 38bf b493 193f
00000170: dabe ff3d 7082 8f3b cbca c83d ca21 063f
00000180: 82d5 13bf 09c7 843d 7ffa 9d3c 2d21 803d
00000190: 584d b1be 22ca c13d 4f8a c23d 606f b83d
000001a0: 4079 3a3e f14a aa3d 0483 ad3d 6dd8 213e
000001b0: c8bc b33d a0fc 943c 281c 213f c6b8 0f3d
000001c0: f070 99bc 20c1 d63d 5088 dabe fc7a 013d
000001d0: 6cfd f6be a102 c33d 83ef ebbb fe14 093d
000001e0: 40d0 59be 4611 793d 7866 0c3f 6ee7 e1be
000001f0: 30f2 ce3c 7cf4 543d 6334 0f3e 60d1 08bd
00000200: ddd6 2b3e 1b3a eabe 0691 4b3d bb72 893d
00000210: 0832 fc3d 9207 1dbd 01e1 90bf e02e 8ebc
00000220: 81f6 b2bd 9f92 733d 8c39 f03e f283 ce3b
00000230: 4e99 80bf 894b 1b3e 78ff 1cbf 1b7c 4f3d
00000240: c5be 193f 8327 87bd 4305 8e3e 2a10 14be
00000250: 8f8e 203f c31c abbf 75d1 a3bd d14a 4d3e
00000260: 351a 173f 4513 2b3f 6bd6 ebbe 7404 763d
00000270: 3086 3a3e 9c86 e6bd 2794 c23c 869c 8f3e
00000280: 1a9d 5ebf c64c 68bd efc3 e3bc 419e 893e
00000290: 3316 33bf facc 05bf 0859 9c3e f46b a5bd
000002a0: 369f 813e 7712 883e d8ad 43bf 1219 69bf
000002b0: 39f2 243f 65be 323b 10b9 a03d 2b10 e23d
000002c0: 502a 373f ac15 68be 13d3 2fbf 7d07 fb3c
000002d0: 4073 95be bd17 113f ab40 0c3f 199a 0abd
000002e0: 60b2 be3d f32e 293f 9525 c6bc f29e b33d
000002f0: b856 6fbd d7a0 41bf a502 6b3d 9724 123f
00000300: 7a85 83bd e46e 8c3d cc02 213d e33a 1dbf
00000310: 8509 2d3e a4d9 7c3d d9e8 373e f11f 983e
00000320: d9ed 003f 28af 903e ba0a fdbe 8401 8cbc
00000330: c019 7c3e 5690 e7bd 5254 3b3d e751 473d
00000340: fef5 88bd 7ff0 71be aafc a13e 7586 9b3d
00000350: 8aef ba3e 5267 af3c d16b 81bd 8f3f bc3d
00000360: 0501 db3d 91fe bfbe 4274 35bf 1997 073f
00000370: 557b 163e 1fcd e7bc e2dd 9d3d d380 f63e
00000380: 7847 1dbf 5db5 a03d 8aae b43d 05b4 7b3d
00000390: 2881 a8be 6b64 0a3d f550 643d d54c 243d
000003a0: 0131 333e e857 213e 25b3 f43d 99e3 f83d
000003b0: 6279 433d a506 843d d28d 163f 4498 483d
000003c0: 6865 d03a 69a8 d43d 9657 bbbe 7b1f 2f3c
000003d0: 5e9d debe 8735 1d3e 2f32 3c3d 23cd 613d
000003e0: f9be 55be e1a1 363c ba9f 153f f7f3 d0be
000003f0: 4fe0 4b3d 0ff6 5e3d 868a 1b3e 462b 90bd
0.19633143 -0.4479669 0.06255532 0.03297064 0.0659749 0.02547481 -1.165359 -0.022291176
-0.056390986 0.06976378 0.4934015 0.07438421 -0.9721652 0.13331516 -0.59159756 0.039574627
0.57656467 -0.09629045 0.27796537 -0.1919216 0.6042069 -1.3300521 -0.05306557 0.18228942
0.5633724 0.6231872 -0.4116463 0.053746436 0.1257371 -0.14001457 0.036002584 0.2820748
-0.8610886 -0.11696997 0.019047298 0.30682236 -0.7708966 -0.544216 0.26337883 -0.046606876
0.27192175 0.27533254 -0.76728594 -0.889006 0.5864012 0.076252 0.10011159 0.114798866
0.68670416 -0.18359838 -0.7586196 0.061068464 -0.28923482 0.5757177 0.553283 -0.057442408
0.09917642 0.6974397 -0.050167494 0.09185071 -0.006536795 -0.7734522 0.084734164 0.5500396
-0.09047994 0.015473383 0.07131748 -0.5824554 0.22340403 0.044081032 0.19459781 0.27583665
0.5569439 0.28098494 -0.47464335 0.04337947 0.29865682 -0.11557301 0.014293034 0.05491657
-0.09361304 -0.21804726 0.3247817 0.07053487 0.3539045 0.03511455 -0.008905726 0.077398136
0.16641751 -0.37849793 -0.7202072 0.59991 0.12487574 0.004379563 0.09804305 0.5239531
-0.5774766 0.064832754 0.019284485 0.06256328 -0.3462932 0.09462382 0.094990365 0.09005618
0.18210316 0.08315075 0.08472255 0.15805216 0.087762415 0.018186867 0.6293359 0.035088323
-0.01873061 0.104860544 -0.42682123 0.031611428 -0.4824022 0.09521986 -0.007200183 0.033467285
-0.21270847 0.06080749 0.54843855 -0.4412188 0.025261968 0.05199097 0.13984828 -0.0334028
0.16781183 -0.45747456 0.049698852 0.06711336 0.1231423 -0.038337298 -1.1318666 -0.017356336
-0.08738423 0.059466 0.46918905 0.00630235 -1.0046785 0.15165533 -0.61327314 0.050655466
0.60056716 -0.06599333 0.2773839 -0.14459291 0.6271753 -1.3368152 -0.07998935 0.20048071
0.59024364 0.6682628 -0.46062025 0.06006284 0.18215251 -0.112561435 0.023752285 0.28049105
-0.8695847 -0.05671384 -0.02780339 0.2687855 -0.6995575 -0.52265894 0.30536675 -0.08077231
0.2531678 0.26576588 -0.7643714 -0.9105388 0.644321 0.0027274129 0.07847798 0.1103824
0.7154894 -0.22664517 -0.6868145 0.03064322 -0.2918949 0.56676847 0.54786175 -0.033838365
0.09311366 0.66087264 -0.024187842 0.08770551 -0.05843231 -0.7563605 0.05737557 0.5708708
-0.06421943 0.06857088 0.039309308 -0.6141798 0.16898163 0.061730996 0.17959918 0.2971187
0.50362927 0.28258634 -0.49422246 -0.017090566 0.24619198 -0.11306827 0.04573471 0.048662093
-0.06687544 -0.23626898 0.3163808 0.07594005 0.3651088 0.021411572 -0.063193925 0.0919181
0.10693554 -0.37498906 -0.7088052 0.5296493 0.14695485 -0.028296052 0.077083364 0.4814516
-0.6143718 0.07847092 0.08822353 0.061450977 -0.32911038 0.033787172 0.05574127 0.040112335
0.17499162 0.1575619 0.119482316 0.12152786 0.04772318 0.0644658 0.5881015 0.048973337
0.0015899362 0.10383684 -0.3659026 0.010688658 -0.43479437 0.1535245 0.045946296 0.055127274
-0.20873632 0.011146993 0.5844685 -0.4081113 0.049774464 0.05443388 0.15189561 -0.07039504

layer2.bias f4 [128]
00000000: c4d6 ef3e 221e f03e 18d6 033f d587 2842
00000010: db4d 41bd 3d3f fc3e 176c 083b b0ce 2842
00000020: 95e3 2942 6f79 fd3e d01c 2842 416a fd3e
00000030: 5b49 093f 4625 093f 05f3 023f 0c28 053f
00000040: c9c5 fa3e 2e4e 2842 3ee0 2842 3b6d ec3e
00000050: 179a fa3e 14c8 2742 bad7 fa3e 837d fb3e
00000060: 5519 013f 41b7 2842 9d4c 2842 b18e fc3e
00000070: 039d 2842 f412 063f 7a0b 073f 378b 2842
00000080: 9e41 2842 6ed8 ff3e 40ac e63e 946c 083f
00000090: 8c19 f13e c0e4 043f af4d 2842 aa7e 063f
000000a0: c1a8 2842 8659 013f 22e4 0a3f 116d 073f
000000b0: 93c7 f53e 5abf 2742 af53 2742 b385 eb3e
000000c0: 384c 0d3f 97f9 023f 9340 2842 23c6 2842
000000d0: 54f3 0c3f e6bb c33c 609d 023f 08f4 063f
000000e0: 98c8 2842 c328 083f b6e9 8c3b 0cf4 ee3e
000000f0: 00ae 2742 4c66 2842 bcfb 0a3f 0c61 f23e
00000100: 3715 ff3e 72a3 2842 3faa f83e eeb9 073f
00000110: 4cb5 f63e 905b fe3e 9db9 083f 3a1a 0c3f
00000120: 37cb 2742 8ba1 2842 4475 0a3f 2972 073f
00000130: baf4 2842 837c fd3e 7443 063f 97e8 003f
00000140: 3e4f 2842 77c5 073f b00f 2942 63bd 2842
00000150: 8cb0 063f b997 023f 5837 0a3f 437f fa3e
00000160: 849a 153c 9a5f 003f a173 013f 3202 f83b
00000170: 244b 033f 24a9 2742 5ac8 0a3d 7542 083f
00000180: 018c 2842 bec4 2842 f4e8 063f a752 e73e
00000190: f786 083f 7f48 003f 7e51 043f 0ecf 2842
000001a0: f4b1 f13e 557e 033f 3d4e 2842 f792 2942
000001b0: 2482 f23e c86a 053f 61d4 2842 19ae 2842
000001c0: fc76 053d 0eb4 0b3f fc3a 2a42 2b7f 0a3f
000001d0: 76e0 063f e083 2842 769a 2842 f37d 2842
000001e0: d38e 083f 284e 26bd 430a 083f eed2 2842
000001f0: 5fdb 2842 a594 f83e 6f05 093f 9cd3 2842
0.4684354 0.4689799 0.51498556 42.13265 -0.04719339 0.49266997 0.002081638 42.201843
42.472248 0.4950671 42.028137 0.49495128 0.53627557 0.535725 0.5115207 0.5201423
0.48979023 42.076347 42.218987 0.46177086 0.48945686 41.94539 0.4899271 0.49119195
0.5042928 42.17896 42.074818 0.49327615 42.15333 0.5237267 0.52751887 42.135952
42.06408 0.4996981 0.4505329 0.5329068 0.47089803 0.51911545 42.075863 0.52537024
42.1648 0.50527227 0.54254353 0.529008 0.48003826 41.936867 41.831722 0.46000442
0.55194426 0.51162094 42.06306 42.193493 0.5505879 0.023893308 0.51021385 0.5271611
42.195892 0.531872 0.0043003215 0.46670568 41.91992 42.0999 0.54290366 0.47339666
0.49820873 42.159615 0.48567387 0.5301808 0.48185194 0.49679232 0.53408223 0.5472752
41.948452 42.157757 0.54085183 0.5290857 42.23899 0.49509057 0.52446675 0.50354904
42.077385 0.5303568 42.26532 42.184948 0.5261314 0.5101276 0.539907 0.48925218
0.009131078 0.50145876 0.5056706 0.007568621 0.5128653 41.915176 0.033882476 0.53226405
42.136723 42.19213 0.5269921 0.45180246 0.5333094 0.5011062 0.5168685 42.2022
0.4720608 0.5136464 42.076405 42.39352 0.47364914 0.5211606 42.2074 42.170017
0.032584175 0.54571617 42.557602 0.5410029 0.5268625 42.128784 42.15084 42.122997
0.5334293 -0.04060188 0.5314066 42.205986 42.21423 0.48550907 0.53523916 42.20665

layer3.weight f4 [17, 128]
00000000: bd7f 03bf 1792 06bf 712d 05bf 9ff3 d041
00000010: 07dc a03c 25e5 07bf 244e 8c3c 8e62 d141
00000020: db9b cd41 7f7f f8be ec76 d141 a42b 06bf
00000030: 5876 10bf ac84 f7be d2f1 0dbf 0426 ebbe
00000040: c3f0 fabe 6cf3 d041 264c d141 70d7 07bf
00000050: 3846 09bf 8933 d141 4336 03bf 9c7a f5be
00000060: 82c0 03bf 0410 d141 6858 d141 64ad 0bbf
00000070: ab7f d141 e656 02bf 9fa9 00bf 7cfc d041
00000080: a770 d141 ace7 f3be 090e 22bf 10a8 0bbf
00000090: 6b31 05bf fbb7 eebe db74 d141 c76d 01bf
000000a0: 9669 d141 b495 f2be 0403 14bf c9db 06bf
000000b0: 6c16 f5be 7e3b d141 719c d141 9c05 01bf
000000c0: 1678 fbbe 40dd 05bf b528 d141 136b d141
000000d0: ee59 fdbe c041 263d 14e5 f0be 9921 f9be
000000e0: d526 d141 5e3a 05bf d8ea 1f3d b41b 0abf
000000f0: 3c8f d141 944a d141 e5ec fdbe 44a1 04bf
00000100: f58c 09bf da94 d141 3b75 fbbe 031b 0ebf
00000110: fcaa f6be d657 10bf 87c9 07bf d6c8 ffbe
00000120: baa0 d041 3a69 d141 a272 03bf 5afb 05bf
00000130: 3a3a d141 4610 0cbf 2018 15bf 24d9 f5be
00000140: 4e7a d141 aac4 0bbf 68ea d041 1d6c d141
00000150: 1cd3 12bf 9946 0dbf c4dd e4be 8543 0dbf
00000160: 0a8b fe3c 810b f9be 024c 0abf 14fd 303d
00000170: fbf6 eebe 99a7 d041 bcfb 703c bb76 fbbe
00000180: 5de9 d041 355e d141 8a5d 10bf 5cb0 1dbf
00000190: 2128 0abf a7b2 02bf 3952 fcbe f841 d141
000001a0: 4455 1dbf cb62 05bf ed74 d141 fb41 d041
000001b0: 05bf 07bf e219 10bf a4d6 d041 edf7 d041
000001c0: a9f7 5abc 893c ffbe 9c53 ce41 3348 06bf
000001d0: cf10 fbbe a00a d141 4f1c d141 c790 d141
000001e0: 4459 08bf b92b e83c 962c 02bf f530 d141
000001f0: 722b d141 36a4 05bf d330 05bf 1847 d141
00000200: 74b9 e1be 113a e7be bc09 f5be 6f81 d141
00000210: dc4a 1cbd c091 01bf 7ced 693c f066 d141
00000220: ce58 ce41 7d10 e9be ba5a d341 4ee8 02bf
00000230: b696 01bf 8a50 febe 72f0 febe 6758 e9be
00000240: 6aa4 fdbe 36a8 d241 c23c d141 78fd febe
00000250: 7cf9 e4be 90c1 d141 b734 febe 0ce5 f0be
00000260: 10d7 09bf fc90 d141 fe48 d241 3c05 f4be
00000270: 7b6f d141 a63e 06bf 47b7 04bf 8996 d141
00000280: 221d d241 c764 05bf 5fc6 21bf ce81 04bf
00000290: 6c80 febe 130b 03bf 43ba d141 b8b4 05bf
000002a0: 4670 d141 2a6a d5be b401 0dbf cf95 02bf
000002b0: b422 f1be 7f27 d141 c695 d141 4348 05bf
000002c0: f46c f9be 482b febe fa83 d141 718e d141
000002d0: 7106 02bf 71c6 8abb ccbc ebbe 6d7e ffbe
000002e0: 8e24 d141 4a6a 06bf d8a3 04bd 58a4 01bf
000002f0: 898b d141 71c0 d141 f4e2 ecbe f41d f7be
00000300: bb3a febe 424b d141 fc12 f7be 2458 09bf
00000310: 413f fabe 059f 0abf e6e9 02bf 8a46 09bf
00000320: abe7 d041 3804 d141 0ad9 01bf 315e e8be
00000330: a281 d141 d23d 15bf 74d2 f6be ce25 e4be
00000340: a3a0 d141 7830 04bf 098c d041 af93 d141
00000350: 7267 05bf 6358 ffbe f804 e4be d706 01bf
00000360: f0c9 203d cc40 e4be 64ec f5be 2f75 fabc
00000370: 7c96 f2be 1aa5 d141 fcc4 dd39 6ad2 0abf
00000380: 3a2a d141 fd23 d141 7cef f6be 8738 0abf
00000390: 6581 dbbe dcba f4be dd08 06bf 4c54 d141
000003a0: 7e09 0cbf 7fef 09bf 0dd2 d141 fff9 cf41
000003b0: aa04 d9be 3cf6 02bf 038e d141 5a44 d141
000003c0: 2b22 64bb 42d3 09bf f494 cf41 ee9b 07bf
000003d0: ebe3 f9be 2da0 d141 4b6e d141 d92d d141
000003e0: 044f e8be a3cf 08bd d6ea 09bf 3b76 d141
000003f0: 4170 d141 8454 f6be 898c 04bf c997 d141
-0.5136679 -0.52566665 -0.52022463 26.118956 0.019636167 -0.5308402 0.017127104 26.173122
25.701101 -0.48534772 26.183067 -0.5241034 -0.5643058 -0.48343408 -0.55447114 -0.4592744
-0.49011812 26.118858 26.162182 -0.53063107 -0.5362277 26.150164 -0.5125467 -0.47945106
-0.5146562 26.13282 26.168167 -0.5456145 26.187338 -0.50913846 -0.5025882 26.123283
26.180006 -0.4763769 -0.63302666 -0.5455332 -0.5202853 -0.4662474 26.182058 -0.5055813
26.176556 -0.4737984 -0.578171 -0.52679116 -0.4786867 26.154049 26.201387 -0.50399184
-0.49115056 -0.52290726 26.144876 26.177282 -0.49482673 0.040590048 -0.47049773 -0.48658445
26.14396 -0.52042186 0.039042324 -0.5394852 26.194939 26.161415 -0.495948 -0.5180857
-0.5373071 26.197681 -0.49112877 -0.55509967 -0.48177326 -0.56384027 -0.5304188 -0.49957913
26.07848 26.17638 -0.5134679 -0.5233666 26.15343 -0.5471233 -0.58239937 -0.48017228
26.18472 -0.5459696 26.114456 26.17779 -0.5735338 -0.5518585 -0.44700444 -0.5518115
0.031072158 -0.4864159 -0.5402223 0.043210104 -0.46672806 26.081835 0.014708456 -0.49114022
26.113947 26.171 -0.5639273 -0.6159723 -0.5396748 -0.5105385 -0.4928148 26.157211
-0.6145823 -0.5210387 26.182093 26.032217 -0.5302585 -0.56289494 26.104805 26.121058
-0.013364711 -0.49850872 25.790825 -0.5245392 -0.4903626 26.130188 26.138823 26.195692
-0.5326121 0.028341161 -0.5084928 26.148905 26.146214 -0.5220369 -0.52027625 26.159714
-0.44086802 -0.4516149 -0.4785899 26.1882 -0.03815733 -0.5061302 0.014277812 26.175262
25.793362 -0.45520392 26.4193 -0.5113572 -0.5062059 -0.4967082 -0.4979282 -0.45575258
-0.495395 26.332134 26.154667 -0.49802756 -0.4472159 26.219513 -0.49649593 -0.4704975
-0.53843784 26.195793 26.28564 -0.47660244 26.179434 -0.52439344 -0.5184216 26.198503
26.264225 -0.521069 -0.63193315 -0.51760566 -0.49707353 -0.5118877 26.215948 -0.5222888
26.179821 -0.4168256 -0.55080724 -0.5100984 -0.4709679 26.144285 26.198132 -0.5206339
-0.48715937 -0.49642396 26.189442 26.194551 -0.5079108 -0.004235082 -0.46042478 -0.49901143
26.142849 -0.52505934 -0.032382816 -0.50641394 26.193132 26.218966 -0.46266901 -0.4826504
-0.49654183 26.161747 -0.4825667 -0.53650117 -0.48876384 -0.54148895 -0.5113815 -0.5362326
26.11312 26.12706 -0.507218 -0.45384362 26.188297 -0.58297455 -0.48207438 -0.44560093
26.203436 -0.5163646 26.068377 26.197111 -0.5211097 -0.4987212 -0.4453504 -0.5040106
0.039255083 -0.44580686 -0.48031914 -0.030573456 -0.47380435 26.205616 0.0004229917 -0.54227316
26.145618 26.142572 -0.48229587 -0.53992504 -0.42872158 -0.47798812 -0.52357274 26.16616
-0.54701984 -0.5388107 26.227564 25.997068 -0.4238637 -0.51156974 26.194342 26.158375
-0.0034810405 -0.5383798 25.947731 -0.52972305 -0.488067 26.20321 26.178854 26.147387
-0.45372784 -0.033401143 -0.53873956 26.18273 26.179811 -0.48111355 -0.5177694 26.199114

layer3.bias f4 [17]
00000000: 1c81 a441 3ed3 db41 ebdd 8141 8952 c241
00000010: 83e8 d441 9a92 c341 ae52 0b41 829e 5841
00000020: 9298 5e41 5072 7b41 3fc7 9c41 feba a841
00000030: 67eb 9f41 0d48 aa41 552f a241 a736 a641
00000040: 51a0 d141
20.563042 27.478146 16.233358 24.2903 26.613531 24.446583 8.707685 13.538698
13.912249 15.715408 19.597288 21.091305 19.989943 21.285181 20.273111 20.776686
26.20328
