dqn_bot/model.pth (torch, 665178 bytes, 30 tensors)

layer1.weight f4 [128, 109]
000000 a5 4a db bc 46 c5 70 3e 9f 8f 5d bd 49 ac 4b bd
       -0.026768992 0.23512754 -0.054092046 -0.04972485
000010 c2 87 4a 3d 0e 8a 57 3e bf 0f 2a be 70 9f ea 3c
       0.049445875 0.21048757 -0.16607569 0.028640479
000020 e4 80 98 3d c5 02 56 3e bf b2 df 3d 09 f4 9d be
       0.07446459 0.20899494 0.10922765 -0.30850247
000030 7b 83 99 bd a2 ae 46 3e 79 e8 8c 3d 33 c7 97 3e
       -0.07495781 0.19402555 0.06880278 0.29644164
000040 e6 15 03 be aa 10 48 be de 50 6d 3e bf b3 42 bd
       -0.12801322 -0.19537607 0.2317538 -0.0475347
000050 18 68 90 be d7 e6 49 be 04 5e 20 3e 1e 24 fe bc
       -0.28204417 -0.19716965 0.15660864 -0.031023081
000060 39 06 94 3d 91 91 4d be 9e eb 82 be 63 36 8c bc
       0.072277494 -0.2007506 -0.25570387 -0.017115777
000070 da 5a 31 3e 49 32 6c 3e eb 30 8c bd 89 fb 1a be
       0.17319813 0.23066057 -0.06845268 -0.15135016
000080 50 41 a6 bd ef b3 50 3d d7 f1 0f bd 47 a2 1c be
       -0.08117926 0.050952848 -0.035142746 -0.15296279
000090 26 81 f5 bd 28 be 1d 3e 00 54 e3 bd 87 93 a7 bc
       -0.11987524 0.1540457 -0.11100006 -0.020456089
0000a0 44 9d 65 3e 1b 59 61 3c 86 d5 d1 3b 1b 74 1a be
       0.22423273 0.013754155 0.006403628 -0.15083353
0000b0 4c 15 a0 bd a2 87 99 3d 99 3a 6c 3c d6 6c 02 be
       -0.07816562 0.07496573 0.014418268 -0.1273683
0000c0 d6 48 e7 3d fc 31 2d 3e 90 eb 7f be 4d 32 aa bd
       0.11293189 0.16913599 -0.24992204 -0.08310375
0000d0 46 74 6c 3c b6 87 90 bd 3f 67 03 be 1a 7e 2e bd
       0.014432019 -0.07057135 -0.12832354 -0.04260073
0000e0 a6 9f cc bd db dc 81 3f 1d 29 62 3f 9d 6a 23 3f
       -0.09991388 1.0145525 0.88343984 0.63834554
0000f0 40 01 42 3f 20 f0 39 3f f4 7c 06 3f 2c fb 29 3f
       0.7578316 0.72632027 0.52534413 0.6639888
000100 31 c8 b5 3e 9b c0 0a 3f 3d 8d c8 3e f4 4e 14 3e
       0.35504296 0.5420014 0.39170256 0.14483243
000110 22 87 b0 3c bf 1e 94 bd 70 96 45 3f 9a f8 28 3f
       0.021548811 -0.07232427 0.77182674 0.66004336
000120 d4 ee 3e 3f 03 5e 83 3f 9f 3a 1e 3f 21 15 1f 3f
       0.7458317 1.0263065 0.618082 0.62141615
000130 3c c1 78 3f aa 9f 38 3f 4b cc c5 3e e3 5d be 3e
       0.9716985 0.7211863 0.38632426 0.37181005
000140 a6 90 f2 3d 99 2b 81 3c d9 fd 7a be b9 36 79 3f
       0.11843996 0.01576786 -0.24510898 0.97349125
000150 53 ba 5d 3f 98 ad 72 3f ce 90 50 3f 70 34 11 3f
       0.86612433 0.94796133 0.81470954 0.5672064
000160 f3 f1 8a 3f 46 02 ec 3e 6e d5 2a 3f 08 83 c5 3e
       1.0855087 0.46095484 0.6673192 0.3857653
000170 31 e1 98 3e c1 14 2e 3e d7 22 cb 3e 8c 3b 87 3e
       0.29859307 0.17000104 0.39675018 0.26412618
000180 c3 aa 8a 3f 67 be 82 3f 1d 44 77 3f 8b a6 d1 3e
       1.0833362 1.0214356 0.9658831 0.40947375
000190 a2 d6 44 3f 9e b5 40 3f c8 70 80 3f c3 65 41 3f
       0.76890004 0.75277126 1.0034418 0.755459
0001a0 69 c7 05 3f 3b cb 2b 3f 74 64 5b 3e 02 8f 5b 3e
       0.522574 0.6710698 0.21425039 0.21441272
0001b0 15 38 2f 3e e0 a5 c1 3f 74 c5 9d 3f 7d 75 23 3e
       0.17111237 1.5128746 1.2325883 0.15962787
0001c0 bf aa a6 3d 1b 0e 82 bd be 65 ec be cc 8c 03 3e
       0.08138036 -0.06350347 -0.46171373 0.12846678
0001d0 e7 63 d6 bc ad 73 dc bd 77 9c 49 be 08 a8 c5 bc
       -0.026170684 -0.10764251 -0.19688593 -0.024127975
0001e0 c7 8d 86 3e f0 44 24 3e 7d f9 90 be 44 57 b8 bd
       0.26280043 0.16041923 -0.28315344 -0.090010196
0001f0 6a 86 54 3c 60 53 7c 3e 5e 82 5a 3e 86 f0 87 3d
       0.0129715 0.2464118 0.21338794 0.06637673
000200 a5 e1 8b bc d2 ec 55 3c 94 5d 2e 3c ba ad 1c be
       -0.01707537 0.013056951 0.010642428 -0.15300646
000210 65 df d5 3d 94 8d e6 3d 8d 86 f2 3e fe 17 8b 3d
       0.10443 0.11257473 0.4736828 0.067916855
000220 a4 d4 da bd e4 4d d6 be 6c 82 13 3e 21 68 41 3e
       -0.10685089 -0.418563 0.14405221 0.18887378
000230 68 50 49 3e 0f a7 22 bc 7e 64 1b 3d 1a ff 93 3c
       0.19659579 -0.009927525 0.037937634 0.018065978
000240 4e d2 ed 3d 19 18 14 3d 72 22 62 be d2 14 86 3e
       0.11612378 0.036155794 -0.22083452 0.2618776
000250 06 02 22 3d ff 1e 09 3c e3 12 0d 3e 53 f1 e6 3c
       0.03955271 0.008369206 0.13776736 0.028191244
000260 a5 23 f8 3e fc 3d 91 3e 2a 9a 9a bd 05 86 97 3d
       0.48464695 0.28367603 -0.07548936 0.07398609
000270 7b 7a 2e 3e 41 12 c8 bd bd 2b 94 3c 69 d9 79 3e
       0.1703891 -0.09769107 0.018087262 0.24399342
000280 3f 47 37 be 87 1a 94 3e 77 9e 0a 3f ab 14 a2 3b
       -0.17898272 0.2892649 0.5414805 0.0049463115
000290 70 54 7c be 86 0d 22 bd 67 f0 ea be ca b2 b0 be
       -0.24641585 -0.03956368 -0.45886537 -0.34511405
0002a0 fd 90 8a 3e f8 d5 4a be ef ec c5 be c3 fd b2 be
       0.27063742 -0.19808185 -0.38657328 -0.3495923
0002b0 ac ff b2 be c3 46 fc bd ce e4 1c be 38 49 a2 3d
       -0.34960687 -0.12318184 -0.15321657 0.079241216
0002c0 d3 a2 15 3e 34 9c bb be a6 2a b2 3d 8c f9 30 3e
       0.14612894 -0.3664261 0.08699541 0.17282695
0002d0 85 a3 b4 be 74 f2 46 bf e6 cd e6 be 26 2f 82 be
       -0.35281006 -0.77713704 -0.45078963 -0.25426596
0002e0 e2 3c 32 be 93 98 e0 be 1b e5 a9 be 75 34 66 bc
       -0.17406037 -0.43866405 -0.33182606 -0.014050593
0002f0 32 fb b6 be 93 86 16 bd 1c 71 6f 3c 11 8b 77 3d
       -0.35738522 -0.036749434 0.01461437 0.06043536
000300 89 06 07 be 12 ad 85 bd 59 b6 92 be f9 ad e4 be
       -0.13186087 -0.06527151 -0.28654745 -0.4466398
000310 51 5e 67 be 1a 75 84 be 04 5e 00 be 6e 7e 6e be
       -0.22594573 -0.2587059 -0.12535864 -0.23290417
000320 05 03 e2 3b c5 c2 5f 3e e2 31 a9 be 07 7d 17 be
       0.0068973326 0.21851642 -0.3304587 -0.14793788
000330 25 a2 95 be 2c 15 ba be ff 80 14 bd 6b f3 c0 be
       -0.2922527 -0.36344278 -0.036255833 -0.37685713
000340 5e 5e 26 be 61 b6 95 bd 7c 79 07 be a4 e9 e3 be
       -0.16246936 -0.07310177 -0.13229936 -0.4451419
000350 7d d3 0e be 0a 8b 1b be 06 cd 89 be a2 43 05 be
       -0.13947864 -0.15189758 -0.26914233 -0.13014081
000360 f6 ae 8b 3e 07 a5 90 3d 57 6b 8f bd 51 7a 6b 3e
       0.27281922 0.070627265 -0.07002895 0.22995879
000370 3c 00 51 3d 2d 32 33 3d 61 eb 6b 3d 4b 36 9d 3e
       0.051025614 0.043749023 0.05759752 0.30705485
000380 4f ea a2 bd b3 50 13 3e be 01 c8 bc ac 9d 54 3e
       -0.07954847 0.14386253 -0.024414893 0.20763272
000390 ed 19 8b 3d 0f ba 84 be 53 3e c2 bd b6 c0 a7 3e
       0.06792054 -0.259232 -0.09484544 0.32764214
0003a0 52 df 98 3c d4 c7 75 3e 3d 93 67 be e2 a8 5a be
       0.018661175 0.2400201 -0.2261476 -0.21353486
0003b0 7c 19 29 3e 3e df d5 bd ec 52 43 be 9f c8 cd bd
       0.16513628 -0.10442971 -0.19074601 -0.10048031
0003c0 98 74 23 3e 79 01 db bd ba f7 00 bd 63 b9 ba bd
       0.15962446 -0.1069364 -0.03148625 -0.09117391
0003d0 ce 15 ec bd ba 53 5d bd 81 b8 2e 3e a2 bd ed 3d
       -0.115275964 -0.054034926 0.1706257 0.11608435
0003e0 6a cc a7 bd fe 9a f6 bd fc 78 1e be 01 db 15 3e
       -0.08193286 -0.12041281 -0.1547584 0.14634325
0003f0 f0 15 4b bd 32 36 6e be 07 e7 c0 bd 7e d2 2f 3e
       -0.049581468 -0.23262861 -0.09419065 0.1717014

layer1.bias f4 [128]
000000 6e 46 ee 3f 5f fb 36 bf f4 38 e8 3f 69 6b f0 3f
       1.8615243 -0.7147731 1.8142381 1.8782779
000010 60 e7 f2 3f 96 f1 18 bd f1 89 87 3d d4 e8 f8 3f
       1.897686 -0.03733977 0.06618107 1.9446054
000020 c5 b9 8c bf 8b 90 d9 3f 35 e4 f1 3f ce b2 d7 3f
       -1.0994192 1.6997236 1.8897768 1.6851442
000030 01 1d 9e 3d cc 14 01 40 dc 2c 81 bc 48 86 b5 3f
       0.07720376 2.0168943 -0.01576846 1.4181604
000040 f7 43 eb 3f ef 3b 8f bf 10 d9 bc 3f 67 40 2c bf
       1.8380116 -1.1190165 1.4753742 -0.6728577
000050 ca e6 06 40 89 db 0c 3e df dd 8c bf 87 2a 03 40
       2.1078362 0.13755621 -1.100521 2.0494707
000060 38 69 01 40 19 6b eb 3f eb 62 8b bf e6 78 e0 3f
       2.022047 1.8392059 -1.0889562 1.7536895
000070 b0 b9 ef 3f 55 59 96 bf b7 24 df 3f df 17 ed 3f
       1.8728542 -1.1746012 1.743308 1.852291
000080 80 f4 da be a5 a2 e4 3f 66 73 2e bd 2c 76 ef 3f
       -0.42764664 1.7862135 -0.04259052 1.8707938
000090 89 1c 87 bd 63 01 8c bf 7b c7 30 3f 13 1b fa 3f
       -0.065972395 -1.0937923 0.69054383 1.9539512
0000a0 13 4a 04 40 45 38 f1 3f 81 14 5f be f8 3b 3f 3e
       2.0670211 1.8845297 -0.21785165 0.1867522
0000b0 08 a2 c6 3f 9d 12 f5 3f 72 bf f5 3f ee fd 00 40
       1.5518198 1.9146305 1.919905 2.0154986
0000c0 7d ec fb 3f 45 bb 95 bf f2 95 c2 be b1 b3 e8 3f
       1.9681545 -1.1697775 -0.38005024 1.8179837
0000d0 06 ad 73 bf ff 25 04 40 72 4d 04 40 8b 9f e2 3f
       -0.9518589 2.064819 2.067227 1.7704939
0000e0 35 ee f7 3f f3 04 f8 3f 98 44 96 bf da 77 e9 3f
       1.936957 1.937651 -1.1739683 1.8239701
0000f0 b5 3e f0 3f cf 59 10 bd 8d 30 e4 3f ff d6 f8 3f
       1.8769137 -0.0352419 1.7827317 1.9440612
000100 92 d9 da 3f 7b 4f db 3f 99 a1 e8 3f d1 37 81 bf
       1.7097647 1.713363 1.8174316 -1.0095159
000110 87 02 f0 3f ba 2e f4 3f 98 4a ec 3f 05 6b df 3f
       1.8750771 1.907676 1.8460264 1.7454535
000120 d8 19 08 40 10 3a ec 3f 92 0c 4b 3b 8d fe 02 bd
       2.1265774 1.8455219 0.0030982834 -0.03198104
000130 77 ca c2 3f 7b a6 8b bf 5a 84 f5 3f 7d d0 db 3f
       1.5218037 -1.0910181 1.9181015 1.7173
000140 ff 0e f3 3f 21 a8 89 bf c3 6f ee 3f 16 8d f0 3f
       1.8988951 -1.0754434 1.8627857 1.8793056
000150 fb cb ee 3f 3a 35 d6 3f 64 aa ec 3f c9 ac e8 3f
       1.8656 1.6734993 1.8489499 1.817773
000160 87 33 fa 3f aa ab 8a bf 15 6b 85 be 0c 5f 04 40
       1.9546975 -1.0833638 -0.2605826 2.0683012
000170 a7 8d ee 3f e9 61 f5 3f c5 c0 9d 3f 77 a1 04 40
       1.8636979 1.9170505 1.2324454 2.072355
000180 31 2a 40 bf fd 58 ca 3f 9f df f0 3f 45 47 e1 3f
       -0.7506438 1.5808407 1.8818244 1.7599875
000190 ee 49 7f bf 0c ca ed 3f 38 5a f0 3f 75 24 f7 3f
       -0.9972218 1.8577285 1.8777533 1.9308001
0001a0 a6 be eb 3f d2 79 f8 3f a8 1b fb 3f 9f f9 f5 3f
       1.8417556 1.9412177 1.9617815 1.9216803
0001b0 e6 c7 e4 3f 90 4b d3 3f 21 c9 09 40 39 d5 c6 3f
       1.7873504 1.6507435 2.152901 1.553382
0001c0 3b 47 80 3b 7a f6 f0 3f 67 4d 85 bf de 08 e6 bb
       0.0039147413 1.8825219 -1.0414246 -0.0070201
0001d0 9b f0 79 bf b1 6a f7 3f b1 03 ea 3f 57 4b e1 3f
       -0.9763276 1.9329435 1.8282377 1.7601117
0001e0 85 98 3d bf 06 02 df 3f 9e 1d f8 3f 0e a3 3f bd
       -0.7406085 1.7422493 1.9384038 -0.04678636
0001f0 3a 97 d1 3f 10 71 ee 3f 79 47 fb 3f b2 1c f1 3f
       1.6374276 1.8628254 1.9631187 1.8836882

layer2.weight f4 [128, 128]
000000 e8 df 72 3f c4 c3 cc be c6 bf 63 3e 0c 62 d6 3e
       0.94872904 -0.39993107 0.22241125 0.4187168
000010 7e b4 88 3e 98 14 40 3d 04 2e 78 bf f0 11 27 3f
       0.26700205 0.04689464 -0.96945214 0.65261745
000020 37 69 89 bd f2 49 a1 3e 5c 36 c5 3f ee db 71 3e
       -0.06709521 0.31501728 1.5407214 0.23619053
000030 81 3d 83 bf d6 d8 c2 3e 99 7e c7 be c2 0f 6b 3f
       -1.0253145 0.38056058 -0.38963774 0.9182092
000040 24 3f ed 3f 42 e2 0c be 94 69 aa 3f 4b b5 85 be
       1.8534894 -0.13758186 1.331347 -0.26114878
000050 ea d7 f5 3f 2b e1 a1 bf 73 90 8a bd 8e e7 97 3f
       1.9206517 -1.2646841 -0.06765833 1.186754
000060 7e 53 b1 3f e3 4e f1 3f d0 35 f5 be 70 9e 40 3e
       1.3853605 1.8852199 -0.47892618 0.18810439
000070 70 82 fa 3e b6 58 6e be 6a 0f 27 3e f7 7d 6d 3f
       0.4892764 -0.23276028 0.16314474 0.9277033
000080 b3 23 8f bf c4 6d bc 3e 42 8e 0f 3d 7e 83 79 3f
       -1.118277 0.36802495 0.035047777 0.97466266
000090 de ad 2d bf e4 ff 38 bf 6b 7f 0d 3f 78 1a 08 3f
       -0.67843425 -0.7226546 0.5527255 0.5316539
0000a0 f7 ef 9f 3f 77 97 7c 3f 0b cf 49 bf 3b 8c 50 bf
       1.2495106 0.98668617 -0.7883155 -0.81463975
0000b0 48 38 af 3f bd ac 02 3f 32 bb d6 3e c8 39 fd 3e
       1.3689051 0.5104483 0.41939694 0.49458146
0000c0 1e ff 00 40 82 3d a3 be e5 fe 7d bf c8 34 5c 3e
       2.015571 -0.31882864 -0.99217063 0.2150451
0000d0 3d e1 7c be 32 e4 ee 3f 18 bf ec 3f 8b f5 17 3f
       -0.24695297 1.866339 1.8495817 0.59359044
0000e0 4e 78 d5 3e d4 7f df 3f a4 e5 82 bd 0c c8 94 3e
       0.41693348 1.7460885 -0.06391457 0.29058874
0000f0 85 bb 46 3f be dc 71 bf 79 0c ab 3e 54 d4 a2 3f
       0.7762988 -0.9447745 0.33407953 1.2721047
000100 ff f8 cb 3e 3a 9f 32 3e 30 6e 8b 3e 71 31 4a bf
       0.39838406 0.17443553 0.27232504 -0.7898169
000110 99 5f 42 3f 4f 07 3a 3f 2c 92 84 3f be 81 79 3f
       0.7592712 0.726674 1.0357108 0.97463596
000120 74 69 eb 3f 7d 19 60 3f f1 39 a3 bd 39 94 a3 3d
       1.8391557 0.8753889 -0.07970036 0.079872556
000130 8e 3a b0 3f bf 2a 32 be 67 07 9a 3e 18 f9 88 3e
       1.376787 -0.17399119 0.30083773 0.26752543
000140 83 59 14 3f 1b 68 c3 be 73 85 b5 3f 2d 9a 92 3e
       0.57949084 -0.38165364 1.418135 0.28633252
000150 5a 9b be 3f bd 1c 77 3e 7b 68 33 3f 03 80 81 3e
       1.489116 0.24132057 0.700813 0.25292978
000160 08 44 07 3f ee 6a d3 be 7d cf 44 bf 30 6f f7 3f
       0.5283818 -0.41292518 -0.768791 1.9330807
000170 34 3c cf 3e 13 78 35 3f ab b8 83 3f 96 9b e4 3f
       0.4047562 0.70886344 1.0290731 1.7859981
000180 63 e2 45 bf 5c f3 ff 3e 42 ae 85 3e 7e 69 7b 3e
       -0.77298564 0.49990356 0.2610951 0.24551961
000190 28 cb 01 bf 9e 49 ae 3e b8 1f 54 3f 91 e4 cb 3e
       -0.50700617 0.3404054 0.828609 0.3982282
0001a0 5b 72 3c 3f 03 b4 c3 3e f2 8e 1e 3f 6c b4 53 3f
       0.7361199 0.38223276 0.6193687 0.82697177
0001b0 b2 b9 1f 3f 30 79 09 3e 68 b2 fb 3f 01 b9 67 3f
       0.62392724 0.13425136 1.966382 0.9051667
0001c0 d2 2b 0d bd d1 5e a8 3e 5f 23 f3 be 9d 38 6e 3d
       -0.03446562 0.3288484 -0.47487924 0.05815946
0001d0 0b 2b 1c bf c1 53 c0 3e 86 a6 b4 3e 82 4d b5 3e
       -0.6100318 0.375639 0.35283297 0.35410696
0001e0 52 88 9a be 99 c2 5f 3e 8f 07 e6 3f 72 4a 51 bd
       -0.3018213 0.21851577 1.7971057 -0.051096387
0001f0 29 ec 88 3e 72 88 8d 3e 80 00 da 3e 02 dc f9 3e
       0.26742676 0.27643162 0.42578506 0.48800665
000200 af 87 65 3f 0b c9 da be af c6 4a 3e eb d3 f2 3e
       0.8966016 -0.4273151 0.19802354 0.47427306
000210 15 95 bc 3e c4 8c 90 bd d9 5a 66 bf 90 c2 2a 3f
       0.3683249 -0.07058099 -0.8998237 0.6670313
000220 bd 2d ff bd 1b 69 97 3e f6 0d c1 3f f7 bf e1 3d
       -0.12459896 0.29572377 1.5082386 0.110229425
000230 74 fe 8b bf 44 90 d2 3e 53 09 e8 be d1 5e 71 3f
       -1.0937028 0.4112569 -0.45319614 0.94285303
000240 e7 05 f5 3f 0f f1 a8 bd c4 81 ab 3f 2e 82 37 be
       1.9142426 -0.08249103 1.3398976 -0.17920753
000250 0b db fd 3f 52 a1 a2 bf c1 5a f0 bd 62 71 9d 3f
       1.9832472 -1.2705481 -0.1173606 1.2300227
000260 a5 20 b7 3f e7 3e fd 3f 9a f1 14 bf 4c be 4b 3e
       1.4306837 1.9784821 -0.58181155 0.19896811
000270 c3 63 16 3f 12 67 3a be 73 eb 0e 3e 34 e2 6c 3f
       0.58745974 -0.1820338 0.13957004 0.9253266
000280 6e e1 92 bf 15 f0 ea 3e 08 0c 3a bd 79 6f 67 3f
       -1.1475046 0.45886293 -0.04542163 0.9040447
000290 66 05 12 bf d6 a6 32 bf 97 8c 20 3f ca 4b ee 3e
       -0.5703949 -0.6978582 0.62714523 0.46542197
0002a0 d0 ce 9b 3f b2 c3 77 3f e6 14 4d bf 13 a4 5c bf
       1.2172489 0.9678298 -0.80110013 -0.8618786
0002b0 6a 23 bd 3f 0f 87 bc 3e ec df bf 3e 77 22 f6 3e
       1.4776433 0.36821792 0.37475526 0.4807317
0002c0 10 58 05 40 05 36 cb be 89 0b 61 bf 36 26 22 3e
       2.0835 -0.3968965 -0.87908226 0.15834889
0002d0 4a 36 86 be c9 2b ef 3f 22 26 ed 3f 70 84 1e 3f
       -0.26213294 1.8685237 1.8527262 0.61920834
0002e0 54 4d cd 3e 5c 72 d6 3f e2 a4 85 bc 42 46 90 3e
       0.4009806 1.675365 -0.016313974 0.28178602
0002f0 1a 01 29 3f d5 9d 6b bf eb 98 8f 3e a1 7c a7 3f
       0.66017306 -0.9203771 0.28046355 1.3084909
000300 40 af de 3e 96 5a 8b 3e 3e 0c 59 3e 21 52 5d bf
       0.4349308 0.2721755 0.21196076 -0.86453444
000310 c4 fc 26 3f b9 4c 41 3f 36 30 81 3f 8b dd 81 3f
       0.6522944 0.75507694 1.0092838 1.0145735
000320 b5 c7 e0 3f e1 46 5f 3f 2e 03 24 be 28 c6 00 bd
       1.7560946 0.8721753 -0.16016838 -0.031438977
000330 9a f3 a4 3f 39 7e 2e be cf f9 b4 3e 56 fe 81 3e
       1.2886841 -0.17040338 0.3534684 0.25389355
000340 67 77 1e 3f b7 d4 d3 be 09 ab b4 3f 1e cd 96 3e
       0.61900944 -0.41373226 1.4114696 0.29453367
000350 fa da c2 3f a6 5f 5e 3e 6f c3 18 3f 5f be 8e 3e
       1.5223076 0.21716174 0.5967321 0.27879617
000360 5f 14 d4 3e 57 03 d7 be 81 66 42 bf c7 b1 e7 3f
       0.41421792 -0.41994736 -0.7593766 1.8101128
000370 ea b2 e1 3e 3e ae 26 3f e3 cb 79 3f 5b d3 dc 3f
       0.44081813 0.6510962 0.9757673 1.7252
000380 b1 cc 59 bf 00 e3 03 3f 26 16 c5 3e 13 56 78 3e
       -0.8507796 0.5151825 0.3849346 0.24251585
000390 90 7a f5 be 4d ef 67 3e 17 91 43 3f fe 07 9a 3e
       -0.4794507 0.2264988 0.76393265 0.30084223
0003a0 8d a0 37 3f 5a a4 03 3f 99 bf 2e 3f 7d 10 43 3f
       0.71729356 0.51422656 0.68261105 0.76197034
0003b0 db 89 0c 3f 1a fb 60 3e 33 04 f4 3f d9 bd 6f 3f
       0.5489785 0.21970788 1.9063781 0.9364906
0003c0 d2 ce 3f 3b b2 b7 a5 3e 5c c6 c0 be a3 3b a1 3c
       0.0029267562 0.3236671 -0.37651336 0.019681757
0003d0 ad f9 08 bf 1a 27 f5 3e ab ba e4 3e ef 9c c8 3e
       -0.53505975 0.47881395 0.44673666 0.3918223
0003e0 41 77 9a be 40 13 01 3e 34 a4 f0 3f 2d 40 04 bd
       -0.3016911 0.12605 1.8800111 -0.032287765
0003f0 40 40 a1 3e a6 6c 8f 3e e1 0d e3 3e 32 31 d4 3e
       0.3149433 0.2801258 0.44346526 0.41443783

layer2.bias f4 [128]
000000 d9 8d d1 3f db 19 d2 3f fa 45 dc 3f db 39 1f bf
       1.6371413 1.641414 1.7208855 -0.62197655
000010 3a f0 b1 bd 8c 61 d7 3f 62 b1 7a 3b a7 2e 1b bf
       -0.08688398 1.6826644 0.00382527 -0.6061806
000020 f9 55 48 bd 7a b1 d7 3f 49 63 2b bf b4 bd d8 3f
       -0.048910115 1.6851037 -0.6694837 1.6932893
000030 0b d8 e0 3f 70 2a e1 3f 49 93 db 3f 29 b9 dd 3f
       1.7565931 1.7591076 1.7154323 1.7322131
000040 3b 61 d6 3f b4 69 1e bf 87 2f 18 bf 02 35 d0 3f
       1.6748422 -0.6188004 -0.5944752 1.6266177
000050 9b 5f d6 3f 13 d4 72 bf bf 5e d7 3f 39 2b d6 3f
       1.6747926 -0.9485485 1.6825789 1.673194
000060 59 bf d9 3f d8 a2 18 bf b1 30 22 bf 13 f6 d7 3f
       1.701152 -0.5962348 -0.6335555 1.6871971
000070 b1 e3 24 bf a6 e4 dd 3f 44 61 df 3f 8b 0c 20 bf
       -0.6440993 1.7335403 1.7451558 -0.6251914
000080 36 66 28 bf 53 9d d8 3f a5 e5 cb 3f e9 44 e1 3f
       -0.6578096 1.6923012 1.5929457 1.7599155
000090 fa fd d0 3f 27 61 dd 3f 5a 2c 2e bf 05 30 df 3f
       1.6327507 1.7295274 -0.68036425 1.7436529
0000a0 92 f2 1a bf 2b ac da 3f fc 61 e2 3f a3 89 df 3f
       -0.6052638 1.7083791 1.7686152 1.7463878
0000b0 8f bc d4 3f 6b 3c 7b bf e4 79 91 bf ba 9e cf 3f
       1.6620044 -0.98139066 -1.1365323 1.6220315
0000c0 14 bc e5 3f 19 c5 db 3f 7a 95 2c bf 55 0b 0b bf
       1.7948022 1.7169524 -0.67415583 -0.54314166
0000d0 50 2e e5 3f 6c 2e 34 3d 83 93 da 3f a5 b4 df 3f
       1.7904758 0.043989584 1.7076267 1.7477003
0000e0 01 a1 15 bf e0 b7 e0 3f 5a ae 01 3c f4 70 d0 3f
       -0.584488 1.7556114 0.007915104 1.628447
0000f0 39 67 7c bf ee 50 1f bf d5 5e e2 3f 5e ae d2 3f
       -0.98595005 -0.62232864 1.768519 1.6459463
000100 ea 15 d8 3f 2a 64 12 bf 26 b1 d5 3f 06 07 df 3f
       1.6881688 -0.5718409 1.6694686 1.7424018
000110 cc 0f d4 3f 7c 70 d8 3f 99 b8 e0 3f 91 5e e3 3f
       1.6567321 1.6909328 1.7556335 1.7763234
000120 5f fc 7a bf 48 4e 1e bf 32 a5 e2 3f ed 64 e0 3f
       -0.9804134 -0.618382 1.7706664 1.75308
000130 97 f1 03 bf 92 3e d7 3f 64 01 df 3f f0 1d da 3f
       -0.5154051 1.681597 1.7422299 1.7040386
000140 6b eb 2f bf b4 51 e0 3f f4 00 e4 be 3a 05 0a bf
       -0.68718594 1.7524934 -0.44531977 -0.53914225
000150 27 ac de 3f 1e ff da 3f 03 27 e2 3f e4 97 d6 3f
       1.7396287 1.7109106 1.7668155 1.6765103
000160 9f b7 89 3c 18 c2 d8 3f 99 29 da 3f 5d 60 64 3c
       0.01681119 1.6934233 1.7043945 0.01393899
000170 96 bb dc 3f 72 e9 80 bf c4 26 7f 3d 52 63 e0 3f
       1.7244747 -1.0071242 0.06229283 1.753031
000180 a6 fe 27 bf 2c e7 09 bf e7 de de 3f 66 fe cb 3f
       -0.6562294 -0.53868365 1.7411774 1.5937011
000190 7f 06 e1 3f f2 49 d8 3f 76 5b dd 3f 5a 3c 15 bf
       1.7580107 1.6897566 1.7293537 -0.58295214
0001a0 88 1f d2 3f 72 e8 da 3f 27 2c 2c bf 87 50 db be
       1.6415873 1.7102187 -0.6725487 -0.42834875
0001b0 c4 58 d2 3f 7a 74 dd 3f ef 76 09 bf a2 43 13 bf
       1.6433339 1.7301171 -0.53697103 -0.57525074
0001c0 f3 4d 75 3d 32 0e e3 3f 6b bd bc bc 6f 76 e2 3f
       0.05988879 1.7738707 -0.02303954 1.7692393
0001d0 77 2b df 3f fa ab 23 bf 9d e6 15 bf ef 2d 1f bf
       1.743514 -0.6393429 -0.5855501 -0.62179464
0001e0 17 ec df 3f c3 14 99 bd 63 a7 df 3f 70 29 02 bf
       1.7493924 -0.07474663 1.7472957 -0.5084448
0001f0 26 ba 09 bf 7b 95 d5 3f d1 59 e0 3f e5 98 05 bf
       -0.53799665 1.6686243 1.752741 -0.52186424

layer3.weight f4 [17, 128]
000000 f1 2c 84 bf 3d 05 87 bf 0a 6c 86 bf 54 f3 35 3f
       -1.0326215 -1.0548474 -1.0501721 0.71074414
000010 5f 21 14 3d 1e 4d 88 bf c8 12 01 3d 0b d4 4f 3f
       0.036164638 -1.0648534 0.03151205 0.81182927
000020 49 a5 f0 bc e4 a3 7b bf d8 0f 4e 3f 6d 0b 87 bf
       -0.02937569 -0.9829695 0.80492926 -1.0550362
000030 c4 a7 90 bf 93 70 7a bf 55 b4 8e bf c5 79 6f bf
       -1.1301198 -0.97828025 -1.1148783 -0.9354518
000040 46 d0 7d bf 98 26 32 3f 74 6b 4b 3f 89 a4 87 bf
       -0.99145925 0.6959014 0.79460835 -1.0597087
000050 90 2e 8a bf c9 98 43 3f 5b 02 84 bf 45 88 78 bf
       -1.079546 0.76405007 -1.0313219 -0.9708293
000060 32 ef 84 bf 6d 13 3d 3f 93 7f 4a 3f 63 f5 8b bf
       -1.0385497 0.73857766 0.7910091 -1.0934261
000070 5c 53 56 3f 5f 66 82 bf 41 a3 81 bf 20 2d 38 3f
       0.83720946 -1.0187491 -1.0127946 0.71943855
000080 12 48 4f 3f bd bb 76 bf 5d 7b a0 bf 85 a0 8c bf
       0.80969346 -0.96380216 -1.2537647 -1.0986487
000090 4d f6 84 bf 19 b0 72 bf b1 b1 52 3f 4a 79 83 bf
       -1.0387665 -0.94799954 0.82302386 -1.027139
0000a0 52 53 51 3f 64 36 75 bf 38 6c 94 bf dc 8c 87 bf
       0.8176776 -0.9578612 -1.1595526 -1.0589862
0000b0 21 a2 78 bf 67 5b 45 3f f9 9b 5a 3f 3b a0 81 bf
       -0.9712239 0.77092594 0.85394245 -1.0127023
0000c0 b6 bb 7e bf 37 6b 86 bf 44 79 40 3f 7a 70 51 3f
       -0.99505174 -1.0501469 0.75185037 0.8181225
0000d0 6c 4a 80 bf 7c 09 99 3d c2 de 73 bf 49 7a 7c bf
       -1.0022712 0.07472512 -0.95261776 -0.9862409
0000e0 7a 7f 42 3f e7 3a 86 bf 1f 46 93 3d c3 d1 89 bf
       0.75975764 -1.0486726 0.07191109 -1.0767139
0000f0 be ed 58 3f 2c e6 48 3f c3 3b 80 bf 98 fa 84 bf
       0.84737766 0.78476214 -1.0018238 -1.0388975
000100 97 98 89 bf e4 a9 5a 3f 1a d9 7f bf 05 94 8e bf
       -1.0749692 0.8541548 -0.99940646 -1.1138922
000110 cb 03 79 bf 9e 63 90 bf c1 28 89 bf bb 34 81 bf
       -0.9727141 -1.1280401 -1.0715562 -1.0094217
000120 5e a7 22 3f d9 83 51 3f e5 8b 84 bf bc 14 87 bf
       0.6353663 0.8184181 -1.0355192 -1.0553203
000130 80 53 46 3f 9f 02 8d bf b0 e7 95 bf 9c d3 77 bf
       0.7747116 -1.1016425 -1.171133 -0.96807265
000140 56 c6 53 3f fc b1 8c bf f0 49 34 3f 65 88 51 3f
       0.8272451 -1.0991817 0.7042532 0.81848747
000150 7e e7 92 bf 7d 83 8d bf ce 07 69 bf f2 87 8d bf
       -1.1476896 -1.1055752 -0.91027534 -1.1057112
000160 db 37 6a 3d 1d 06 7b bf fb f7 8a bf 6e f1 a2 3d
       0.057182174 -0.98056203 -1.0856928 0.07956205
000170 cf dc 70 bf ad 37 23 3f 5a ca dd 3c 1d 2f 7f bf
       -0.9408693 0.6375683 0.027074028 -0.99681264
000180 c7 3d 34 3f b8 87 4e 3f e4 a7 90 bf db c2 9c bf
       0.70406765 0.8067584 -1.1301236 -1.2246965
000190 44 92 8a bf 37 5d 83 bf ab 20 80 bf 54 8a 48 3f
       -1.0825887 -1.0262822 -1.000997 0.7833607
0001a0 72 6d 9d bf ba c9 85 bf ae e0 50 3f 5d 38 0f 3f
       -1.2299025 -1.0452187 0.81592834 0.5594538
0001b0 b7 a7 87 bf 60 34 90 bf 61 05 30 3f 07 14 37 3f
       -1.0598058 -1.1265984 0.6875821 0.71514934
0001c0 0d 96 c9 bc d0 16 81 bf cb e2 8c ba 9e 00 87 bf
       -0.024607683 -1.0085087 -0.0010748742 -1.0547063
0001d0 e4 ec 7c bf 5f 63 3b 3f 33 6b 3f 3f 91 4d 59 3f
       -0.98798966 0.73198503 0.7477295 0.8488398
0001e0 e6 9c 88 bf 21 c7 55 3d 0f bc 83 bf 43 18 44 3f
       -1.0672882 0.052191857 -1.0291766 0.7659952
0001f0 1d 0f 43 3f a4 e5 85 bf 4d 4e 85 bf 5d 24 49 3f
       0.76194936 -1.0460706 -1.041452 0.7857111
000200 40 07 67 bf 4a 79 6d bf 4d 80 7b bf 4c 6d 20 3f
       -0.9024544 -0.927632 -0.98242646 0.62666774
000210 0c d0 8f bd 5e 1b 83 bf 38 63 d7 3c 44 ea 20 3f
       -0.07022104 -1.0242727 0.026292428 0.6285746
000220 5a fd c7 3c d6 ad 6e bf 4a ba 28 3f 4d ba 84 bf
       0.0244128 -0.93234 0.65909255 -1.0369354
000230 b4 8d 83 bf 12 ec 80 bf ab c4 81 bf 8a 71 6f bf
       -1.0277619 -1.0072043 -1.0138143 -0.9353262
000240 f4 29 81 bf 44 89 12 3f 63 ba 1b 3f 8a 9d 80 bf
       -1.0090928 0.572407 0.6083128 -1.0048077
000250 18 2f 6c bf c9 69 30 3f d3 f8 80 bf 5b dc 75 bf
       -0.9225936 0.68911415 -1.0075935 -0.9603936
000260 d7 a8 8a bf b0 88 2a 3f b2 0f 33 3f 73 c6 79 bf
       -1.0832776 0.6661482 0.69945824 -0.97568434
000270 cd 28 21 3f ca 4a 86 bf 7e 1b 86 bf 5d 99 26 3f
       0.6295288 -1.0491574 -1.047714 0.65077764
000280 39 ce 22 3f 61 21 86 bf 12 31 a2 bf 88 7b 87 bf
       0.6359592 -1.0478936 -1.2671225 -1.0584574
000290 35 47 7f bf 9f 67 84 bf 49 90 1f 3f 94 b0 87 bf
       -0.9971803 -1.0344123 0.62329537 -1.0600762
0002a0 cf ad 1e 3f ef c3 5b bf 04 c1 8e bf 58 55 84 bf
       0.6198396 -0.85845846 -1.1152654 -1.0338545
0002b0 2b 2f 75 bf 26 b6 0d 3f 98 71 2b 3f 38 c0 85 bf
       -0.957751 0.5535606 0.66970205 -1.0449286
0002c0 62 b5 7e bf 9c 85 80 bf 7f d4 06 3f 3e c9 23 3f
       -0.9949552 -1.0040774 0.52667993 0.63978946
0002d0 7e 8b 83 bf 28 23 ff bb 56 00 71 bf 15 25 82 bf
       -1.0276945 -0.0077861734 -0.9414114 -1.0167567
0002e0 b1 1f 11 3f 1a 83 88 bf 97 d6 73 bd 99 9c 82 bf
       0.5668898 -1.0665009 -0.05953082 -1.020404
0002f0 d8 25 27 3f 4a 6c 1a 3f c4 50 72 bf 31 7a 7a bf
       0.6529212 0.60321486 -0.9465449 -0.978427
000300 87 ab 80 bf 0a 49 17 3f 2f 40 7d bf 59 e0 8a bf
       -1.0052346 0.59095824 -0.9892606 -1.0849715
000310 b1 b9 7c bf 6d 90 8b bf 4a 96 85 bf bf ef 89 bf
       -0.9872084 -1.090345 -1.043649 -1.077629
000320 1c d7 03 3f 8c 94 09 3f 36 84 83 bf e4 0a 6f bf
       0.51500106 0.5374229 -1.0274723 -0.9337599
000330 88 56 24 3f de 7b 96 bf 1f d1 7d bf 25 e7 67 bf
       0.64194536 -1.1756551 -0.9914722 -0.90587074
000340 7b ae 1a 3f 0d 63 86 bf a0 a3 ec 3e e5 af 21 3f
       0.60422486 -1.0498978 0.46218586 0.6315902
000350 c7 3c 87 bf 88 1a 82 bf a7 5b 69 bf f3 e5 82 bf
       -1.0565423 -1.0164347 -0.91155475 -1.0226425
000360 ed 10 94 3d 93 6e 68 bf 2a ac 7b bf 23 90 66 bd
       0.07229791 -0.9079372 -0.98309577 -0.056289803
000370 c3 bc 74 bf 04 e0 2b 3f e8 11 4c 3a 68 31 8c bf
       -0.9560053 0.67138696 0.00077846507 -1.0952578
000380 6d 69 0f 3f 4d a5 0e 3f d7 07 7c bf 66 94 8c bf
       0.5602024 0.5572098 -0.9844946 -1.0982788
000390 d5 d1 62 bf f5 fb 78 bf 29 e6 87 bf 39 a1 19 3f
       -0.8860143 -0.97259456 -1.0617114 0.6001163
0003a0 4e 3b 8f bf d3 94 8a bf 2f 0c 33 3f 87 cb b9 3e
       -1.1189973 -1.0826668 0.69940466 0.36288092
0003b0 86 db 5e bf 7a 0a 84 bf d9 48 27 3f 32 8c 14 3f
       -0.87053716 -1.0315697 0.6534553 0.5802642
0003c0 7a 02 d2 bb ff e6 8a bf a9 ea 8d 3d 1a a8 88 bf
       -0.0064089866 -1.0851744 0.069295235 -1.06763
0003d0 c3 a4 7c bf f0 43 29 3f b7 94 1d 3f d7 50 0f 3f
       -0.98688906 0.6611929 0.61555046 0.55982727
0003e0 e2 fe 6d bf 6a 6d 7b bd 41 6c 8b bf a7 bd 21 3f
       -0.92967045 -0.061383642 -1.0892411 0.6318001
0003f0 68 25 20 3f f3 c1 7a bf 97 3b 85 bf 6d cf 27 3f
       0.6255708 -0.97952193 -1.040881 0.6555088

layer3.bias f4 [17]
000000 36 31 97 bf 38 73 7a bf b3 17 75 bf ef a5 86 bf
       -1.1811893 -0.9783206 -0.9573929 -1.0519389
000010 af 1c 89 bf 22 07 81 bf 32 cf 88 bf 99 29 8f bf
       -1.0711879 -1.0080302 -1.0688231 -1.118457
000020 15 7d 8c bf d0 12 91 bf 27 54 8a bf 7d 30 9e bf
       -1.0975672 -1.1333866 -1.0806931 -1.2358547
000030 63 1b 94 bf 1f 24 a3 bf b1 9b aa bf 82 91 97 bf
       -1.1570858 -1.2745398 -1.3328763 -1.184128
000040 3b c6 a2 bf
       -1.2716745

layer1.weight f4 [128, 109]
000000 a1 76 2f bc 29 cc 81 3e 83 61 53 bd 2d e8 4c bd
       -0.010709436 0.25351074 -0.051606666 -0.050026108
000010 f1 52 4a 3d 4c 64 5d 3e 2f d0 25 be ee 5a d6 3c
       0.049395505 0.21620291 -0.16192697 0.026166406
000020 aa f2 92 3d ea 27 55 3e c0 92 e1 3d 5e ca 9e be
       0.07175191 0.20816007 0.110143185 -0.3101377
000030 fb 8f 9a bd 03 8f 44 3e 34 06 92 3d 60 7b 96 3e
       -0.07546993 0.1919518 0.071300894 0.29391003
000040 e8 4c 02 be 4d 98 46 be 7d 0f 6f 3e c1 4e 3c bd
       -0.1272465 -0.19394036 0.23345752 -0.045973543
000050 91 8c 8e be 5a ac 46 be a0 a1 1f 3e f5 e7 f5 bc
       -0.2784162 -0.19401684 0.15588999 -0.030017832
000060 af 0a 91 3d 0d 28 4c be 10 f6 81 be 5a 45 94 bc
       0.07082116 -0.19937153 -0.25383043 -0.018099476
000070 77 d5 30 3e 45 c9 6c 3e 9b de 72 bd 17 62 1b be
       0.1726893 0.23123653 -0.059294324 -0.15174137
000080 0e c5 a1 bd 41 c8 4c 3d 38 2b 1c bd 74 b2 1c be
       -0.07898913 0.049995665 -0.038127154 -0.1530245
000090 71 c2 f2 bd 09 71 1e 3e 2e 0e ec bd 19 eb 8d bc
       -0.11853493 0.15472807 -0.11526142 -0.017324017
0000a0 89 c2 68 3e d2 43 66 3c 43 7f 23 3c 49 74 19 be
       0.2273046 0.014054256 0.009979072 -0.14985766
0000b0 2c e2 a6 bd fc 41 a3 3d 8c 6a 41 3c d3 72 00 be
       -0.081486076 0.0797157 0.011805188 -0.12543802
0000c0 86 fd f3 3d e4 da 2e 3e db 26 80 be b5 22 ac bd
       0.1191359 0.17075688 -0.25029644 -0.08405057
0000d0 96 7f 52 3c 49 01 8e bd 09 c4 02 be e3 8d 1f bd
       0.012847802 -0.06933839 -0.12770094 -0.038953673
0000e0 a7 f8 c6 bd e2 59 82 3f 83 bf 63 3f 56 5c 23 3f
       -0.097153954 1.018368 0.889641 0.6381277
0000f0 0a 10 44 3f 58 e1 3a 3f 45 cf 07 3f 31 04 2b 3f
       0.76586974 0.730001 0.53050643 0.6680327
000100 be 40 b6 3e 15 68 0b 3f 28 ef c9 3e 20 bc 18 3e
       0.3559627 0.5445569 0.39440274 0.14915514
000110 8f 9c fd 3c 65 8f 80 bd fa a8 46 3f 75 78 2a 3f
       0.030958442 -0.0627735 0.7760159 0.6659005
000120 54 86 3e 3f 66 f5 83 3f b3 e3 1f 3f c6 9c 1f 3f
       0.7442372 1.0309265 0.62456816 0.6234859
000130 43 e7 79 3f c4 db 39 3f 97 97 c9 3e 30 2a c1 3e
       0.976185 0.7260096 0.39373466 0.377275
000140 0c fd f8 3d f5 b6 98 3c 92 a5 7b be e9 3b 78 3f
       0.1215764 0.018641928 -0.24574879 0.96966416
000150 76 26 5e 3f 72 5a 72 3f fd 4a 51 3f ca 34 12 3f
       0.86777437 0.9466926 0.8175505 0.571118
000160 19 ec 8a 3f 13 92 ed 3e 75 bc 29 3f a6 af c5 3e
       1.0853301 0.46400508 0.6630319 0.38610572
000170 37 52 9b 3e e4 45 37 3e 5a a6 cd 3e 98 45 89 3e
       0.30336162 0.17897755 0.4016598 0.26810908
000180 ec 23 8a 3f 6d 5a 83 3f 08 bf 78 3f 78 37 d4 3e
       1.0792212 1.0261971 0.9716649 0.4144857
000190 8b 1b 45 3f 25 b4 41 3f f6 33 81 3f 82 06 43 3f
       0.7699515 0.75665504 1.0093982 0.76181805
0001a0 f8 3b 07 3f 76 82 2c 3f dc 74 67 3e e6 8d 5f 3e
       0.5282588 0.6738657 0.22603172 0.21831474
0001b0 b7 4b 36 3e 67 d4 bf 3f 9e 9d 9b 3f 97 d3 1f 3e
       0.1780232 1.4986695 1.2157476 0.15608059
0001c0 3c 17 a7 3d a7 43 81 bd 8d 20 ef be 19 bd fc 3d
       0.081587285 -0.06311732 -0.46704522 0.12340755
0001d0 94 9d c2 bc ee a3 da bd 86 7f 48 be e4 1a d3 bc
       -0.02375678 -0.10675798 -0.19579896 -0.025769658
0001e0 a5 8b 87 3e 67 32 25 3e 04 6a 8f be 35 1c bd bd
       0.26473728 0.16132508 -0.2801057 -0.09233896
0001f0 f7 4e 7d 3c 87 4a 7c 3e 2b 49 58 3e 52 70 83 3d
       0.015460721 0.24637805 0.21121661 0.06417908
000200 ed 25 8f bc 63 03 23 3c ba db 02 3c b5 f4 1b be
       -0.01747414 0.009949538 0.007986957 -0.15230067
000210 6f a1 d4 3d 0f ae e9 3d cf 15 f2 3e 8a 4c 84 3d
       0.103823535 0.11410152 0.47282264 0.06459911
000220 45 e4 d7 bd b2 aa d5 be b5 5a 12 3e 21 37 37 3e
       -0.10541586 -0.41731793 0.14292414 0.17892124
000230 04 48 49 3e 1c 6a 50 bc 19 ea 1d 3d 02 d1 9e 3c
       0.19656378 -0.012720611 0.03855333 0.019386772
000240 aa dc e9 3d 11 52 10 3d 2d 2a 63 be 09 6f 88 3e
       0.114190415 0.035234515 -0.22184058 0.26647213
000250 50 72 0f 3d 93 a5 8e 3b a4 62 0c 3e 3f 5d ba 3c
       0.035021126 0.004353234 0.13709503 0.022749541
000260 a3 11 f7 3e 77 ee 92 3e 0c 76 a7 bd 3e 75 9e 3d
       0.48255643 0.2869756 -0.081768125 0.07737206
000270 bb fd 2b 3e ba 3f d5 bd bf 67 66 3c 99 33 79 3e
       0.16796009 -0.104125455 0.014062821 0.24336089
000280 f4 bb 37 be bd b0 94 3e 21 d0 09 3f 82 bd 8f 3b
       -0.17942792 0.2904109 0.53833205 0.0043866048
000290 0b 4c 80 be e3 a4 30 bd ed 81 ee be 72 e6 b0 be
       -0.25058016 -0.043126 -0.465835 -0.34550816
0002a0 4a 30 8b 3e 16 7a 52 be 82 e7 c7 be 58 6d b3 be
       0.2718528 -0.20554385 -0.39043814 -0.3504436
0002b0 94 45 b5 be be ee 00 be bb a4 1e be 6c f6 9d 3d
       -0.35404646 -0.12591073 -0.15492527 0.07713017
0002c0 53 08 12 3e 6c e7 bd be 0b 13 9f 3d d2 fe 2b 3e
       0.14260988 -0.37090623 0.07767304 0.16796425
0002d0 fe 7a b7 be 99 b9 45 bf 5a 60 e8 be d1 50 85 be
       -0.35836023 -0.77236325 -0.4538601 -0.2603822
0002e0 e2 c9 36 be 7e dd e0 be 50 82 ad be 1c 90 a6 bc
       -0.1785045 -0.43918985 -0.33888483 -0.020332389
0002f0 71 d8 b4 be de 2a 1f bd 45 56 5d 3c 0e c7 7f 3d
       -0.35321382 -0.03885924 0.013509338 0.062445693
000300 19 f6 0b be 11 4a 93 bd 05 4c 94 be 41 b9 e4 be
       -0.13668098 -0.071918614 -0.28964248 -0.44672588
000310 81 ae 6d be 66 5d 84 be 74 1d 04 be b0 fd 6b be
       -0.23211099 -0.25852507 -0.1290186 -0.23045993
000320 89 d1 b6 3b 3d d9 59 3e bb e3 ac be c7 d5 1a be
       0.0055791778 0.21274276 -0.33767495 -0.15120612
000330 7b 26 97 be db bb b4 be b2 7c 21 bd 78 7e c2 be
       -0.29521546 -0.35299572 -0.03942556 -0.37987113
000340 34 13 2d be 67 6e 9c bd d8 13 09 be 64 67 e5 be
       -0.16901857 -0.07638245 -0.13386476 -0.44805443
000350 04 02 12 be ee 33 1f be e3 cf 8b be ab 3e 0f be
       -0.14258581 -0.15547153 -0.27307042 -0.1398875
000360 a5 1f 89 3e 38 11 7f 3d f6 ac 5a bd e8 e6 7e 3e
       0.26781955 0.06227228 -0.053387605 0.24892771
000370 3c a5 5a 3d 20 19 31 3d 7d f1 69 3d ad 27 a0 3e
       0.053380236 0.04323685 0.057115067 0.3128027
000380 34 07 9b bd d0 c5 10 3e 99 76 e0 bc d3 81 53 3e
       -0.07569733 0.1413796 -0.027400302 0.20654993
000390 c3 a6 8c 3d 04 87 85 be cf 51 c3 bd 09 bf a6 3e
       0.06867745 -0.2607957 -0.09537088 0.32567623
0003a0 8d e2 ac 3c a6 17 73 3e 02 c0 66 be 70 58 59 be
       0.021104122 0.2373949 -0.22534183 -0.21225142
0003b0 42 a3 2a 3e d3 24 d2 bd 86 89 3f be d5 e8 c6 bd
       0.1666384 -0.1026093 -0.18704805 -0.09712378
0003c0 61 c0 22 3e 6b 09 d9 bd a1 48 07 bd 1b f6 b7 bd
       0.15893699 -0.105974995 -0.03302825 -0.08982488
0003d0 a9 8a e8 bd 96 b3 61 bd 33 66 2e 3e 86 41 ee 3d
       -0.11354572 -0.055102907 0.17031173 0.11633591
0003e0 c7 00 95 bd c1 1e f7 bd af 5c 1c be 5c d4 14 3e
       -0.07275539 -0.12066413 -0.15269731 0.14534134
0003f0 99 c3 58 bd 44 75 6e be 60 c5 bd bd d4 b4 30 3e
       -0.05292091 -0.23286921 -0.09266162 0.1725648

layer1.bias f4 [128]
000000 4d 1a f0 3f 02 19 3a bf 2d 20 ea 3f 69 4b f2 3f
       1.8758026 -0.7269441 1.8291069 1.8929263
000010 05 e8 f4 3f 5e f9 18 bd aa bd 59 3d b2 b8 fa 3f
       1.9133307 -0.03734719 0.053159393 1.9587615
000020 bc ef 8d bf 64 64 db 3f 0b c1 f3 3f 99 90 d9 3f
       -1.1088786 1.7140012 1.9043287 1.6997253
000030 c2 fe 56 3d 5a 10 02 40 a8 00 7d bc 71 18 b8 3f
       0.05248905 2.032248 -0.015442051 1.4382459
000040 1d 55 ed 3f 45 47 90 bf 1d 65 bf 3f ae 57 2c bf
       1.85416 -1.127175 1.4952732 -0.6732129
000050 58 0c 08 40 24 b9 d9 3d 52 04 8e bf 6b 31 04 40
       2.1257534 0.10631016 -1.1095068 2.0655162
000060 19 56 02 40 42 33 ed 3f 9b 91 8b bf 43 62 e2 3f
       2.036505 1.8531268 -1.090381 1.7686237
000070 69 9f f1 3f 1d 8b 97 bf a2 09 e1 3f 44 e7 ee 3f
       1.8876773 -1.1839329 1.7581065 1.8664327
000080 a7 8e dd be a9 73 e6 3f c3 7c 2e bd e1 48 f1 3f
       -0.43272898 1.8004047 -0.04259945 1.8850366
000090 7c c5 a1 bd 6d 3b 8c bf a9 b2 33 3f a7 f1 fb 3f
       -0.07898995 -1.0955635 0.7019449 1.9683121
0000a0 75 35 05 40 fa 0d f3 3f 4c 03 65 be ae f7 24 3e
       2.0813878 1.898864 -0.22364539 0.16110107
0000b0 46 74 c8 3f 46 ef f6 3f 03 a8 f7 3f d5 f0 01 40
       1.5660484 1.929177 1.9348148 2.0303242
0000c0 32 b4 fd 3f 6c f2 96 bf 87 31 c4 be 50 94 ea 3f
       1.9820616 -1.1792731 -0.38319036 1.8326511
0000d0 28 3f 75 bf e5 4f 05 40 95 74 05 40 a3 6d e4 3f
       -0.95799494 2.0830014 2.0852406 1.7845958
0000e0 57 d3 f9 3f 65 d9 f9 3f 98 62 97 bf 5e 5b eb 3f
       1.9517621 1.9519469 -1.1826963 1.8387258
0000f0 7e 0d f2 3f b3 57 4f bd ad 16 e6 3f 31 b5 fa 3f
       1.8910367 -0.050620746 1.797567 1.9586545
000100 fb a3 dc 3f 2e 24 dd 3f b5 8b ea 3f d7 89 81 bf
       1.7237543 1.7276666 1.8323885 -1.012019
000110 aa e6 f1 3f 75 03 f6 3f a7 1f ee 3f 2b 3d e1 3f
       1.8898518 1.9219805 1.860341 1.7596792
000120 08 40 09 40 4a 1b ee 3f ba 16 4b 3b 95 05 03 bd
       2.1445332 1.8602078 0.0030988888 -0.031987745
000130 fc 62 c5 3f 46 ac 8c bf fe 64 f7 3f 7b ae dd 3f
       1.5420833 -1.0990074 1.9327695 1.7318872
000140 1e de f4 3f 85 e8 8a bf 34 e7 f0 3f ec 72 f2 3f
       1.9130285 -1.0852209 1.8820558 1.8941321
000150 91 00 f1 3f 75 01 d8 3f 32 7b ee 3f 10 8f ea 3f
       1.8828298 1.6875445 1.8631346 1.8324909
000160 68 1e fc 3f fd f1 8a bf 74 5c 8c be 33 4f 05 40
       1.9696779 -1.0855099 -0.27414286 2.082959
000170 03 84 f0 3f e5 31 f7 3f 8e 63 a0 3f 30 ce 05 40
       1.8790287 1.9312102 1.2530382 2.0907097
000180 f9 a6 42 bf 44 e3 cc 3f 09 c1 f2 3f 6c 29 e3 3f
       -0.7603603 1.6006856 1.896516 1.7747016
000190 e2 d3 80 bf b2 ae ef 3f 7e 2c f2 3f 0e 0f f9 3f
       -1.0064662 1.8725188 1.8919828 1.9457719
0001a0 bc 9f ed 3f 55 61 fa 3f b2 fa fc 3f 2d d6 f7 3f
       1.8564372 1.9560953 1.9764006 1.9362236
0001b0 cc 99 e6 3f 3e 22 d5 3f 65 ee 0a 40 85 50 c9 3f
       1.8015685 1.6651075 2.1708004 1.5727698
0001c0 11 4e 80 3b 8d ee f2 3f 22 9c 85 bf 92 14 e6 bb
       0.0039155562 1.897905 -1.0438273 -0.007021495
0001d0 bb 73 7a bf 61 5a f9 3f ae d9 eb 3f ac 20 e3 3f
       -0.9783284 1.9480706 1.8425806 1.7744346
0001e0 79 e5 3d bf ee e6 e0 3f ae 07 fa 3f 34 ad 3f bd
       -0.7417827 1.7570474 1.9533594 -0.04679604
0001f0 1d 56 d3 3f 3d 4d f0 3f c9 3b fd 3f 3a ee f2 3f
       1.6510655 1.8773571 1.978387 1.8978951

layer2.weight f4 [128, 128]
000000 aa 73 75 3f 67 f1 cb be 2b fd 64 3e 02 e3 d8 3e
       0.95879614 -0.39832613 0.22362201 0.42360693
000010 d6 8b 89 3e c0 1e 40 3d ed 1b 76 bf 71 3e 2a 3f
       0.268645 0.046904325 -0.9613636 0.6650153
000020 a1 df 89 bd 24 b0 a2 3e 0e e4 c6 3f e0 ff 72 3e
       -0.06732107 0.3177501 1.5538347 0.23730421
000030 f8 30 80 bf 1d a4 c3 3e b6 89 c7 be c1 75 70 3f
       -1.0014944 0.38211146 -0.38972253 0.9392968
000040 51 da ef 3f b3 17 0d be 4a 0a ad 3f 72 b9 85 be
       1.87385 -0.13778572 1.3518765 -0.26118046
000050 0a 83 f8 3f 01 14 9d bf 9b 1e 8b bd f2 84 9a 3f
       1.941499 -1.227173 -0.06792947 1.2071822
000060 59 17 b2 3f 4f 88 f3 3f 80 75 f3 be e2 87 41 3e
       1.3913375 1.9025973 -0.47550583 0.18899491
000070 34 4d fc 3e 8a ab 6e be ca 15 28 3e f0 5b 6f 3f
       0.4927765 -0.23307624 0.16414562 0.9349966
000080 7d d5 8e bf 8c 90 c0 3e 0b 96 0f 3d 20 62 7b 3f
       -1.1158901 0.3761028 0.0350552 0.981966
000090 af 80 2c bf f0 5e 38 bf 0c 90 0d 3f 59 8f 0a 3f
       -0.67383856 -0.72019863 0.55297923 0.5412498
0000a0 69 f1 a1 3f 83 ad 7e 3f 3a bc 49 bf 87 64 4a bf
       1.2651798 0.9948351 -0.78802836 -0.7905964
0000b0 6e 0c b0 3f 7f fb 03 3f 3e 46 d8 3e 73 36 ff 3e
       1.3753793 0.5155563 0.4224109 0.4984623
0000c0 97 2d 02 40 08 6b a3 be 98 4b 7d bf 5a 58 5d 3e
       2.0340326 -0.31917596 -0.9894347 0.21615735
0000d0 a3 b2 7b be 30 8d f1 3f 6c 6d ef 3f 45 be 1a 3f
       -0.24579863 1.8871212 1.8705268 0.6044658
0000e0 44 07 d7 3e 0a 96 e0 3f 33 7a 83 bd ce 86 95 3e
       0.4199773 1.7545788 -0.06419792 0.2920441
0000f0 92 4a 4a 3f ab 43 71 bf fc 2d ac 3e 49 62 a3 3f
       0.79020035 -0.9424388 0.33628833 1.2764369
000100 93 31 d0 3e 36 b8 34 3e b5 48 8c 3e 15 5f 49 bf
       0.40662822 0.17648396 0.2739922 -0.7866071
000110 96 ac 43 3f 42 b7 3c 3f fe 2f 86 3f ba a8 7b 3f
       0.7643522 0.7371713 1.0483396 0.9830433
000120 61 13 ee 3f a3 85 61 3f 89 42 a3 bd d1 9c a3 3d
       1.8599664 0.8809454 -0.07971675 0.07988895
000130 54 f0 b2 3f e0 65 32 be 65 e3 9b 3e cd 10 8a 3e
       1.3979592 -0.17421675 0.30446926 0.26965943
000140 ef 9f 17 3f e5 96 c3 be 7c 2c b8 3f 31 99 93 3e
       0.59228414 -0.3820106 1.4388576 0.28827813
000150 df 45 c1 3f 12 e6 79 3e 97 99 36 3f c4 27 82 3e
       1.5099448 0.24404171 0.7132811 0.25420964
000160 be 00 08 3f 21 3e d2 be a5 36 44 bf 9f fc f9 3f
       0.5312613 -0.41063026 -0.7664588 1.9530219
000170 10 51 d0 3e b7 9c 38 3f 94 41 86 3f a2 42 e7 3f
       0.40686846 0.7211413 1.0488763 1.806721
000180 79 92 45 bf e9 0f 02 3f d3 35 87 3e 01 0a 7d 3e
       -0.77176625 0.50805527 0.26408252 0.24710847
000190 bf b6 01 bf cc 5c af 3e 98 30 57 3f 21 66 cd 3e
       -0.50669473 0.34250486 0.84058523 0.4011698
0001a0 8a fc 3d 3f ec 3f c5 3e 42 55 20 3f 88 ec 55 3f
       0.7421347 0.3852533 0.62630093 0.83564043
0001b0 33 95 21 3f 08 bf 0a 3e 04 5f fe 3f c2 ba 6c 3f
       0.63118285 0.13549435 1.9872746 0.9247247
0001c0 da 32 0d bd db 26 a9 3e 95 ab f1 be 14 45 6e 3d
       -0.034472324 0.33037457 -0.4720122 0.058171347
0001d0 a6 61 1b bf ac 9d c1 3e 3f 67 b7 3e 6d 83 b7 3e
       -0.60695875 0.37815607 0.35820958 0.35842457
0001e0 e6 88 9a be 52 f4 60 3e 4d 7a e8 3f 60 55 51 bd
       -0.3018257 0.21968201 1.8162323 -0.05110681
0001f0 3f d4 8a 3e a8 cf 8e 3e 48 0a db 3e 86 ff fd 3e
       0.27115056 0.27892804 0.4278128 0.4960901
000200 f7 13 68 3f e5 b8 d9 be 77 d7 4c 3e f1 a7 f5 3e
       0.90655464 -0.42523876 0.20004068 0.47979692
000210 12 e4 bd 3e 8a 94 90 bd 97 81 64 bf 8c ea 2d 3f
       0.37088066 -0.070595816 -0.8926024 0.67936015
000220 25 bb fd bd 18 1e 99 3e 7e b8 c2 3f 27 a0 e5 3d
       -0.123892106 0.29905772 1.5212553 0.11212187
000230 09 0e 89 bf 75 cc d3 3e ed 15 e8 be 33 89 76 3f
       -1.0707408 0.41366926 -0.45329228 0.963031
000240 67 86 f7 3f be 69 a7 bd af 03 ae 3f 89 86 37 be
       1.9337891 -0.081744656 1.3594874 -0.17922415
000250 55 34 00 40 f8 f5 9d bf 8c 05 ef bd b1 f4 9f 3f
       2.003194 -1.2340689 -0.1167098 1.2496549
000260 f3 f2 b7 3f 28 64 ff 3f 39 e0 13 bf bc 85 4d 3e
       1.4371017 1.995244 -0.5776401 0.20070547
000270 76 79 17 3f 62 c9 39 be 14 cb 10 3e 6c c0 6e 3f
       0.5916971 -0.18143228 0.14139968 0.9326236
000280 1c 7b 92 bf 00 25 ef 3e 64 15 3a bd c3 48 69 3f
       -1.144382 0.46707916 -0.045430556 0.9112665
000290 97 14 11 bf 77 e0 31 bf f9 e6 20 3f ea 4e f3 3e
       -0.5667204 -0.6948313 0.62852436 0.47521144
0002a0 42 c3 9d 3f 8f db 79 3f 64 06 4d bf de 76 56 bf
       1.2325213 0.97600645 -0.80087876 -0.83775127
0002b0 b4 06 be 3f 1b 6b bf 3e c0 cd c1 3e 2f 78 f8 3e
       1.4845796 0.37386402 0.37852287 0.48529193
0002c0 fe 7a 06 40 bf f4 ca be 88 2e 60 bf 96 1a 24 3e
       2.1012568 -0.3963985 -0.87571 0.16025767
0002d0 bb 52 85 be c6 b6 f1 3f 1e b8 ef 3f f7 30 21 3f
       -0.2603968 1.8883903 1.8728063 0.6296534
0002e0 7c 3c cf 3e 86 8e d7 3f d0 41 80 bc 2e 6b 91 3e
       0.40475833 1.684037 -0.015656382 0.28402084
0002f0 6f 5c 2c 3f fc f1 6a bf ce 21 91 3e 3b 1e a8 3f
       0.6732854 -0.9177549 0.28346103 1.3134226
000300 d9 da e2 3e 66 c2 8c 3e a2 91 5b 3e 3f 4a 5c bf
       0.44307593 0.27492064 0.21442273 -0.8605079
000310 82 70 28 3f 1a 08 44 3f 0e ce 82 3f 39 f0 82 3f
       0.65796673 0.7657486 1.0219133 1.022956
000320 f3 52 e3 3f 22 d8 60 3f c6 0b 24 be 30 cd 00 bd
       1.7759689 0.8782979 -0.16020116 -0.031445682
000330 2a 8a a7 3f ff bd 2d be 7b 31 b7 3e 9b 77 83 3e
       1.3089039 -0.16967009 0.35779938 0.2567719
000340 33 9e 21 3f 71 97 d3 be 42 33 b7 3f f8 31 98 3e
       0.6313202 -0.41326478 1.4312518 0.29725623
000350 35 69 c5 3f ee b4 61 3e 87 f1 1b 3f e2 cf 8f 3e
       1.5422732 0.22041675 0.60915416 0.2808829
000360 9d ee d5 3e f9 60 d5 be 23 b9 41 bf f4 26 ea 3f
       0.4178361 -0.41675547 -0.7567312 1.8293138
000370 41 37 e3 3e 4d d1 29 3f cf 5d 7e 3f 7c 5d df 3f
       0.44378093 0.6633499 0.9936189 1.7450404
000380 84 44 59 bf e3 c9 05 3f 32 fb c6 3e 9e c3 7a 3e
       -0.8487017 0.5226118 0.38863522 0.24488685
000390 ba d0 f4 be 9f d6 6a 3e 0e a0 46 3f fa ea 9b 3e
       -0.47815496 0.22933434 0.77587974 0.3045271
0003a0 30 4e 39 3f 27 9d 04 3f b8 a4 30 3f 2f 5f 45 3f
       0.7238493 0.51802295 0.6900134 0.77098364
0003b0 8b 69 0e 3f b5 0a 63 3e bb 91 f6 3f 00 87 74 3f
       0.55629796 0.22172053 1.9263223 0.95518494
0003c0 f8 d8 3f 3b 73 f1 a6 3e 8e 05 bf be 3b 44 a1 3c
       0.002927361 0.32606086 -0.37308925 0.019685855
0003d0 5c f7 07 bf de dc f6 3e 33 b6 e7 3e 42 12 cb 3e
       -0.53111815 0.48215383 0.45256194 0.39662367
0003e0 9d 78 9a be 5f 17 03 3e 72 fe f2 3f 35 47 04 bd
       -0.30170146 0.12801884 1.89839 -0.03229447
0003f0 6c 49 a3 3e e8 09 91 3e f6 84 e4 3e ed 57 d8 3e
       0.31891954 0.2832787 0.4463269 0.42254582

layer2.bias f4 [128]
000000 ea 79 d3 3f 8a f6 d3 3f b4 2c de 3f 7b de 1f bf
       1.652158 1.6559613 1.7357392 -0.62448853
000010 98 f9 b1 bd 75 49 d9 3f a7 be 7a 3b b7 66 1c bf
       -0.08690184 1.6975542 0.003826061 -0.6109423
000020 21 60 48 bd 28 9a d9 3f 8f 0a 2b bf a5 a3 da 3f
       -0.0489198 1.700017 -0.66812986 1.708119
000030 d2 c5 e2 3f 10 0d e3 3f f1 72 dd 3f b2 96 df 3f
       1.771662 1.7738361 1.7300702 1.7467864
000040 43 52 d8 3f 2c 2b 1e bf 03 52 19 bf 3e 28 d2 3f
       1.6900104 -0.61784625 -0.59890765 1.6418531
000050 5f 36 d8 3f 4f a7 73 bf f0 4d d9 3f f6 1d d8 3f
       1.6891593 -0.9517717 1.697691 1.6884143
000060 fd a4 db 3f 45 88 19 bf 0d 86 22 bf 6f e7 d9 3f
       1.7159725 -0.59973556 -0.63485795 1.7023753
000070 0e bf 25 bf 5a e4 df 3f b6 52 e1 3f 2d a9 20 bf
       -0.6474465 1.7491562 1.7603366 -0.6275814
000080 da e3 28 bf 06 8d da 3f 14 dd cd 3f 55 2a e3 3f
       -0.65972674 1.7074287 1.6083093 1.7747294
000090 bf ec d2 3f 26 4a df 3f c6 cf 2e bf e8 0b e1 3f
       1.6478499 1.7444503 -0.6828579 1.7581758
0000a0 dd df 1b bf 69 8e dc 3f 53 5b e4 3f a6 77 e1 3f
       -0.60888463 1.723096 1.784037 1.7614639
0000b0 b4 ab d6 3f ba ee 7b bf ac d8 91 bf 23 9a d1 3f
       1.677115 -0.9841114 -1.1394248 1.6375164
0000c0 63 94 e7 3f ee ab dd 3f 7a fb 2c bf c7 cd 0b bf
       1.8092159 1.7318094 -0.6757122 -0.54610866
0000d0 4f 1d e7 3f c8 37 34 3d 20 85 dc 3f c1 a6 e1 3f
       1.8055819 0.04399851 1.7228127 1.7629014
0000e0 d0 87 16 bf 6f 9c e2 3f 62 b5 01 3c 05 58 d2 3f
       -0.58800983 1.770399 0.00791678 1.6433111
0000f0 7c 46 7d bf c2 e8 1f bf 1e 48 e4 3f 5d a6 d4 3f
       -0.98935676 -0.62464535 1.7834508 1.661327
000100 5e fb d9 3f 22 27 13 bf d0 88 d7 3f 6c fe e0 3f
       1.7029836 -0.57481587 1.6838627 1.7577643
000110 d3 03 d6 3f d0 64 da 3f ea 96 e2 3f 72 54 e5 3f
       1.6719917 1.7062016 1.7702305 1.7916396
000120 39 c1 7b bf 31 2c 1f bf 01 86 e4 3f f4 3c e2 3f
       -0.9834171 -0.62176806 1.7853395 1.7674851
000130 f0 f0 04 bf 27 2e d9 3f 72 e4 e0 3f 8d 12 dc 3f
       -0.5193014 1.696721 1.7569716 1.7193161
000140 41 ad 30 bf 5c 3f e2 3f 26 e0 e5 be 43 a0 0a bf
       -0.69014364 1.7675586 -0.44897574 -0.5415079
000150 c1 90 e0 3f ca ee dc 3f f2 f9 e3 3f 3d 85 d8 3f
       1.7544175 1.7260373 1.7810652 1.6915661
000160 a7 be 89 3c 42 b9 da 3f 00 fb db 3f 13 6c 64 3c
       0.016814543 1.7087786 1.7185974 0.0139417825
000170 de b5 de 3f 99 27 81 bf 09 34 7f 3d 67 46 e2 3f
       1.7399251 -1.0090209 0.062305484 1.7677735
000180 1d bc 28 bf 62 94 0a bf 68 dd e0 3f 48 e7 cd 3f
       -0.6591204 -0.54132664 1.7567568 1.6086206
000190 c6 db e2 3f 36 3e da 3f c2 3e df 3f f8 55 16 bf
       1.772332 1.7050235 1.7441027 -0.5872493
0001a0 0f 10 d4 3f 29 dd dc 3f c3 a8 2c bf 8c ae dd be
       1.6567401 1.7254993 -0.6744501 -0.4329723
0001b0 1f 50 d4 3f 73 5f df 3f 77 5a 0a bf 7c e2 13 bf
       1.6586951 1.7451004 -0.5404429 -0.5776746
0001c0 6c 5a 75 3d 5d 02 e5 3f 91 c7 bc bc 5c 70 e4 3f
       0.059900686 1.7891346 -0.02304438 1.7846789
0001d0 4c 2a e1 3f 43 36 24 bf b2 9e 16 bf 37 d7 1f bf
       1.7591033 -0.64145297 -0.588359 -0.62437767
0001e0 c2 e1 e1 3f 90 1c 99 bd 76 85 e1 3f 52 e4 02 bf
       1.7647021 -0.07476151 1.7618854 -0.5112964
0001f0 82 90 0a bf 06 8c d7 3f 49 53 e2 3f 0a 46 06 bf
       -0.5412675 1.6839607 1.7681667 -0.5245062
