dqn_bot/model.pth (torch, 665178 bytes, 30 tensors)

layer1.weight f4 [128, 109]
000000 9f 77 59 42 9b e8 59 42 bd 16 57 42 cb 78 3d 42
       54.366817 54.477154 53.772205 47.36796
000010 5e c5 4a 42 b8 a5 10 42 30 03 11 42 ea bf 11 42
       50.69274 36.161835 36.253113 36.437416
000020 17 af 10 42 e0 ab 12 42 f4 0d 13 42 87 4f 11 42
       36.170986 36.667847 36.763626 36.327663
000030 7c 31 10 42 72 91 10 42 c9 65 10 42 8c 4d 11 42
       36.048325 36.142036 36.0994 36.32573
000040 5e e2 0f 42 85 f8 12 42 57 10 11 42 55 48 10 42
       35.97106 36.742695 36.265957 36.070637
000050 72 38 11 42 6f a6 0c 42 ae 42 11 42 3a 88 0f 42
       36.305122 35.162533 36.315117 35.883034
000060 bd d7 14 42 b2 88 13 42 05 1c 0f 42 b6 1b 10 42
       37.210682 36.88349 35.777363 36.02706
000070 22 bc 10 42 c7 34 12 42 d5 f7 0d 42 2b 50 11 42
       36.183723 36.55154 35.492023 36.32829
000080 a8 2f 10 42 67 aa 0a 42 16 bd 10 42 af 2d 11 42
       36.04654 34.66641 36.184654 36.294613
000090 57 d3 11 42 6c 13 14 42 47 39 0d 42 4c c7 12 42
       36.456387 37.018967 35.305935 36.694626
0000a0 3e e0 10 42 d0 b5 10 42 59 b3 10 42 c8 56 12 42
       36.218987 36.17755 36.175144 36.584747
0000b0 b9 b8 10 42 b3 ae 0e 42 91 d7 12 42 64 0d 10 42
       36.180393 35.670605 36.710514 36.013077
0000c0 67 53 11 42 85 7e 13 42 04 dd 0f 42 2b cc 11 42
       36.331448 36.873554 35.965836 36.449383
0000d0 5e 5d 10 42 96 de 11 42 ea 83 12 42 55 ba 0f 42
       36.09118 36.46737 36.628822 35.931965
0000e0 ff 8e 12 42 ec a6 47 42 cf 1c 47 42 72 b5 47 42
       36.639645 49.91301 49.778133 49.927193
0000f0 00 35 48 42 be 34 47 42 03 62 45 42 72 ef 45 42
       50.051758 49.801506 49.345715 49.483833
000100 5e 6e 45 42 88 c0 46 42 f4 73 45 42 43 2f 46 42
       49.35778 49.68802 49.363235 49.546154
000110 d5 e9 44 42 a2 e7 43 42 bb aa 46 42 0e 41 48 42
       49.22835 48.976204 49.66673 50.06353
000120 5a d4 47 42 91 d7 46 42 25 44 47 42 81 d5 46 42
       49.957375 49.710514 49.816547 49.7085
000130 fd a8 46 42 53 e9 46 42 82 f5 44 42 be 32 46 42
       49.665028 49.727856 49.239754 49.549553
000140 0c b9 44 42 d1 bf 44 42 2a 0e 44 42 e3 f6 46 42
       49.18071 49.18732 49.013832 49.7411
000150 2e ad 45 42 d9 86 47 42 27 79 46 42 6c 19 45 42
       49.41912 49.881687 49.618313 49.274826
000160 1a 1e 47 42 f0 04 46 42 73 a0 45 42 ef 69 46 42
       49.779396 49.50482 49.40669 49.60345
000170 29 42 45 42 e3 59 45 42 c0 34 45 42 90 e9 43 42
       49.31461 49.33778 49.301514 48.97809
000180 d4 25 49 42 5f 15 47 42 65 ad 47 42 1b d4 46 42
       50.28694 49.77087 49.91933 49.707134
000190 52 cf 46 42 2f 31 46 42 ba 41 47 42 06 9f 46 42
       49.70246 49.54803 49.814186 49.655296
0001a0 a5 83 44 42 78 4c 47 42 58 ea 44 42 8d 55 44 42
       49.12856 49.824677 49.22885 49.083546
0001b0 07 11 44 42 66 bd 5e 42 81 5b 5e 42 8d 4c 59 42
       49.01663 55.68496 55.58936 54.324757
0001c0 15 f9 3d 42 c2 d3 4a 42 33 ee 0f 42 1c 40 12 42
       47.493244 50.706795 35.982616 36.562607
0001d0 d1 5e 12 42 8f 5b 10 42 c2 d7 12 42 c4 03 14 42
       36.592594 36.089413 36.7107 37.003677
0001e0 78 51 12 42 dd 7e 11 42 97 0c 10 42 21 0d 11 42
       36.57956 36.37389 36.012295 36.26282
0001f0 6d b6 11 42 88 61 11 42 16 9a 13 42 02 b1 11 42
       36.42815 36.345245 36.900475 36.42286
000200 dc 13 11 42 47 4a 12 42 9d 73 0d 42 6e 6b 11 42
       36.269394 36.572536 35.362904 36.35491
000210 b1 8d 10 42 3c a2 15 42 cd 2f 15 42 13 10 10 42
       36.13837 37.408432 37.29668 36.015697
000220 ad d9 10 42 00 15 10 42 51 d1 12 42 1a c8 0e 42
       36.212574 36.020508 36.70441 35.69541
000230 66 6c 12 42 a9 a7 10 42 4b 0f 0c 42 97 7a 11 42
       36.605858 36.16373 35.014935 36.369717
000240 4a 9a 11 42 d7 59 12 42 46 8f 13 42 52 10 0f 42
       36.400673 36.587734 36.889915 35.765938
000250 b7 08 14 42 26 32 11 42 f0 97 11 42 85 8d 11 42
       37.00851 36.298973 36.398376 36.388203
000260 88 0f 14 42 f8 34 12 42 30 2d 0f 42 6b ab 13 42
       37.015167 36.551727 35.79413 36.9174
000270 7e 71 11 42 da df 11 42 ea aa 13 42 00 79 11 42
       36.360832 36.468605 36.91691 36.368164
000280 54 8c 12 42 3e 0b 11 42 57 f9 13 42 2d ef 13 42
       36.63704 36.26098 36.993496 36.98357
000290 0e 10 10 42 31 ef 12 42 e9 db 46 42 7d 65 46 42
       36.01568 36.733585 49.714756 49.59911
0002a0 eb e9 48 42 11 23 48 42 c2 a3 46 42 52 b0 45 42
       50.228436 50.034245 49.65992 49.422188
0002b0 9e 05 46 42 e4 18 46 42 71 22 47 42 fd d2 46 42
       49.505486 49.524307 49.783634 49.706043
0002c0 2a 51 47 42 f9 8e 45 42 28 89 45 42 a5 ed 46 42
       49.82926 49.38962 49.38394 49.732075
0002d0 22 f3 47 42 7f 9c 46 42 5b 15 46 42 95 69 47 42
       49.987434 49.65283 49.520855 49.853107
0002e0 ea df 46 42 fa 20 46 42 2d 1c 47 42 c1 9a 45 42
       49.718666 49.532204 49.777515 49.401127
0002f0 32 e6 46 42 06 2a 46 42 3e 12 46 42 f8 0e 46 42
       49.7248 49.54104 49.517815 49.514618
000300 be fb 46 42 d1 b8 45 42 24 10 47 42 62 81 45 42
       49.745842 49.430485 49.765762 49.37635
000310 a8 17 45 42 7a 29 46 42 4b da 46 42 3f de 45 42
       49.2731 49.540504 49.713177 49.467037
000320 49 f9 46 42 d2 c8 46 42 be d6 45 42 67 58 45 42
       49.743443 49.696114 49.45971 49.33633
000330 a1 49 44 42 9a 38 48 42 68 3f 47 42 33 b3 47 42
       49.071903 50.055275 49.81192 49.925
000340 08 55 47 42 2e fc 46 42 87 4a 46 42 2f 81 46 42
       49.83304 49.74627 49.57278 49.626156
000350 b5 e2 46 42 e1 ef 44 42 5a c5 46 42 bd f2 45 42
       49.721394 49.234257 49.692726 49.48705
000360 45 25 46 42 a4 99 45 42 11 5a 5a 42 c6 c7 5a 42
       49.536396 49.40004 54.587955 54.69509
000370 5c 8e 58 42 4c d4 3d 42 db 0c 4b 42 14 4b 11 42
       54.139023 47.45732 50.762554 36.32332
000380 2f 9a 11 42 bb 94 12 42 4d b5 10 42 bf 4c 13 42
       36.40057 36.645245 36.17705 36.824947
000390 ec a0 13 42 04 a2 11 42 75 d2 10 42 59 30 11 42
       36.90715 36.40822 36.205524 36.297215
0003a0 24 c8 10 42 9a ae 11 42 32 35 10 42 6b 4d 13 42
       36.19545 36.42051 36.05195 36.825603
0003b0 7f 58 11 42 58 b3 10 42 15 e1 11 42 26 3c 0d 42
       36.336422 36.17514 36.469807 35.30874
0003c0 b5 dd 11 42 30 f2 0f 42 23 3b 15 42 f6 4c 14 42
       36.46651 35.98651 37.30775 37.075157
0003d0 de ed 0f 42 91 ce 10 42 0b 4d 11 42 f8 9e 12 42
       35.982292 36.201725 36.325237 36.655243
0003e0 f4 58 0e 42 ae d5 11 42 f4 81 10 42 29 9b 0b 42
       35.58687 36.45867 36.126907 34.901524
0003f0 ba 1e 11 42 ee 69 11 42 be 01 12 42 d5 3c 14 42
       36.280006 36.353447 36.5017 37.059406

layer1.bias f4 [128]
000000 15 8c 5c 42 41 e9 5a 42 47 57 5d 42 c1 77 5d 42
       55.1368 54.727787 55.33523 55.366947
000010 54 7b 5d 42 e7 bf 85 bc 48 c8 5b 42 ed 77 5d 42
       55.370438 -0.016326858 54.945587 55.367115
000020 4d 53 5a 42 c8 ee 5c 42 e0 f6 5b 42 e0 1d 5d 42
       54.58135 55.233185 54.99109 55.279175
000030 cc 89 5b 42 0f 80 5d 42 04 8b 5a 42 1e a4 5b 42
       54.884567 55.375057 54.635757 54.91027
000040 58 9a 59 42 cd 20 5a 42 1a 4d 5b 42 89 9d 57 42
       54.400726 54.532032 54.825294 53.903843
000050 aa 9a 59 42 a9 8f 5b 42 4a 44 5a 42 e5 da 5c 42
       54.40104 54.890293 54.56669 55.213764
000060 38 18 5b 42 9d d6 58 42 59 a3 59 42 22 51 5d 42
       54.77365 54.209583 54.40952 55.32923
000070 f7 0c 5d 42 d1 1b 5a 42 38 46 5d 42 f3 68 5b 42
       55.26266 54.527164 55.318573 54.85249
000080 a8 c2 5a 42 86 78 5d 42 9a e6 a8 41 4d 6e 5b 42
       54.690094 55.3677 21.112598 54.857716
000090 81 af 5b 42 f7 92 59 42 b5 8b 5a 42 cd c0 5d 42
       54.92139 54.39352 54.636433 55.438282
0000a0 be ee 5c 42 0b 15 5c 42 c6 47 5b 42 d4 e1 5b 42
       55.233147 55.02055 54.82009 54.970535
0000b0 36 61 30 42 72 78 5d 42 c4 91 5d 42 c8 5b 5d 42
       44.094933 55.367622 55.39235 55.33963
0000c0 88 b8 56 42 fb d6 59 42 4e 7f 5a 42 32 6d 5d 42
       53.680206 54.45994 54.62432 55.356636
0000d0 ff 8f 5a 42 0b 84 59 42 e4 60 5b 42 09 54 5d 42
       54.64062 54.37895 54.84462 55.332066
0000e0 9f 80 5d 42 45 d2 59 42 fd 21 5a 42 b2 58 5d 42
       55.375607 54.45534 54.53319 55.336617
0000f0 c0 38 5d 42 90 99 5b 42 65 55 5d 42 73 07 5b 42
       55.30542 54.899963 55.333393 54.757275
000100 bf 1b 5d 42 eb ea 5c 42 6c 65 5d 42 37 a1 59 42
       55.277096 55.229412 55.349045 54.407436
000110 28 d8 5c 42 d5 3f 5d 42 c9 b7 5c 42 10 c4 5b 42
       55.21109 55.312336 55.179478 54.941467
000120 67 d7 59 42 e0 62 5c 42 bc c2 56 42 28 d2 64 bc
       54.460354 55.096558 53.69017 -0.013966121
000130 0a 25 5b 42 9f 20 5a 42 61 83 5d 42 42 37 5d 42
       54.78617 54.531857 55.3783 55.303963
000140 49 a2 5d 42 c4 f6 59 42 b9 ae 5b 42 f3 78 5d 42
       55.40848 54.490982 54.920628 55.368114
000150 45 81 5b 42 9b b4 5c 42 89 5f 5d 42 db 4a 5d 42
       54.87624 55.176373 55.343296 55.3231
000160 f0 5f 5d 42 3b c4 59 42 06 63 5b 42 f4 01 5b 42
       55.34369 54.44163 54.846703 54.751907
000170 d3 58 5d 42 63 59 5d 42 c6 e8 5a 42 bd d3 5a 42
       55.336742 55.33729 54.727318 54.706776
000180 73 66 5a 42 a8 cb 5a 42 80 6b 5d 42 5f 3b 5d 42
       54.600048 54.698883 55.35498 55.30798
000190 db 2f 5a 42 0d 62 5d 42 12 fa 5c 42 a0 8a 5d 42
       54.546734 55.345753 55.24421 55.385376
0001a0 05 b4 5c 42 6d 4d 5d 42 43 55 5d 42 9e 03 5d 42
       55.1758 55.32561 55.333263 55.253532
0001b0 44 e5 5c 42 cc f8 5c 42 cd 14 58 42 1a 57 5c 42
       55.223892 55.242966 54.020313 55.08506
0001c0 4a 4b e0 3a cf 65 5d 42 49 d0 59 42 bf 1a 49 bb
       0.0017112282 55.349422 54.453403 -0.0030686108
0001d0 28 cd 59 42 ed 64 5d 42 5d 43 5d 42 e6 17 5d 42
       54.450348 55.34856 55.315784 55.27334
0001e0 c8 11 5a 42 e7 53 5d 42 53 ce 5a 42 c5 0b 58 42
       54.517365 55.331936 54.70149 54.011494
0001f0 3d 42 5c 42 e4 40 5d 42 23 5f 5d 42 02 73 5d 42
       55.064686 55.31337 55.342907 55.362312

layer2.weight f4 [128, 128]
000000 b8 0e 21 3e 1a e5 b8 be cd b5 4d 3d c0 49 d6 3c
       0.15728271 -0.3611229 0.050222207 0.026158214
000010 66 98 58 3d 92 fb a7 3c dd f0 6f bf 81 5b 98 bc
       0.052879713 0.0205057 -0.93726903 -0.01859832
000020 a8 1d 3a bd d9 cb 64 3d a1 e8 ca 3e 7f 5e 74 3d
       -0.04543844 0.055858467 0.39630607 0.05966043
000030 2d 87 48 bf 53 16 db 3d 80 9c f7 be f3 1f fb 3c
       -0.7833126 0.106976174 -0.48361588 0.030654883
000040 a7 ec ec 3e 58 c0 9e bd 28 dd 63 3e 3b da 1f be
       0.462743 -0.077515304 0.22252333 -0.15610592
000050 d9 4f f8 3e 35 2d 89 bf 56 24 2f bd 4a b3 15 3e
       0.4849842 -1.0716921 -0.042759262 0.14619175
000060 11 ca e7 3e c0 23 00 3f 51 dd a9 be 62 d5 30 3d
       0.45271352 0.5005455 -0.33176664 0.043172248
000070 62 a4 ce 3d bf c5 e6 bd 75 2e ec 3c 77 aa 67 3e
       0.10089947 -0.11268186 0.028830746 0.22623621
000080 65 a7 31 bf a1 23 c2 bd c0 55 b9 3b 0d 16 7c 3e
       -0.6939605 -0.09479452 0.005655974 0.24617787
000090 e5 da 1e bf 31 58 e0 be 2f 1f 58 3e de fb 1b bd
       -0.62052757 -0.43817285 0.21105646 -0.038081996
0000a0 1d 35 5f 3e 14 06 62 3e 5d 26 1e bf df 54 37 bf
       0.21797605 0.22072631 -0.6177729 -0.7161388
0000b0 1f 09 f1 3e 59 86 79 3d 03 a9 a4 3d 40 a0 bc 3d
       0.4707727 0.06091914 0.08040049 0.09210253
0000c0 e5 4d 0d 3f a8 85 17 be 31 72 1c bf 1b d7 48 3d
       0.5519698 -0.1479708 -0.6111174 0.049033266
0000d0 ac 82 6e be a3 8d ec 3e 69 6e e3 3e 52 7a 40 bd
       -0.23292035 0.4620181 0.44420174 -0.046991654
0000e0 15 21 a3 3d cf 6e 0f 3f 25 a8 25 bd 43 42 97 3d
       0.07965294 0.56028455 -0.04044356 0.07385685
0000f0 80 35 c4 bb 22 74 1f bf 66 6a 8b 3d f8 53 e2 3e
       -0.005987823 -0.6228658 0.06807403 0.44204688
000100 9f d1 96 bd 6c 7b 48 3c 87 38 6a 3d a3 ff ef be
       -0.07364201 0.012236457 0.057182815 -0.46874723
000110 80 c3 37 3e 3f 7f 0e 3d 39 96 1f 3e 25 7b 62 3e
       0.17945671 0.03478932 0.15584649 0.22117288
000120 8a 05 e5 3e 4a 02 67 3e d2 da c7 be e2 df 0e 3d
       0.44730788 0.22559467 -0.39034134 0.03488148
000130 fb bb 74 3e 7d 9f be bd 01 30 38 3c 10 47 34 3d
       0.23899834 -0.09307764 0.011241914 0.044013083
000140 a6 94 9b bd 87 ce 33 be 2a 5d 85 3e aa aa 67 3d
       -0.07596712 -0.17559253 0.2604764 0.056559242
000150 4b 53 91 3e 0d dd e4 3c 50 ef ff bb 8f 89 7e 3d
       0.2838386 0.027937436 -0.0078105107 0.062142905
000160 ee 08 09 3e 6e 2e 9c be 3b 9c 14 bf 40 73 f6 3e
       0.13382313 -0.30504173 -0.5805089 0.48134804
000170 61 79 cd 3d 74 a4 3a 3b 6d e7 9e 3d 56 2b d7 3e
       0.10032917 0.002847937 0.07758985 0.4202525
000180 52 f4 ed be ce 97 52 3d 5c 27 7a 3c 22 93 4d 3d
       -0.46475464 0.051414303 0.015268173 0.050189145
000190 28 b6 8e be 33 93 9b 3d 6f 0f 9b 3d df 0e 94 3d
       -0.2787335 0.075964354 0.07571303 0.07229399
0001a0 bf b9 15 3e 9b b4 88 3d 55 d3 8a 3d fb a4 01 3e
       0.14621638 0.06675073 0.0677859 0.12660591
0001b0 10 3b 8f 3d 88 09 6d 3c 90 6b 01 3f 6e f1 df 3c
       0.06993687 0.014467604 0.5055475 0.027336802
0001c0 67 9b 76 bc 5d 8c ac 3d 16 3f b0 be d6 4b d0 3c
       -0.015051699 0.0842521 -0.3442313 0.025426786
0001d0 3c 19 c7 be e3 85 9c 3d 05 a6 cc bb c9 2f d9 3c
       -0.3888644 0.07642724 -0.006245377 0.026512044
0001e0 8e c0 30 be 7f 09 48 3d 89 73 e1 3e 61 09 ba be
       -0.17260954 0.04883718 0.4403346 -0.3633528
0001f0 af ef a2 3c 0d 72 2a 3d df 27 e6 3d 63 49 e1 bc
       0.01988968 0.041612674 0.112380736 -0.027500814
000200 65 ec 09 3e fc ad bc be db a9 23 3d 27 f5 5b 3d
       0.13469084 -0.3685149 0.03995691 0.053700592
000210 71 bc ca 3d 45 97 fc bc cc 0b 69 bf 7a 63 6b bc
       0.098992236 -0.03083385 -0.91033626 -0.014366979
000220 39 00 90 bd 8a 5a 43 3d d0 23 c1 3e 07 bf a3 3b
       -0.070312925 0.047693767 0.37722635 0.0049971375
000230 b2 0a 4f bf d2 80 f9 3d 73 8c ff be 77 0a 24 3d
       -0.80875695 0.12182774 -0.49911842 0.040049043
000240 6a e2 f6 3e 07 52 59 bd d0 c7 63 3e 55 38 f0 bd
       0.48219615 -0.053056743 0.22244191 -0.117294945
000250 83 13 01 3f e6 da 89 bf 2c e7 83 bd 63 e9 24 3e
       0.504204 -1.0769928 -0.06440577 0.16104655
000260 9d c2 f2 3e ad a9 09 3f f5 f4 bd be dd ce 45 3d
       0.47414103 0.5377453 -0.3710095 0.048292983
000270 79 0e 16 3e 9c 96 b9 bd c5 fa 9b 3c f4 a8 66 3e
       0.14653958 -0.090619296 0.019040475 0.22525388
000280 08 53 33 bf f9 9e 3c bd a1 7c fb bc bf c0 5c 3e
       -0.7004857 -0.046050046 -0.030699076 0.21557902
000290 97 1e 10 bf 47 3e d7 be 0d 0f 7b 3e 7d e9 85 bd
       -0.56296676 -0.420397 0.2451746 -0.06538675
0002a0 05 24 50 3e 3b 1f 5a 3e ef 80 1d bf 52 af 3b bf
       0.2032624 0.21300976 -0.6152486 -0.7331439
0002b0 2a ad 04 3f bc 5a fe 3a 3c 02 81 3d 8c 9e b5 3d
       0.5182673 0.0019405703 0.06299254 0.08868131
0002c0 81 51 13 3f c4 d1 3a be 44 9d 0d bf ab 60 c9 3c
       0.5754624 -0.18244082 -0.55318093 0.024582228
0002d0 f7 83 70 be b9 09 e9 3e 99 44 e1 3e de a2 e2 bc
       -0.2348784 0.4551523 0.43997648 -0.027665552
0002e0 57 42 99 3d a0 24 08 3f 60 a3 9f bc 5c 48 90 3d
       0.074833564 0.53180885 -0.019487083 0.070450515
0002f0 52 85 42 bd f4 e8 1b bf be 9e 3c 3d b3 d7 ea 3e
       -0.047490425 -0.60902333 0.046049826 0.4586769
000300 46 7a 55 bd 4f 43 61 3d a3 25 01 3d a6 24 fd be
       -0.052118562 0.05499583 0.031530034 -0.49442023
000310 e8 25 0b 3e c5 a9 49 3d b5 8f 13 3e 05 15 74 3e
       0.13588679 0.04923417 0.14410289 0.23836143
000320 f5 31 cf 3e f9 63 68 3e eb bc ce be d6 1e 61 bc
       0.40467802 0.22694387 -0.40378508 -0.013740262
000330 6f 2a 4a 3e a9 73 ba bd 88 2f 16 3d 12 db 1f 3d
       0.1974275 -0.09104092 0.036666423 0.03902728
000340 d3 b4 5d bd 06 c8 42 be c4 02 82 3e 35 9b 79 3d
       -0.054127526 -0.19021615 0.25392735 0.060939033
000350 e7 47 96 3e 10 9a 8b 3c 4d ef 51 bd 13 7f 97 3d
       0.29351732 0.017041236 -0.051253606 0.07397284
000360 5a 0e b0 3d 31 b6 9a be 89 1d 12 bf 9a 90 d9 3e
       0.08596487 -0.30217126 -0.5707632 0.42493135
000370 8f ae f1 3d ad 1e be bc 7c 99 7a 3d 88 35 c6 3e
       0.118008725 -0.023207987 0.06118153 0.38712716
000380 e1 38 fd be ba 50 80 3d c7 05 91 3d c5 20 4a 3d
       -0.49457458 0.06265397 0.0708118 0.049347658
000390 50 c1 87 be ff 7e dd 3c 48 e5 35 3d c1 ae 03 3d
       -0.26514673 0.027038096 0.044408113 0.03214908
0003a0 71 cd 0f 3e e0 aa 01 3e e1 62 c4 3d b0 a0 c7 3d
       0.14043213 0.1266284 0.09589172 0.097474456
0003b0 b9 9a 1b 3d d6 dc 53 3d 15 c2 f1 3e 53 18 1f 3d
       0.037989352 0.051724277 0.47218385 0.038841557
0003c0 88 c0 a7 3a 5a f8 aa 3d ee 18 97 be 7f f4 0c 3c
       0.0012798468 0.083481506 -0.29511207 0.008603214
0003d0 d8 60 b3 be 18 ab fc 3d 21 6b 16 3d f8 c3 34 3d
       -0.35034823 0.12337321 0.03672326 0.044132203
0003e0 9d cd 2c be ef b5 11 3c b5 4d f0 3e a0 32 ab be
       -0.1687531 0.008893474 0.46934286 -0.3343706
0003f0 77 09 23 3d 7c e0 32 3d dc e0 f9 3d 1a 8b 69 bd
       0.03980395 0.043671116 0.12201092 -0.057017423

layer2.bias f4 [128]
000000 f3 06 c1 3e 25 41 c1 3e 68 f5 d3 3e a6 30 54 42
       0.37700614 0.37745014 0.41398168 53.04751
000010 1c 8c 1b bd cf ed ca 3e ca 25 db 3a 2e 69 54 42
       -0.037975416 0.3963456 0.0016719636 53.102715
000020 5d 4a 55 42 69 e9 cb 3e b9 db 53 42 c4 dc cb 3e
       53.32262 0.39826515 52.964573 0.39816868
000030 36 96 dc 3e f4 59 dc 3e 3e 94 d2 3e 44 03 d6 3e
       0.43083352 0.4303738 0.41128725 0.41799366
000040 18 cd c9 3e 10 03 54 42 df 76 54 42 6f 41 be 3e
       0.39414287 53.00299 53.116085 0.37159297
000050 c1 ab c9 3e 3a 97 53 42 e3 da c9 3e ca 59 ca 3e
       0.3938885 52.897682 0.3942481 0.3952163
000060 87 b3 cf 3e 40 56 54 42 54 01 54 42 87 2a cb 3e
       0.40566656 53.08423 53.001297 0.39680883
000070 05 41 54 42 c9 70 d7 3e 61 f3 d8 3e 38 33 54 42
       53.063496 0.42078236 0.42373183 53.05002
000080 c8 f8 53 42 35 dd cd 3e bc a5 b9 3e 29 26 db 3e
       52.99295 0.4020783 0.36259258 0.4280255
000090 81 0d c2 3e 8b 9a d5 3e 24 02 54 42 39 18 d8 3e
       0.37900928 0.4171947 53.00209 0.4220598
0000a0 07 4b 54 42 57 17 d0 3e a2 42 df 3e 04 8b d9 3e
       53.07327 0.40642807 0.43605524 0.42488873
0000b0 a5 da c5 3e d9 90 53 42 7a 3a 53 42 44 85 bd 3e
       0.38643375 52.891453 52.807106 0.37015736
0000c0 88 45 e3 3e 8e 9e d2 3e 00 f8 53 42 4b 62 54 42
       0.44388986 0.41136593 52.992188 53.09599
0000d0 74 b1 e2 3e 9b 6a 9d 3c 1b 0f d2 3e d4 ce d8 3e
       0.4427601 0.019215873 0.4102715 0.42345297
0000e0 30 64 54 42 05 b5 da 3e d3 a1 62 3b d9 4e c0 3e
       53.09784 0.42716232 0.0034581318 0.37560156
0000f0 ce 82 53 42 f4 15 54 42 ee 69 df 3e 69 17 c3 3e
       52.87774 53.02144 0.43635505 0.38103798
000100 5f 3c cd 3e 8a 46 54 42 9c 30 c8 3e b9 02 da 3e
       0.40085122 53.068886 0.39099586 0.42580202
000110 cc 9b c6 3e 86 a3 cc 3e 93 a6 db 3e 72 47 e1 3e
       0.3879074 0.39968508 0.42900524 0.4399982
000120 5d 9a 53 42 29 45 54 42 e5 89 de 3e 02 93 d9 3e
       52.900745 53.06754 0.4346458 0.4249497
000130 ca 87 54 42 e4 eb cb 3e 13 bc d7 3e 8b 67 cf 3e
       53.132607 0.39828408 0.42135677 0.40508685
000140 7e 03 54 42 82 14 da 3e 87 9d 54 42 a5 5b 54 42
       53.00341 0.4259377 53.153835 53.089497
000150 e1 65 d8 3e 42 06 d2 3e bd 22 de 3e 56 97 c9 3e
       0.42265227 0.410204 0.43385878 0.39373273
000160 7d 77 f0 3b 9c 92 ce 3e e4 3f d0 3e d7 aa c7 3b
       0.007338463 0.4034623 0.40673745 0.0060933637
000170 6e 1d d3 3e 05 7f 53 42 e5 14 df 3c db df da 3e
       0.4123339 52.874043 0.027231643 0.42748913
000180 96 33 54 42 3d 61 54 42 b3 bd d8 3e e0 2a ba 3e
       53.050377 53.09496 0.4233223 0.36360836
000190 07 52 db 3e 00 6f ce 3e 97 b5 d4 3e a1 69 54 42
       0.4283602 0.4031906 0.41544792 53.103153
0001a0 2d 89 c2 3e 03 6d d3 3e b2 02 54 42 0f 07 55 42
       0.37995282 0.41294107 53.002632 53.256893
0001b0 44 32 c3 3e 28 6b d6 3e 8a 6d 54 42 0f 4f 54 42
       0.38124287 0.4187863 53.10697 53.077206
0001c0 82 7e d6 3c 53 9d e0 3e 0a 90 55 42 78 9a de 3e
       0.02618337 0.4387003 53.390663 0.43477225
0001d0 5f b0 d8 3e 4b 2d 54 42 99 3f 54 42 ab 28 54 42
       0.4232206 53.04423 53.062107 53.039715
0001e0 25 5f db 3e 90 df 05 bd 46 82 da 3e b1 6c 54 42
       0.42846027 -0.03268391 0.42677516 53.106144
0001f0 84 73 54 42 e8 1f c8 3e d8 24 dc 3e 52 6d 54 42
       53.11281 0.39086843 0.4299686 53.10676

layer3.weight f4 [17, 128]
000000 ae 6f d3 be e4 36 d8 be 1c 0c d6 be 74 e1 0a 42
       -0.41296142 -0.42229378 -0.41806114 34.72017
000010 e9 6a 81 3c 50 46 da be 8a 9e 61 3c a6 0f 0b 42
       0.015798049 -0.4263177 0.013770709 34.76528
000020 19 7e 09 42 47 10 c8 be 69 17 0b 42 86 97 d7 be
       34.373142 -0.3907492 34.77286 -0.4210779
000030 59 50 e8 be e1 44 c7 be 03 5a e4 be fd 37 bd be
       -0.453738 -0.38919738 -0.44599923 -0.36956778
000040 7a ee c9 be 5c e1 0a 42 b5 06 0b 42 fe 30 da be
       -0.39439756 34.720078 34.75655 -0.42615503
000050 57 91 dc be b7 fc 0a 42 62 fd d2 be b4 9c c5 be
       -0.43079636 34.74679 -0.4120894 -0.38596117
000060 6e d4 d3 be 92 ed 0a 42 75 0b 0b 42 a1 92 e0 be
       -0.41373008 34.732002 34.76119 -0.4386187
000070 bb 1a 0b 42 ee a1 d1 be 2a 06 cf be 2e e5 0a 42
       34.776104 -0.40943855 -0.4043439 34.72381
000080 13 15 0b 42 54 55 c4 be 48 65 02 bf be 89 e0 be
       34.77058 -0.3834635 -0.5093579 -0.4385509
000090 4c 12 d6 be 95 1e c0 be 9e 16 0b 42 4c 37 d0 be
       -0.41810834 -0.37523332 34.772087 -0.40667188
0000a0 81 12 0b 42 bc 42 c3 be 85 eb ed be 88 a9 d8 be
       34.76807 -0.38136852 -0.4646875 -0.42316842
0000b0 52 4b c5 be 04 00 0b 42 49 27 0b 42 42 95 cf be
       -0.38534027 34.750015 34.788364 -0.40543562
0000c0 f7 55 ca be 96 1d d7 be 21 f8 0a 42 21 13 0b 42
       -0.3951871 -0.4201476 34.742313 34.76868
0000d0 e8 cf cb be 69 d5 05 3d 3a e3 c1 be 4c 8c c8 be
       -0.39807057 0.032674227 -0.37868673 -0.39169538
0000e0 4d f7 0a 42 36 20 d6 be 96 a5 00 3d 25 f5 dd be
       34.741505 -0.4182145 0.031407915 -0.43351093
0000f0 89 21 0b 42 16 06 0b 42 f0 48 cc be 0e 32 d5 be
       34.78275 34.755943 -0.39899397 -0.4163975
000100 3d 07 dd be f7 23 0b 42 c8 53 ca be a9 9e e4 be
       -0.43169585 34.785122 -0.39517045 -0.44652298
000110 07 94 c6 be 95 22 e8 be 5a 1b da be e4 d0 cd be
       -0.3878481 -0.45338884 -0.42598993 -0.40198433
000120 a5 be 0a 42 59 12 0b 42 4a 5b d3 be 6a 4c d7 be
       34.686176 34.767918 -0.41280586 -0.42050487
000130 7e ff 0a 42 6e 37 e1 be e1 a6 ef be 85 e9 c5 be
       34.749504 -0.43987602 -0.46807006 -0.38654724
000140 8a 18 0b 42 6b b9 e0 be 7c dd 0a 42 8d 13 0b 42
       34.773964 -0.43891463 34.716293 34.769093
000150 47 05 ec be a3 3c e3 be 3d 34 b8 be 82 37 e3 be
       -0.46097776 -0.443822 -0.35977355 -0.44378287
000160 2c cb cc 3c 65 7b c8 be a7 45 de be b0 5a 0e 3d
       0.024999224 -0.39156643 -0.43412516 0.034754455
000170 c2 51 c0 be 95 c1 0a 42 a1 f5 41 3c ed 54 ca be
       -0.37562376 34.689045 0.011838348 -0.39517918
000180 07 dd 0a 42 e6 0d 0b 42 21 2b e8 be 2c b6 fd be
       34.715847 34.763573 -0.45345405 -0.4955305
000190 db 09 de be a8 30 d2 be c6 fc ca be ad 02 0b 42
       -0.43366894 -0.41052747 -0.39645976 34.752613
0001a0 4d 1b fd be 18 5f d6 be a6 16 0b 42 ae 98 0a 42
       -0.4943489 -0.41869426 34.772118 34.6491
0001b0 01 0b da be b2 c5 e7 be e5 d4 0a 42 41 e3 0a 42
       -0.4258652 -0.45268017 34.707905 34.721928
0001c0 f7 48 30 bc 59 5d cd be 78 ca 09 42 f4 c3 d7 be
       -0.010759584 -0.4011028 34.447723 -0.42141688
0001d0 fb 06 ca be 49 eb 0a 42 cd f2 0a 42 35 22 0b 42
       -0.3945845 34.72977 34.73711 34.783405
0001e0 6b 06 db be 01 d9 ba 3c 1c 60 d1 be 97 fb 0a 42
       -0.42778334 0.022808554 -0.40893638 34.745693
0001f0 39 f9 0a 42 dc c4 d6 be 5f 11 d6 be bf 04 0b 42
       34.74338 -0.41947067 -0.41810128 34.754635
000200 cb b0 b5 be ae 17 ba be 03 41 c5 be 7e 24 0b 42
       -0.35486445 -0.3634619 -0.38526163 34.785637
000210 72 56 fb bc 42 6f d0 be 39 3a 3c 3c fc 18 0b 42
       -0.030680869 -0.40709883 0.011488491 34.7744
000220 91 d6 09 42 01 90 bb be 11 e6 0b 42 1e 84 d2 be
       34.459538 -0.36633304 34.974674 -0.41116422
000230 f9 76 d0 be fe 9a cc be ae 1e cd be 7c c9 bb be
       -0.4071577 -0.39962 -0.4006247 -0.36677158
000240 3e 0d cc be f6 9d 0b 42 43 07 0b 42 68 29 cd be
       -0.39853853 34.90426 34.75709 -0.40070653
000250 6b 4a b8 be 40 3e 0b 42 14 84 cc be 32 e3 c1 be
       -0.35994276 34.81079 -0.39944518 -0.3786865
000260 bf 82 dd be 53 2a 0b 42 fb 77 0b 42 5b 6d c4 be
       -0.43263814 34.791332 34.86717 -0.38364682
000270 b1 1c 0b 42 19 b5 d7 be 4c 54 d5 be b2 2c 0b 42
       34.77802 -0.42130354 -0.41665876 34.793648
000280 59 65 0b 42 30 62 d6 be a5 2a 02 bf 1e 01 d5 be
       34.848972 -0.41871786 -0.5084632 -0.41602415
000290 6d c2 cc be 34 ba d2 be 25 3b 0b 42 8a de d6 be
       -0.39992085 -0.41157687 34.80776 -0.4196666
0002a0 0a 1d 0b 42 fc b1 ab be d1 c9 e2 be ca 03 d2 be
       34.77836 -0.3353423 -0.442946 -0.41018516
0002b0 48 15 c2 be 21 fe 0a 42 5f 2c 0b 42 d4 35 d6 be
       -0.3790686 34.748173 34.79333 -0.41837943
0002c0 ec c5 c8 be 50 7c cc be 89 25 0b 42 63 29 0b 42
       -0.39213502 -0.39938593 34.786655 34.790417
0002d0 c6 24 d1 be b6 11 5f bb 80 b2 bd be 9b 93 cd be
       -0.40848368 -0.0034037656 -0.37050247 -0.40151677
0002e0 e2 fc 0a 42 fa f8 d7 be 12 36 d5 bc 2e 8c d0 be
       34.746956 -0.42182142 -0.02602676 -0.4073195
0002f0 67 28 0b 42 c0 3d 0b 42 7f a1 be be 6e f1 c6 be
       34.789455 34.810303 -0.37232587 -0.3885607
000300 0a 89 cc be 7b 0d 0b 42 87 e8 c6 be 35 af dc be
       -0.39948303 34.763165 -0.3884928 -0.43102422
000310 bd 66 c9 be 01 d0 de be 99 86 d2 be e0 91 dc be
       -0.39336196 -0.4351807 -0.41118315 -0.43080044
000320 cc e2 0a 42 ce ee 0a 42 26 de d0 be 60 01 bb be
       34.72148 34.733208 -0.40794486 -0.36524487
000330 92 24 0b 42 35 e3 ef be 17 b4 c6 be 12 a1 b7 be
       34.785713 -0.46853033 -0.38809273 -0.35865074
000340 d7 30 0b 42 98 82 d4 be 0c bd 0a 42 78 2b 0b 42
       34.797695 -0.41505885 34.684616 34.79245
000350 56 66 d6 be 48 74 cd be cc 86 b7 be 2c 97 cf be
       -0.4187495 -0.40127778 -0.3584503 -0.40545022
000360 1c 5c 01 3d ab b6 b7 be 2a f9 c5 be fb 8f c9 bc
       0.031581983 -0.35881552 -0.3866666 -0.024604788
000370 5c 43 c3 be a8 32 0b 42 d1 86 b2 39 aa 25 df be
       -0.3813733 34.79947 0.00034051252 -0.43583423
000380 4e ff 0a 42 a2 fc 0a 42 ad cb c6 be 30 25 de be
       34.74932 34.74671 -0.38827267 -0.43387747
000390 27 b7 b0 be ed 00 c5 be 6e 61 d7 be 02 11 0b 42
       -0.34514734 -0.3847727 -0.4206652 34.76661
0003a0 21 2c e1 be 78 ab dd be 51 45 0b 42 e4 81 0a 42
       -0.4397898 -0.43294883 34.81769 34.626846
0003b0 3b a6 ae be ca 99 d2 be 42 29 0b 42 7c 0a 0b 42
       -0.341112 -0.41132957 34.79029 34.76024
0003c0 29 9e 37 bb 67 7c dd be 9b 57 0a 42 6c d4 d9 be
       -0.0028017855 -0.43258974 34.585552 -0.42544878
0003d0 e4 20 c9 be a8 30 0b 42 2f 1c 0b 42 d8 00 0b 42
       -0.39282906 34.797516 34.777523 34.750824
0003e0 3d f5 ba be b4 cb db bc b3 a3 dd be aa 1f 0b 42
       -0.36515227 -0.026830532 -0.43288955 34.780922
0003f0 06 1d 0b 42 c4 4d c6 be d0 11 d5 be 3d 2d 0b 42
       34.778343 -0.38731205 -0.41615152 34.794178

layer3.bias f4 [17]
000000 f5 fd c2 41 49 bc 0d 42 64 d7 a5 41 79 cb e7 41
       24.374002 35.433872 20.730171 28.974352
000010 59 7f f6 41 3e fa f4 41 12 eb 52 41 c7 97 86 41
       30.812181 30.622189 13.18239 16.82411
000020 9f 92 78 41 1f 08 96 41 49 fe cf 41 dd a2 cd 41
       15.535796 18.753965 25.999163 25.704523
000030 ad d8 d0 41 5d 46 d2 41 ff a7 cf 41 b4 48 cd 41
       26.105799 26.284357 25.95703 25.6605
000040 ce 7a ef 41
       29.934963

layer1.weight f4 [128, 109]
000000 59 6e 59 42 55 df 59 42 78 0d 57 42 6c 7b 3d 42
       54.35776 54.468098 53.763153 47.37053
000010 4b c1 4a 42 f9 9d 10 42 76 fb 10 42 5b b4 11 42
       50.688763 36.15427 36.245567 36.42613
000020 96 a8 10 42 d6 a1 12 42 90 02 13 42 21 48 11 42
       36.164635 36.658043 36.752502 36.32044
000030 1c 29 10 42 06 88 10 42 99 5b 10 42 5c 47 11 42
       36.040146 36.132835 36.08945 36.319687
000040 2d d9 0f 42 76 f1 12 42 cd 08 11 42 1b 3e 10 42
       35.962086 36.7358 36.258595 36.06065
000050 f7 2f 11 42 d2 9d 0c 42 c4 37 11 42 bc 7d 0f 42
       36.29684 35.15412 36.30446 35.872787
000060 1d d1 14 42 bc 7d 13 42 29 14 0f 42 89 11 10 42
       37.204212 36.872787 35.769688 36.017124
000070 2d b0 10 42 21 2e 12 42 e5 ed 0d 42 f6 45 11 42
       36.172047 36.545048 35.48232 36.31832
000080 16 26 10 42 53 a1 0a 42 c1 b1 10 42 0d 2a 11 42
       36.037193 34.657543 36.173588 36.291065
000090 94 cd 11 42 7c 08 14 42 f5 2d 0d 42 5a c4 12 42
       36.45076 37.008286 35.29488 36.69175
0000a0 bb d6 10 42 7e ae 10 42 2a ad 10 42 0c 4e 12 42
       36.209698 36.170403 36.169106 36.576218
0000b0 91 af 10 42 0e a6 0e 42 23 d3 12 42 a1 03 10 42
       36.17145 35.662163 36.70619 36.003544
0000c0 b8 48 11 42 2c 77 13 42 92 d1 0f 42 dd c1 11 42
       36.321014 36.86638 35.95466 36.43932
0000d0 e2 58 10 42 98 d7 11 42 d4 7d 12 42 21 af 0f 42
       36.0868 36.46054 36.62288 35.921024
0000e0 ba 84 12 42 05 9d 47 42 e3 12 47 42 f2 ab 47 42
       36.629616 49.90334 49.768444 49.917915
0000f0 0c 2b 48 42 98 2b 47 42 f6 57 45 42 6e e5 45 42
       50.042038 49.792572 49.3359 49.474052
000100 aa 64 45 42 f3 b7 46 42 78 6a 45 42 cc 25 46 42
       49.348305 49.679638 49.353973 49.53691
000110 ca df 44 42 af dd 43 42 c2 a0 46 42 20 37 48 42
       49.218544 48.966488 49.65699 50.053833
000120 5c ca 47 42 9f cd 46 42 eb 3a 47 42 2d cc 46 42
       49.947617 49.7008 49.807537 49.69939
000130 5a 9f 46 42 58 df 46 42 9e eb 44 42 6b 29 46 42
       49.655617 49.71811 49.230095 49.540447
000140 57 af 44 42 c8 b5 44 42 97 04 44 42 17 ed 46 42
       49.17123 49.17752 49.004482 49.731533
000150 2c a3 45 42 38 7d 47 42 22 6f 46 42 6c 0f 45 42
       49.409348 49.872284 49.60853 49.26506
000160 26 14 47 42 0a fb 45 42 6e 96 45 42 ef 5f 46 42
       49.769676 49.495155 49.396904 49.593685
000170 1f 38 45 42 c8 50 45 42 cd 2a 45 42 dd df 43 42
       49.304806 49.328888 49.291798 48.968616
000180 d4 1b 49 42 c6 0b 47 42 8d a3 47 42 24 ca 46 42
       50.277176 49.761497 49.909718 49.697403
000190 51 c5 46 42 74 28 46 42 f3 37 47 42 66 95 46 42
       49.69269 49.539505 49.804638 49.645897
0001a0 7e 7a 44 42 77 42 47 42 81 e0 44 42 b3 4b 44 42
       49.11962 49.814907 49.219242 49.073925
0001b0 50 07 44 42 e7 b4 5e 42 01 53 5e 42 48 43 59 42
       49.00714 55.676662 55.58106 54.315704
0001c0 cd fb 3d 42 9b cf 4a 42 73 e6 0f 42 63 38 12 42
       47.4959 50.70274 35.975048 36.555065
0001d0 44 53 12 42 0e 55 10 42 b6 cd 12 42 5e f8 13 42
       36.581314 36.08306 36.70089 36.992546
0001e0 12 4a 12 42 7c 76 11 42 2b 03 10 42 ec 02 11 42
       36.572334 36.365707 36.003094 36.252853
0001f0 38 b0 11 42 58 58 11 42 09 93 13 42 76 a9 11 42
       36.42209 36.336273 36.89359 36.41549
000200 a0 09 11 42 d0 41 12 42 fb 6a 0d 42 84 60 11 42
       36.2594 36.56427 35.354473 36.344254
000210 36 83 10 42 9c 9b 15 42 da 24 15 42 5d 08 10 42
       36.128136 37.401962 37.285988 36.008167
000220 81 cf 10 42 0b 09 10 42 a7 ca 12 42 29 be 0e 42
       36.20264 36.00883 36.697903 35.685703
000230 33 62 12 42 10 9e 10 42 37 06 0c 42 42 6f 11 42
       36.595898 36.154358 35.00607 36.35865
000240 aa 96 11 42 0e 54 12 42 54 84 13 42 16 05 0f 42
       36.397133 36.582085 36.879227 35.754967
000250 d8 05 14 42 a4 28 11 42 a2 90 11 42 67 87 11 42
       37.005707 36.28969 36.391243 36.38223
000260 c9 06 14 42 d2 2b 12 42 53 25 0f 42 fa a6 13 42
       37.006626 36.542793 35.78645 36.913063
000270 b9 67 11 42 2c d5 11 42 8f a3 13 42 8e 6d 11 42
       36.35129 36.458176 36.909725 36.356987
000280 02 82 12 42 bc 06 11 42 51 f2 13 42 18 e9 13 42
       36.62696 36.256577 36.986637 36.97763
000290 d6 04 10 42 e9 e4 12 42 03 d2 46 42 8f 5b 46 42
       36.004723 36.723545 49.70509 49.589413
0002a0 67 e0 48 42 1c 19 48 42 9e 9a 46 42 45 a6 45 42
       50.219143 50.02452 49.650993 49.412373
0002b0 9a fb 45 42 2c 0f 46 42 db 19 47 42 83 c9 46 42
       49.495705 49.514816 49.77525 49.69679
0002c0 b1 47 47 42 ed 84 45 42 33 7f 45 42 ad e3 46 42
       49.82001 49.37981 49.374218 49.72234
0002d0 32 e9 47 42 81 92 46 42 6a 0b 46 42 5b 60 47 42
       49.97773 49.64307 49.511147 49.844097
0002e0 96 d6 46 42 53 17 46 42 31 12 47 42 df 90 45 42
       49.709557 49.522778 49.767765 49.391476
0002f0 df dc 46 42 51 20 46 42 35 08 46 42 66 05 46 42
       49.715694 49.53156 49.508015 49.505272
000300 f1 f1 46 42 cd ae 45 42 84 06 47 42 5c 77 45 42
       49.73627 49.420704 49.756363 49.36656
000310 a9 0d 45 42 85 1f 46 42 64 d0 46 42 39 d4 45 42
       49.26334 49.53078 49.703506 49.45725
000320 47 ef 46 42 c6 be 46 42 a2 cd 45 42 78 4e 45 42
       49.73367 49.686302 49.450813 49.32663
000330 ee 3f 44 42 9a 2e 48 42 cd 35 47 42 59 a9 47 42
       49.06243 50.04551 49.80254 49.91538
000340 12 4b 47 42 2d f2 46 42 cc 41 46 42 6d 77 46 42
       49.82331 49.7365 49.564255 49.616627
000350 19 d9 46 42 bc e6 44 42 57 bb 46 42 e4 e8 45 42
       49.71201 49.225327 49.68295 49.477432
000360 6d 1b 46 42 ec 8f 45 42 cc 50 5a 42 47 bf 5a 42
       49.526783 49.39055 54.578903 54.686794
000370 18 85 58 42 01 d7 3d 42 ad 08 4b 42 57 43 11 42
       54.129974 47.459965 50.758472 36.31576
000380 77 92 11 42 2f 89 12 42 cc ae 10 42 b4 42 13 42
       36.393032 36.63397 36.1707 36.81514
000390 85 95 13 42 9c 9a 11 42 14 ca 10 42 ee 26 11 42
       36.896015 36.400986 36.197342 36.288017
0003a0 f3 bd 10 42 65 a8 11 42 05 2c 10 42 5c 46 13 42
       36.185497 36.414448 36.042988 36.81871
0003b0 f4 50 11 42 1b a9 10 42 9c d8 11 42 84 33 0d 42
       36.329056 36.165142 36.461533 35.30031
0003c0 cb d2 11 42 b3 e7 0f 42 82 34 15 42 01 42 14 42
       36.455853 35.97627 37.301277 37.064457
0003d0 24 e6 0f 42 65 c4 10 42 16 41 11 42 53 98 12 42
       35.974747 36.19179 36.31356 36.648754
0003e0 04 4f 0e 42 7a cb 11 42 5c 78 10 42 12 92 0b 42
       35.577164 36.448708 36.11754 34.892647
0003f0 65 13 11 42 48 66 11 42 f8 fb 11 42 e5 31 14 42
       36.26894 36.349884 36.496063 37.048725

layer1.bias f4 [128]
000000 96 83 5c 42 c2 e0 5a 42 c7 4e 5d 42 42 6f 5d 42
       55.1285 54.71949 55.32693 55.35865
000010 d4 72 5d 42 ee c6 85 bc c9 bf 5b 42 6e 6f 5d 42
       55.362137 -0.016330209 54.93729 55.358818
000020 08 4a 5a 42 48 e6 5c 42 60 ee 5b 42 61 15 5d 42
       54.572296 55.224884 54.982788 55.270878
000030 4d 81 5b 42 8f 77 5d 42 83 82 5a 42 9d 9b 5b 42
       54.87627 55.366756 54.627453 54.901966
000040 14 91 59 42 88 17 5a 42 9a 44 5b 42 44 94 57 42
       54.391678 54.52298 54.816994 53.89479
000050 65 91 59 42 2a 87 5b 42 05 3b 5a 42 66 d2 5c 42
       54.391987 54.881996 54.557636 55.205467
000060 b8 0f 5b 42 58 cd 58 42 14 9a 59 42 a2 48 5d 42
       54.76535 54.20053 54.400467 55.32093
000070 77 04 5d 42 8c 12 5a 42 b8 3d 5d 42 74 60 5b 42
       55.25436 54.518112 55.310272 54.844193
000080 29 ba 5a 42 05 70 5d 42 c8 c6 a8 41 cd 65 5b 42
       54.681797 55.359394 21.097061 54.849415
000090 02 a7 5b 42 b1 89 59 42 35 83 5a 42 4d b8 5d 42
       54.913094 54.384464 54.62813 55.42998
0000a0 3f e6 5c 42 8b 0c 5c 42 46 3f 5b 42 55 d9 5b 42
       55.22485 55.01225 54.81179 54.96224
0000b0 60 56 30 42 f2 6f 5d 42 45 89 5d 42 49 53 5d 42
       44.08435 55.35932 55.384052 55.331333
0000c0 44 af 56 42 b5 cd 59 42 cb 76 5a 42 b2 64 5d 42
       53.671158 54.450886 54.61601 55.348335
0000d0 7f 87 5a 42 c5 7a 59 42 64 58 5b 42 89 4b 5d 42
       54.63232 54.369892 54.83632 55.323765
0000e0 20 78 5d 42 00 c9 59 42 b8 18 5a 42 32 50 5d 42
       55.36731 54.44629 54.52414 55.328316
0000f0 40 30 5d 42 10 91 5b 42 e6 4c 5d 42 f4 fe 5a 42
       55.29712 54.891663 55.325096 54.748978
000100 40 13 5d 42 6b e2 5c 42 eb 5c 5d 42 f1 97 59 42
       55.2688 55.22111 55.34074 54.39838
000110 a9 cf 5c 42 55 37 5d 42 49 af 5c 42 8f bb 5b 42
       55.202793 55.304035 55.171177 54.933163
000120 21 ce 59 42 60 5a 5c 42 78 b9 56 42 dd dd 64 bc
       54.451298 55.088257 53.68112 -0.013968912
000130 89 1c 5b 42 59 17 5a 42 e2 7a 5d 42 c2 2e 5d 42
       54.777866 54.5228 55.370003 55.295662
000140 ca 99 5d 42 80 ed 59 42 3a a6 5b 42 73 70 5d 42
       55.400185 54.481934 54.91233 55.359814
000150 c4 78 5b 42 1b ac 5c 42 0a 57 5d 42 5b 42 5d 42
       54.867935 55.16807 55.335 55.3148
000160 71 57 5d 42 f5 ba 59 42 85 5a 5b 42 75 f9 5a 42
       55.335392 54.432575 54.838398 54.74361
000170 53 50 5d 42 e4 50 5d 42 47 e0 5a 42 3c cb 5a 42
       55.32844 55.328995 54.71902 54.69847
000180 c0 5d 5a 42 28 c3 5a 42 ff 62 5d 42 de 32 5d 42
       54.591553 54.690582 55.346676 55.299675
000190 95 26 5a 42 8e 59 5d 42 92 f1 5c 42 20 82 5d 42
       54.537678 55.337456 55.23591 55.377075
0001a0 86 ab 5c 42 ec 44 5d 42 c3 4c 5d 42 1e fb 5c 42
       55.167503 55.317307 55.324963 55.24523
0001b0 c5 dc 5c 42 4d f0 5c 42 88 0b 58 42 9b 4e 5c 42
       55.215595 55.23467 54.01126 55.076763
0001c0 ff 56 e0 3a 4e 5d 5d 42 04 c7 59 42 e7 24 49 bb
       0.0017115771 55.341118 54.44435 -0.0030692162
0001d0 e4 c3 59 42 6e 5c 5d 42 dc 3a 5d 42 67 0f 5d 42
       54.4413 55.340263 55.30748 55.26504
0001e0 84 08 5a 42 68 4b 5d 42 d4 c5 5a 42 80 02 58 42
       54.508316 55.32364 54.69319 54.00244
0001f0 bc 39 5c 42 64 38 5d 42 a2 56 5d 42 82 6a 5d 42
       55.05638 55.30507 55.334602 55.35401

layer2.weight f4 [128, 128]
000000 50 17 21 3e 78 ee b8 be ba c0 4d 3d ae 54 d6 3c
       0.1573155 -0.36119437 0.050232626 0.026163425
000010 54 a3 58 3d 29 04 a8 3c 54 fd 6f bf 4a 63 98 bc
       0.052890137 0.020509796 -0.93745923 -0.018602032
000020 04 27 3a bd 8e d7 64 3d c8 f2 ca 3e fc 6a 74 3d
       -0.045447364 0.05586963 0.39638352 0.05967234
000030 53 91 48 bf 06 22 db 3d fc a8 f7 be 38 2d fb 3c
       -0.7834675 0.10699849 -0.48371112 0.03066121
000040 23 f9 ec 3e ee c8 9e bd dd e8 63 3e d1 e2 1f be
       0.46283826 -0.07753168 0.22256799 -0.15613867
000050 5e 5c f8 3e 3d 34 89 bf b3 2d 2f bd 18 bb 15 3e
       0.4850797 -1.0719067 -0.04276819 0.14622152
000060 c5 d5 e7 3e 96 2a 00 3f e8 e5 a9 be c0 de 30 3d
       0.4528028 0.5006498 -0.33183217 0.04318118
000070 50 af ce 3d 74 d1 e6 bd ec 3a ec 3c 2b b6 67 3e
       0.10092032 -0.11270419 0.02883669 0.22628085
000080 c4 b0 31 bf c9 2d c2 bd 1c 5f b9 3b 52 23 7c 3e
       -0.6941035 -0.09481389 0.00565709 0.24622849
000090 7b e3 1e bf e4 63 e0 be 1c 2a 58 3e a6 03 1c bd
       -0.6206586 -0.4382621 0.21109813 -0.038089417
0000a0 cf 40 5f 3e ca 11 62 3e f3 2e 1e bf 3c 5e 37 bf
       0.21802066 0.22077098 -0.6179039 -0.71628165
0000b0 9c 15 f1 3e 9e 93 79 3d 9a b1 a4 3d 66 aa bc 3d
       0.470868 0.060931794 0.08041687 0.092121884
0000c0 ed 54 0d 3f 76 8d 17 be f8 79 1c bf 42 e1 48 3d
       0.5520771 -0.14800057 -0.6112361 0.049042948
0000d0 24 8f 6e be 1b 9a ec 3e 1f 7a e3 3e 7a 84 40 bd
       -0.23296791 0.46211323 0.44429109 -0.04700134
0000e0 ac 29 a3 3d 99 76 0f 3f bc b0 25 bd 0a 4a 97 3d
       0.07966933 0.5604034 -0.04045175 0.07387169
0000f0 a7 3f c4 bb b8 7c 1f bf 6e 71 8b 3d ae 5f e2 3e
       -0.0059890333 -0.6229968 0.06808744 0.44213623
000100 6c d9 96 bd 94 85 48 3c 03 45 6a 3d 1c 0c f0 be
       -0.07365689 0.012238879 0.05719472 -0.4688424
000110 dc cc 37 3e 46 86 0e 3d cf 9e 1f 3e d8 86 62 3e
       0.17949241 0.034796022 0.15587924 0.22121751
000120 40 11 e5 3e 00 0e 67 3e f9 e4 c7 be e9 e6 0e 3d
       0.44739723 0.22563934 -0.3904188 0.03488818
000130 74 c8 74 3e a3 a9 be bd 60 39 38 3c 6c 50 34 3d
       0.23904592 -0.093096994 0.011244148 0.04402201
000140 72 9c 9b bd e4 d7 33 be 32 64 85 3e 5d b6 67 3d
       -0.07598199 -0.17562824 0.26053005 0.0565704
000150 18 5b 91 3e c3 e8 e4 3c a7 fc ff bb d4 96 7e 3d
       0.28389812 0.02794302 -0.007812101 0.06215556
000160 f5 0f 09 3e 3c 36 9c be 08 a4 14 bf bc 7f f6 3e
       0.13384993 -0.30510128 -0.5806279 0.4814433
000170 4e 84 cd 3d d0 ad 3a 3b 03 f0 9e 3d 44 36 d7 3e
       0.10035001 0.0028484948 0.07760622 0.4203359
000180 cb 00 ee be bc a2 52 3d a1 34 7a 3c 10 9e 4d 3d
       -0.4648498 0.051424727 0.015271337 0.05019957
000190 30 bd 8e be 00 9b 9b 3d 3e 17 9b 3d aa 16 94 3d
       -0.27878714 0.07597923 0.075727925 0.07230885
0001a0 8a c1 15 3e a3 bb 88 3d 5c da 8a 3d 02 ac 01 3e
       0.1462461 0.06676414 0.0677993 0.12663272
0001b0 d7 42 8f 3d 03 16 6d 3c 97 72 01 3f 22 fd df 3c
       0.069951706 0.01447058 0.50565475 0.027342383
0001c0 e4 a7 76 bc f4 94 ac 3d 74 48 b0 be c4 56 d0 3c
       -0.015054677 0.08426848 -0.34430277 0.025431998
0001d0 63 23 c7 be b2 8d 9c 3d f2 b0 cc bb b6 3a d9 3c
       -0.38894185 0.07644214 -0.0062466795 0.026517253
0001e0 ec c9 30 be a5 13 48 3d 3f 7f e1 3e c0 12 ba be
       -0.17264527 0.04884686 0.44042394 -0.3634243
0001f0 46 f8 a2 3c a5 7a 2a 3d 95 33 e6 3d 19 55 e1 bc
       0.019893777 0.04162087 0.11240307 -0.027506398
000200 6d f3 09 3e 22 b8 bc be 73 b2 23 3d db 00 5c 3d
       0.13471766 -0.36859232 0.039965104 0.053711753
000210 98 c6 ca 3d 8a a4 fc bc 81 17 69 bf f3 6f 6b bc
       0.0990116 -0.030840177 -0.9105149 -0.0143699525
000220 08 08 90 bd b1 64 43 3d f8 2d c1 3e 9f c7 a3 3b
       -0.07032782 0.04770345 0.37730384 0.004998162
000230 a0 15 4f bf 17 8e f9 3d b8 99 ff be 0f 13 24 3d
       -0.8089237 0.121853046 -0.49921966 0.04005724
000240 e4 ee f6 3e f4 5c 59 bd 84 d3 63 3e cc 44 f0 bd
       0.48229134 -0.053067163 0.22248656 -0.11731872
000250 8a 1a 01 3f ee e1 89 bf 34 ee 83 bd fb f1 24 3e
       0.5043112 -1.0772073 -0.06441918 0.16107933
000260 14 cf f2 3e b4 b0 09 3f 1b ff bd be 05 d9 45 3d
       0.47423613 0.5378525 -0.37108693 0.04830267
000270 44 16 16 3e f8 9f b9 bd 8e 02 9c 3c aa b4 66 3e
       0.14656931 -0.09063715 0.019044187 0.22529855
000280 64 5c 33 bf 1f a9 3c bd e7 89 fb bc 73 cc 5c 3e
       -0.7006285 -0.046059724 -0.030705405 0.21562366
000290 62 26 10 bf 34 49 d7 be 52 1c 7b 3e 85 f0 85 bd
       -0.5630857 -0.42048037 0.24522522 -0.06540016
0002a0 f2 2e 50 3e 28 2a 5a 3e b6 88 1d bf b0 b8 3b bf
       0.20330408 0.21305144 -0.6153673 -0.73328686
0002b0 32 b4 04 3f 01 68 fe 3a 43 09 81 3d e8 a7 b5 3d
       0.51837456 0.0019409658 0.06300595 0.08869916
0002c0 4a 59 13 3f 20 db 3a be 4c a4 0d bf d1 6a c9 3c
       0.5755812 -0.18247652 -0.5532882 0.024587067
0002d0 74 90 70 be 6f 15 e9 3e 4c 50 e1 3e 92 ae e2 bc
       -0.23492604 0.45524165 0.44006574 -0.027671132
0002e0 26 4a 99 3d a8 2b 08 3f f6 ab 9f bc 24 50 90 3d
       0.07484846 0.53191614 -0.019491177 0.070465356
0002f0 78 8f 42 bd be f0 1b bf e4 a8 3c 3d 2b e4 ea 3e
       -0.047500104 -0.6091422 0.046059504 0.45877203
000300 34 85 55 bd 02 4f 61 3d aa 2c 01 3d ec 31 fd be
       -0.052128986 0.05500699 0.031536736 -0.4945215
000310 ef 2c 0b 3e ec b3 49 3d 84 97 13 3e 7c 21 74 3e
       0.1359136 0.049243852 0.14413267 0.23840898
000320 e2 3c cf 3e ad 6f 68 3e d8 c7 ce be 8a 2a 61 bc
       0.40476137 0.22698851 -0.40386844 -0.013743052
000330 95 34 4a 3e 08 7d ba bd 50 37 16 3d a8 e3 1f 3d
       0.19746621 -0.09105879 0.036673844 0.03903547
000340 88 c0 5d bd 2e d2 42 be cb 09 82 3e 7a a8 79 3d
       -0.05413869 -0.1902549 0.25398096 0.060951687
000350 b0 4f 96 3e 18 a1 8b 3c 3a fa 51 bd dc 86 97 3d
       0.29357672 0.017044589 -0.051264025 0.07398769
000360 b8 17 b0 3d fc bd 9a be 52 25 12 bf 88 9b d9 3e
       0.08598274 -0.30223072 -0.57088196 0.42501473
000370 0c bb f1 3d d3 28 be bc c2 a6 7a 3d b0 3f c6 3e
       0.118032545 -0.023212826 0.06119419 0.38720465
000380 27 46 fd be 90 57 80 3d 8e 0d 91 3d ed 2a 4a 3d
       -0.49467584 0.06266701 0.070826635 0.049357343
000390 58 c8 87 be b4 8a dd 3c a4 ee 35 3d c9 b5 03 3d
       -0.26520038 0.027043678 0.04441704 0.032155786
0003a0 3f d5 0f 3e e8 b1 01 3e 09 6d c4 3d d8 aa c7 3d
       0.1404619 0.12665522 0.09591109 0.09749383
0003b0 80 a2 1b 3d c4 e7 53 3d 8c ce f1 3e e9 20 1f 3d
       0.03799677 0.0517347 0.47227895 0.038849745
0003c0 1e c9 a7 3a f1 00 ab 3d b6 20 97 be 86 fb 0c 3c
       0.0012801026 0.08349789 -0.29517144 0.00860489
0003d0 34 6a b3 be 5d b8 fc 3d ec 72 16 3d 54 cd 34 3d
       -0.35041964 0.12339852 0.03673069 0.04414113
0003e0 35 d6 2c be ba bd 11 3c 2c 5a f0 3e 38 3b ab be
       -0.16878588 0.008895332 0.46943796 -0.33443618
0003f0 0e 12 23 3d d8 e9 32 3d 22 ee f9 3d 93 97 69 bd
       0.03981214 0.043680042 0.12203623 -0.057029318

layer2.bias f4 [128]
000000 1b 11 c1 3e 4d 4b c1 3e 63 00 d4 3e a7 27 54 42
       0.37708363 0.37752762 0.41406545 53.038723
000010 e4 93 1b bd f5 f7 ca 3e 7e 31 db 3a 34 60 54 42
       -0.037982836 0.396423 0.0016723124 53.09395
000020 5f 41 55 42 56 f4 cb 3e ba d2 53 42 b2 e7 cb 3e
       53.31384 0.3983485 52.955788 0.39825207
000030 e9 a1 dc 3e a8 65 dc 3e 2c 9f d2 3e 32 0e d6 3e
       0.43092278 0.43046308 0.41137064 0.41807705
000040 40 d7 c9 3e 16 fa 53 42 e4 6d 54 42 95 4b be 3e
       0.39422035 52.994225 53.107315 0.3716704
000050 e9 b5 c9 3e 40 8e 53 42 0a e5 c9 3e f2 63 ca 3e
       0.393966 52.888916 0.39432555 0.39529377
000060 74 be cf 3e 44 4d 54 42 59 f8 53 42 b5 34 cb 3e
       0.40574992 53.075455 52.992527 0.3968865
000070 08 38 54 42 b6 7b d7 3e 4e fe d8 3e 3a 2a 54 42
       53.054718 0.4208657 0.4238152 53.041237
000080 cc ef 53 42 22 e8 cd 3e 18 af b9 3e dd 31 db 3e
       52.984177 0.40216166 0.36266398 0.4281148
000090 a8 17 c2 3e 78 a5 d5 3e 2b f9 53 42 26 23 d8 3e
       0.37908673 0.41727805 52.99333 0.42214316
0000a0 0e 42 54 42 44 22 d0 3e 53 4e df 3e f2 95 d9 3e
       53.064507 0.40651143 0.43614444 0.42497212
0000b0 cc e4 c5 3e dc 87 53 42 7e 31 53 42 6a 8f bd 3e
       0.3865112 52.882675 52.798332 0.3702348
0000c0 3e 51 e3 3e 7c a9 d2 3e 04 ef 53 42 52 59 54 42
       0.4439792 0.4114493 52.983414 53.087227
0000d0 28 bd e2 3e 68 72 9d 3c 08 1a d2 3e c2 d9 d8 3e
       0.4428494 0.019219592 0.41035485 0.42353636
0000e0 33 5b 54 42 b8 c0 da 3e 88 ad 62 3b 01 59 c0 3e
       53.08906 0.42725158 0.0034588296 0.37567905
0000f0 d4 79 53 42 f7 0c 54 42 9f 75 df 3e 90 21 c3 3e
       52.868973 53.01266 0.43644425 0.38111544
000100 4c 47 cd 3e 8c 3d 54 42 c2 3a c8 3e a6 0d da 3e
       0.40093458 53.060104 0.3910733 0.42588538
000110 f3 a5 c6 3e 74 ae cc 3e 48 b2 db 3e 26 53 e1 3e
       0.38798484 0.39976847 0.42909455 0.4400875
000120 64 91 53 42 2d 3c 54 42 99 95 de 3e f0 9d d9 3e
       52.891983 53.058765 0.4347351 0.4250331
000130 d0 7e 54 42 e1 f6 cb 3e 00 c7 d7 3e 78 72 cf 3e
       53.12384 0.3983679 0.42144012 0.4051702
000140 82 fa 53 42 70 1f da 3e 8c 94 54 42 a6 52 54 42
       52.994637 0.4260211 53.145065 53.08071
000150 ce 70 d8 3e 30 11 d2 3e 6f 2e de 3e 7c a1 c9 3e
       0.42273563 0.41028738 0.433948 0.39381015
000160 f4 83 f0 3b 8a 9d ce 3e d2 4a d0 3e fe b4 c7 3b
       0.007339949 0.40354568 0.40682083 0.006094574
000170 5c 28 d3 3e 0b 76 53 42 9a 20 df 3c 8d eb da 3e
       0.4124173 52.865276 0.027237225 0.42757836
000180 9c 2a 54 42 40 58 54 42 a0 c8 d8 3e 3c 34 ba 3e
       53.04161 53.08618 0.42340565 0.36367977
000190 bb 5d db 3e ee 79 ce 3e 84 c0 d4 3e a4 60 54 42
       0.42844948 0.403274 0.41553128 53.094376
0001a0 54 93 c2 3e f0 77 d3 3e b6 f9 53 42 15 fe 54 42
       0.38003027 0.41302443 52.99386 53.248127
0001b0 6c 3c c3 3e 16 76 d6 3e 8e 64 54 42 11 46 54 42
       0.38132036 0.41886967 53.098198 53.068424
0001c0 70 89 d6 3c 07 a9 e0 3e 0d 87 55 42 29 a6 de 3e
       0.026188582 0.43878958 53.381886 0.43486145
0001d0 4c bb d8 3e 53 24 54 42 9c 36 54 42 b0 1f 54 42
       0.42330396 53.035473 53.05333 53.030945
0001e0 d6 6a db 3e 98 e6 05 bd fa 8d da 3e b5 63 54 42
       0.42854947 -0.032690614 0.42686445 53.09737
0001f0 89 6a 54 42 0f 2a c8 3e 8d 30 dc 3e 59 64 54 42
       53.10404 0.39094588 0.4300579 53.097996
